reinforce/codes_for_book/c07/Models/100_critic.pt (torch_old, 275786 bytes, 9 tensors)

fcs1.weight f4 [256, 8]
0	0xbd894ed8	-0.067044914
1	0xbd0d467c	-0.034491047
2	0x3d867846	0.06565909
3	0x3cfeb5eb	0.031092605
4	0xbd0a9ae1	-0.03383911
5	0xbd54a828	-0.05191818
6	0xbd2b3a8d	-0.041803885
7	0xbdaafff5	-0.08349601
8	0xbd8f8db4	-0.070094496
9	0xbd08af1d	-0.033370126
10	0xbf6e7ed9	-0.93162304
11	0x402b2bb9	2.6745436
12	0xbcc75196	-0.024330895
13	0xbe1c3348	-0.15253937
14	0x3e715046	0.23565778
15	0x3e76e7de	0.24111888
16	0xbe948648	-0.29008698
17	0x3ca67ec6	0.020324122
18	0xbf9b85f5	-1.2150255
19	0x40173b2f	2.3629873
20	0x3e9b70ee	0.30359596
21	0xbe724100	-0.23657608
22	0x3d993e53	0.074825905
23	0x3e9766a5	0.295705
24	0x3bf97df7	0.007613893
25	0xbcbdec80	-0.023184061
26	0xbbd8a9a0	-0.0066120178
27	0x3c81de84	0.015853174
28	0xbbf10060	-0.007354781
29	0xbd2b51fd	-0.041826237
30	0x3d02e670	0.031958044
31	0x3d144272	0.03619618
32	0xbd014c3c	-0.031566843
33	0xbc1ec268	-0.009689905
34	0x3c7563b8	0.014977388
35	0x3c8941a8	0.01675494
36	0x3c041578	0.008061759
37	0xbd36f1d4	-0.04466422
38	0xbcaf18e8	-0.02137418
39	0xbd6871c2	-0.056749113
40	0xbcdc9b57	-0.02692954
41	0xbdaa2d04	-0.08309367
42	0xbd0d179c	-0.034446344
43	0xbd41145f	-0.047138568
44	0x3cd35067	0.025795175
45	0xbda3d017	-0.07998674
46	0xbd8c6fa3	-0.068572305
47	0xbd90f7cf	-0.07078516
48	0x3e17ce00	0.14824677
49	0x3d3eac35	0.04655095
50	0x3fbc9e41	1.4735795
51	0xbe8af778	-0.2714193
52	0x3dbedbda	0.09319277
53	0x3d9c66b2	0.07636775
54	0xbf12a851	-0.5728808
55	0xbe0c9bf8	-0.13731372
56	0xbe958778	-0.29204917
57	0xbdf2d2b0	-0.11856592
58	0xbfb6c228	-1.4278002
59	0xbf87be87	-1.0605019
60	0xbca551f9	-0.02018069
61	0xbdde7516	-0.10862176
62	0xbe370307	-0.17872249
63	0x3d931f07	0.07183652
64	0xbdfb89e0	-0.12282157
65	0x3e30fe0d	0.17284413
66	0xbf7d06d5	-0.9883855
67	0x4028807d	2.6328423
68	0x3c75d112	0.0150034595
69	0xbaf02242	-0.0018320756
70	0x3d3304ef	0.043705877
71	0xbec82496	-0.39090413
72	0xbd55d109	-0.052201305
73	0xbd971254	-0.07376543
74	0x3d9d8e81	0.07693196
75	0xbc89a0e1	-0.016800346
76	0xbd7e8af3	-0.06214423
77	0x3cb44ecd	0.022010231
78	0xbca95243	-0.020669108
79	0xbdae1507	-0.085001044
80	0xbc554850	-0.013017729
81	0x3d228fc6	0.039687894
82	0xbcfa7be0	-0.030576646
83	0x3d5ebe38	0.054380625
84	0xbd8ae132	-0.06781234
85	0xbd839214	-0.064243466
86	0xbd01e84a	-0.03171567
87	0xbd6169d3	-0.055032562
88	0xbc4e29a6	-0.012583172
89	0xbd39058b	-0.0451713
90	0xbec8d14f	-0.3922219
91	0xbe8b5dc4	-0.27219975
92	0xbdfa6176	-0.122256204
93	0x3eb2415e	0.34815496
94	0x3eebb73e	0.4603824
95	0x3d1d30d7	0.038376655
96	0xbe73939b	-0.23786776
97	0xbd06ba35	-0.032892425
98	0xbff05b1c	-1.8777804
99	0x3ed777ab	0.42083487
100	0x3d9c7ea6	0.07641344
101	0xbc17b4cc	-0.009259414
102	0xbeccdf4f	-0.4001412
103	0xbc9f7c77	-0.01946853
104	0x3d71ab91	0.05900151
105	0xbea83752	-0.32854706
106	0x3f3a65c9	0.7281156
107	0x400c1c37	2.189222
108	0x3e32d950	0.1746571
109	0xbe4fdca4	-0.20299011
110	0x3e71d40d	0.23616047
111	0xbefe730c	-0.4969715
112	0xbda18a0d	-0.07887659
113	0x3cb95011	0.022621186
114	0xbb805dc1	-0.0039174263
115	0x3c13bec1	0.009017647
116	0xbcfd5272	-0.030923102
117	0xbda70469	-0.08155138
118	0x3c98086d	0.018558705
119	0x3b7c0a51	0.0038458297
120	0xbd5dacc8	-0.054119855
121	0xbceb35ab	-0.028712114
122	0x3d8055f1	0.06266392
123	0xbdb6a85f	-0.08918833
124	0xbdc156c8	-0.0944038
125	0xbd41db98	-0.04732856
126	0xbc6810f8	-0.014164202
127	0x3cbb1532	0.022837255
128	0xbda29f66	-0.07940559
129	0xbd8274eb	-0.063699566
130	0xbcfad9a0	-0.03062135
131	0xbd68a181	-0.056794647
132	0xbc9c5218	-0.019082114
133	0x3c1608b3	0.0091573475
134	0x3cbc9fbc	0.023025386
135	0x3cc4f493	0.024042403
136	0x3dc23f6d	0.09484754
137	0xbe9a2887	-0.30109045
138	0xbf0e9809	-0.5570074
139	0x3fbbb14a	1.4663479
140	0x3ead6edd	0.33873644
141	0xbf0f1c49	-0.55902535
142	0xbdaa7d44	-0.08324674
143	0x3dfa1e8d	0.12212858
144	0x3d420ac0	0.047373533
145	0x3d1ece08	0.038770705
146	0xbd0e80b0	-0.034790695
147	0x3d01ad20	0.031659245
148	0x3b8032c9	0.003912304
149	0x3b6a45a0	0.0035747066
150	0x3d10ba56	0.035333954
151	0xbcdcbf60	-0.026946723
152	0x3cf193a4	0.029489346
153	0xbd5af2aa	-0.05345408
154	0x3d665d3c	0.05624126
155	0x3d529806	0.051414512
156	0xbca54630	-0.02017507
157	0xbb690d00	-0.0035560727
158	0xbc39e158	-0.01134523
159	0x3d1b7e34	0.037962154
160	0xbbb73ccf	-0.0055919657
161	0xbd3377f4	-0.043815568
162	0xbd8708ce	-0.06593476
163	0x3cc07437	0.023492916
164	0xbbfecd5b	-0.007775945
165	0x3bdc1a6e	0.006717018
166	0xbd470004	-0.048584
167	0xbb983f1d	-0.0046461956
168	0x3e95ab14	0.29232085
169	0x3cdb5613	0.026774442
170	0xbfe173e3	-1.7613491
171	0x3f7a6995	0.97817355
172	0xbe95405e	-0.2915067
173	0xbe11f40b	-0.14253251
174	0x3e53a2b3	0.20667534
175	0x3c8e1c7e	0.01734757
176	0xbd6172b8	-0.055041045
177	0xbeb075a2	-0.34464747
178	0x403e8d60	2.9773788
179	0xbfb60a57	-1.4221905
180	0x3e0664f4	0.13124448
181	0xbdc9a538	-0.09845966
182	0xbe840cae	-0.25790924
183	0x3eba80f2	0.36426502
184	0xbe2e99e8	-0.17050898
185	0x3c9ca846	0.019123208
186	0xbf279602	-0.6546327
187	0xbea30c99	-0.3184555
188	0x39d16266	0.000399369
189	0xbe08703e	-0.13324067
190	0x3ec6a7e0	0.38799953
191	0xbdb10508	-0.08643538
192	0xbe5f0bd9	-0.21781863
193	0x3e08dde1	0.1336589
194	0xbef966d1	-0.48711255
195	0x3f8669f3	1.0501083
196	0x3df86fc6	0.12130694
197	0x3de0ae11	0.109707005
198	0xbf29ba25	-0.6629966
199	0x3d46bc49	0.048519406
200	0xbe5dbeaa	-0.21654764
201	0x3e6c200c	0.230591
202	0x40e5cfdb	7.181623
203	0xbf403d50	-0.75093555
204	0x3e18e703	0.14931874
205	0xbe6c8530	-0.23097682
206	0xbdcfff03	-0.101560615
207	0xbe362788	-0.17788517
208	0x3d0ea8dc	0.034829006
209	0x3d4f02d3	0.050539803
210	0xbcfb2ba8	-0.030660465
211	0xbd48a7c2	-0.04898811
212	0xbca73c5c	-0.020414524
213	0x3d2a5044	0.041580454
214	0xbd16ba3a	-0.036798693
215	0x3bcfbb40	0.0063394606
216	0x3cb0937c	0.021554701
217	0xbe91c76b	-0.28472456
218	0x3f829c5c	1.0203967
219	0xbfe3ee3b	-1.7807077
220	0xbeb43922	-0.3519984
221	0x3da65883	0.08122351
222	0x3e5a4b94	0.21317893
223	0xbebd2a42	-0.36946303
224	0x3e4cf58b	0.20015542
225	0x3b7b6d3e	0.0038364674
226	0x4010c4a4	2.262002
227	0xbe18a10e	-0.14905187
228	0x3d8c19c4	0.06840852
229	0x3e4dfe08	0.20116436
230	0xbf0f960d	-0.56088334
231	0xbe3b406a	-0.18286291
232	0xbd348195	-0.04406889
233	0xbd951a6a	-0.07280429
234	0x3c98fa9e	0.018674191
235	0xbd913e1f	-0.07091927
236	0xbd9028c6	-0.07039027
237	0xbd3ed23e	-0.04658722
238	0xbd9243d8	-0.071418464
239	0xbd8aae6a	-0.06771548
240	0x3c52db36	0.012869647
241	0x3ca0a0b8	0.019607887
242	0x3a83c840	0.0010054186
243	0xbd43e1cc	-0.04782276
244	0x3d18856d	0.03723662
245	0xbd482406	-0.04886248
246	0x3b2b67a0	0.0026154295
247	0x3d0238fe	0.031792633
248	0x3d56dc46	0.052456163
249	0xbd601836	-0.05471059
250	0x3d49d06c	0.049271032
251	0x3d7dc7f2	0.06195826
252	0x3c2ddeb0	0.010612175
253	0xbb0b8960	-0.0021291599
254	0x3caf4708	0.021396175
255	0xbca83804	-0.020534523

fcs1.bias f4 [256]
0	0x3b62c964	0.0034604901
1	0xbda7f619	-0.08201236
2	0xbe6b2a43	-0.2296534
3	0xbe455a92	-0.19272831
4	0xbeaa4d37	-0.33262035
5	0xbc9ca039	-0.019119369
6	0x3e66caac	0.2253825
7	0x3ebd512b	0.3697599
8	0x3e8993cb	0.2687057
9	0xbd990656	-0.074719116
10	0xbd753833	-0.05986805
11	0xbd598c67	-0.053112414
12	0x3ebd98f0	0.37030745
13	0x3e9ab8b7	0.3021905
14	0xbdcf02d3	-0.101079606
15	0xbdad0396	-0.084479496
16	0xbd611bb2	-0.054958053
17	0x3d9357bb	0.07194468
18	0xbe64f416	-0.22358736
19	0xbe37b80c	-0.17941302
20	0xbdf6843c	-0.120369405
21	0xbdf61df4	-0.12017432
22	0x3e47b103	0.19501118
23	0x3cda0f8d	0.026618743
24	0x3ea66d7c	0.32505405
25	0x3e719c96	0.23594889
26	0xbe87dfa7	-0.2653782
27	0x3e97d864	0.2965728
28	0x3d94b05b	0.072602
29	0x3ca673e1	0.020318927
30	0xbe63427c	-0.2219333
31	0xbe4594bb	-0.19295017
32	0xbd6b5270	-0.057451665
33	0xbeb00a1e	-0.3438272
34	0xbe36814e	-0.17822763
35	0x39f59a2b	0.00046844906
36	0x3e10bbe2	0.14134172
37	0xbdf03842	-0.1172948
38	0xbe70249d	-0.23451467
39	0xbd5cf52f	-0.053944763
40	0xbeae546a	-0.34048778
41	0xbd6e5e3f	-0.05819535
42	0xbd09e20a	-0.033662833
43	0xbde66a46	-0.11250739
44	0xbe2303e6	-0.15919456
45	0x3c9eaa0e	0.019368198
46	0xbdec0d6c	-0.115259975
47	0xbd045928	-0.03231159
48	0xbcb27077	-0.021782143
49	0x3e8dfd53	0.27732334
50	0xbad97f7d	-0.0016593781
51	0x3d330edc	0.043715343
52	0xbe9eb773	-0.30999336
53	0x3e9b135e	0.30288213
54	0xbda445c7	-0.080211215
55	0x3e7f792d	0.24948569
56	0xbdc9b858	-0.09849614
57	0x3e781859	0.24228038
58	0x3dbb44ad	0.09143958
59	0xbe43cbb2	-0.19120672
60	0xbcae4fa0	-0.021278203
61	0xbc06b7c8	-0.008222528
62	0x3dd58425	0.10425595
63	0xbe3579ed	-0.17722292
64	0x3d62ac2a	0.05533997
65	0x3e099ba8	0.13438284
66	0xbe947955	-0.2899882
67	0x3eb52e9a	0.35387117
68	0xbd9fbd1b	-0.07799741
69	0x3de4a3ef	0.1116408
70	0xbda2a246	-0.079411075
71	0x3ec950b1	0.39319375
72	0xbd167383	-0.036731254
73	0xbe072427	-0.13197385
74	0xbe8d4b3c	-0.27596462
75	0x3c179724	0.009252343
76	0xbe90cdb5	-0.28281942
77	0xbea7aaaf	-0.3274741
78	0xbd233658	-0.039846748
79	0xbd5aea7a	-0.05344627
80	0x3db94a24	0.09047344
81	0x3e024f21	0.12725498
82	0x3d86f824	0.06590298
83	0xbea58fcb	-0.32336268
84	0xbda2449e	-0.07923244
85	0xbd51393d	-0.051079977
86	0xbe383701	-0.17989732
87	0xbe0bc12f	-0.13647912
88	0xbe956cf5	-0.2918469
89	0x3e03f118	0.12884939
90	0xbd267ef9	-0.040648434
91	0xbe4c9254	-0.19977695
92	0x3e911bef	0.28341624
93	0x3dd7e5ed	0.10541902
94	0xbe7c8540	-0.24660206
95	0x3e66de73	0.22545795
96	0x3e24457d	0.16042133
97	0xbe3da89a	-0.18521348
98	0xbd019086	-0.03163197
99	0xbde5e342	-0.112249866
100	0xbb35daee	-0.00277489
101	0x3eaeb1dc	0.3412007
102	0xbdf8d30c	-0.12149629
103	0xbe314afc	-0.1731376
104	0x3e6f6ffb	0.23382561
105	0x3da051db	0.07828113
106	0x3d5674b0	0.052357376
107	0x3dd4e2c7	0.10394817
108	0xbe1f31d0	-0.15546346
109	0x3ec12a63	0.3772765
110	0xbe192a7e	-0.14957616
111	0xbe415ab0	-0.18882251
112	0xbeace140	-0.33765602
113	0xbe84bb48	-0.25924134
114	0x3dfb7cbe	0.12279652
115	0x3e8819c0	0.26582146
116	0x3e2303cf	0.15919422
117	0x3e744158	0.23853052
118	0xbdd6b2f5	-0.10483352
119	0x3e87e9e1	0.26545623
120	0x3ea0aef5	0.31383482
121	0x3db0ef17	0.08639353
122	0x3eb7cce7	0.35898516
123	0xbe99151b	-0.29898915
124	0x3e0d9154	0.1382497
125	0xbde866e9	-0.113477536
126	0xbd3dc21d	-0.0463277
127	0xbeb09e4b	-0.34495768
128	0xbdafcf3c	-0.08584449
129	0xbd7a3771	-0.06108803
130	0xbe765250	-0.24054837
131	0xbe6be792	-0.23037556
132	0xbdcb3d80	-0.099238396
133	0xbeb08832	-0.3447891
134	0xbe57cb1a	-0.21073571
135	0x3d2b776d	0.04186194
136	0xbd8ec1e4	-0.069705755
137	0x3d781452	0.060566254
138	0xbea82d8f	-0.32847258
139	0xbe054ae5	-0.13016851
140	0xbdfdbfd3	-0.12390103
141	0x3e852a08	0.2600863
142	0xbd420a78	-0.047373265
143	0xbe8aa8ea	-0.27081996
144	0x3ebea4cc	0.37235105
145	0xbd224975	-0.039620835
146	0x3eab2eb4	0.3343407
147	0xbe955464	-0.29165947
148	0xbea40236	-0.32032937
149	0xbe07203f	-0.13195895
150	0xbca2f32c	-0.019891344
151	0xbc92dc06	-0.017927181
152	0xbe7d98c2	-0.24765304
153	0xbe54e125	-0.20789011
154	0xbd86623b	-0.06561705
155	0x3e5ea25c	0.21741623
156	0x3e308471	0.17238022
157	0xbe2a37b5	-0.16622813
158	0x3e8ec8bd	0.27887526
159	0xbe5991fc	-0.21247095
160	0xbe424915	-0.18973191
161	0x3e6e552c	0.23274678
162	0xbc806645	-0.015673766
163	0x3e1f3379	0.15546979
164	0xbe491584	-0.19637114
165	0xbe38ac00	-0.18034363
166	0xbe695149	-0.22784914
167	0x3e0edf24	0.13952309
168	0xbe862e9b	-0.26207432
169	0x3e9302df	0.28713128
170	0x3e381de4	0.17980152
171	0xbd96dba4	-0.07366112
172	0x3d327052	0.04356415
173	0x3c119027	0.008884466
174	0xbcd9d1e7	-0.026589347
175	0x3ea7ddd8	0.3278644
176	0xbead25b9	-0.33817843
177	0xbde8c891	-0.1136638
178	0xbdf22ae4	-0.11824587
179	0x3de07d59	0.10961408
180	0xbea24d7a	-0.31699735
181	0x3e479601	0.19490816
182	0x3e570145	0.20996578
183	0xbea9f54f	-0.33194968
184	0xbe2505c9	-0.16115488
185	0xbdf2e941	-0.11860896
186	0x3e7a1739	0.24422921
187	0xbd4e648e	-0.050388865
188	0x3c7837bc	0.015150007
189	0xbe188955	-0.14896138
190	0x3e7ff25c	0.24994797
191	0xbd83db49	-0.0643831
192	0xbe7c7b9a	-0.24656525
193	0xbe6a129f	-0.22858666
194	0xbe83dc4c	-0.2575401
195	0xbe419d18	-0.18907583
196	0x3e5b95bc	0.21443838
197	0xbdda93ba	-0.10672708
198	0xbe275d10	-0.16344094
199	0xbdd47899	-0.10374565
200	0xbde1b71c	-0.110212535
201	0x3e05e377	0.13075052
202	0x3daf1b39	0.08550114
203	0x3af10dcb	0.0018390951
204	0xbe5205ae	-0.20509979
205	0xbdc1f038	-0.09469646
206	0xbde90711	-0.11378301
207	0xbe5f2574	-0.21791631
208	0xbeb40646	-0.35161036
209	0x3bc462c1	0.0059932177
210	0xbd2b231d	-0.041781534
211	0xbdc77105	-0.09738354
212	0xbe37ceff	-0.17950056
213	0x3dde9edf	0.10870146
214	0x3d4ac165	0.04950084
215	0x3e7a8e57	0.24468361
216	0xbe7cd044	-0.24688822
217	0x3d802f25	0.06258992
218	0xbe940e66	-0.28917235
219	0xbea733d3	-0.32656726
220	0xbe4fc479	-0.20289792
221	0xbeb1bc99	-0.347142
222	0x3e94ff02	0.29100806
223	0x3e00fcca	0.12596431
224	0x3ca65688	0.020304933
225	0xbea45657	-0.32097122
226	0xbe0df2a3	-0.1386209
227	0xbe893b50	-0.26803064
228	0xbe15faba	-0.14646426
229	0x3e9b60ff	0.3034744
230	0xbddaff84	-0.10693267
231	0x3dcd0839	0.10011334
232	0xbe1399b0	-0.14414096
233	0xbd2ca9be	-0.042154066
234	0xbea4d622	-0.3219462
235	0x3e3f0c69	0.18657078
236	0x3ec87be0	0.3915701
237	0xbe312e02	-0.17302707
238	0x3da920dd	0.08258221
239	0x3dac558e	0.08414756
240	0x3ea89769	0.32928017
241	0xbd889ee8	-0.06670934
242	0xbe743524	-0.23848397
243	0xbe0359fe	-0.12827298
244	0xbe57c701	-0.21072008
245	0xbea285cf	-0.31742713
246	0xbdd62246	-0.10455756
247	0x3d372447	0.04471233
248	0xbe1d3641	-0.15352727
249	0xbe875f07	-0.26439688
250	0xbe7616dc	-0.24032158
251	0xbe62f7e4	-0.22164875
252	0xbea89162	-0.32923418
253	0xbe7eb5eb	-0.24874084
254	0xbddfcfa9	-0.1092828
255	0x3e9c42c8	0.305197

fcs2.weight f4 [128, 256]
0	0x3d2a1fae	0.04153412
1	0xbd5a072c	-0.053229496
2	0xbb16916c	-0.0022974862
3	0x3d96e805	0.07368473
4	0xbcea7738	-0.028621301
5	0x3cf0fa40	0.029416203
6	0xbda0806c	-0.078369945
7	0xbdbcc2e4	-0.0921686
8	0xbd280a22	-0.04102529
9	0x3d190b42	0.037364252
10	0xbd48dbb0	-0.049037635
11	0xbdf094af	-0.11747109
12	0x3cf14c48	0.029455319
13	0xbdc86f36	-0.09786837
14	0xbda42528	-0.080148995
15	0xb9fdda00	-0.00048418343
16	0x3d92b3ff	0.07163238
17	0x3a4104bf	0.0007363073
18	0xbccb5be4	-0.02482409
19	0x3d6b856e	0.057500295
20	0xbc1e62d0	-0.009667113
21	0xbd10635e	-0.035251014
22	0xbd164733	-0.036688995
23	0xbdc83c6d	-0.0977715
24	0xbcdff6b9	-0.027339326
25	0xbba7d75a	-0.0051221075
26	0xbd1f77f3	-0.038932752
27	0xbd979ef4	-0.07403365
28	0xbb853bdd	-0.004065974
29	0x3d8ab7f5	0.06773368
30	0x3cdc048c	0.026857637
31	0x3c2e6218	0.010643505
32	0x3cbd95d4	0.023142733
33	0xbd0b0107	-0.033936527
34	0xbd74809b	-0.05969296
35	0xbdbb6353	-0.09149804
36	0xbdeab4c3	-0.11460259
37	0x3a0bd580	0.0005334243
38	0xbc94238c	-0.018083356
39	0x3d807d01	0.062738426
40	0xbca5f208	-0.020257011
41	0x3c4d496a	0.01252971
42	0xbc3f011e	-0.011657981
43	0xbda1097c	-0.07863137
44	0xbc107eb6	-0.008819273
45	0xbd605092	-0.054764338
46	0xbde939d9	-0.11387987
47	0xbdf52893	-0.119706295
48	0xbc2b425d	-0.010452834
49	0xbc37c588	-0.011216529
50	0x3c9d57d1	0.019206913
51	0xbdde8f58	-0.108671844
52	0xbcb71370	-0.022348136
53	0x3d2a2534	0.041539386
54	0xbdd2bbf6	-0.10289757
55	0xbcc6d50c	-0.02427151
56	0x3da40823	0.080093645
57	0xbd4a671f	-0.04941475
58	0xbe03018b	-0.12793557
59	0x3d0a1502	0.03371144
60	0x3d0ef626	0.034902714
61	0xbcb03fb9	-0.02151476
62	0xbd88b298	-0.06674689
63	0xbdf6edb5	-0.12057058
64	0xbd942c22	-0.0723498
65	0xbdeeb81e	-0.11656211
66	0x3d9a06c9	0.075208254
67	0xbdc6774c	-0.09690723
68	0x3c8e3504	0.017359264
69	0x3d521fb6	0.051299773
70	0xbdb350e4	-0.08755663
71	0xbe04e205	-0.12976845
72	0xbddbb8c6	-0.10728602
73	0x3c9ecbb4	0.019384243
74	0xbda5eb28	-0.08101493
75	0x3d6f9ade	0.058497302
76	0xbc9846ed	-0.018588508
77	0xbb7cc3c0	-0.0038568825
78	0xbcd822cb	-0.026383778
79	0xbd578a72	-0.052622266
80	0xbda68769	-0.08131296
81	0xbd904bee	-0.070457324
82	0x3d82cadb	0.06386348
83	0x3d449942	0.04799772
84	0x3c1a0826	0.009401357
85	0x3ca5fd80	0.02026248
86	0xbca98b50	-0.020696312
87	0xbd935a69	-0.07194979
88	0xbc8b798a	-0.017025728
89	0x3b1c1b68	0.0023820046
90	0x3cf576b4	0.029963829
91	0xbd645662	-0.055746444
92	0xbc7167a0	-0.014734179
93	0x3d2e72c8	0.042589933
94	0x3d758f7a	0.059951283
95	0xbdd7962a	-0.105266884
96	0xbdc4c1cb	-0.096072756
97	0x3d6f7442	0.05846048
98	0x3d17933c	0.037005648
99	0xbd7904df	-0.06079566
100	0x3d36f297	0.044664945
101	0xbd67a398	-0.0565525
102	0xbd0d300a	-0.03446964
103	0xbc3d8778	-0.011567943
104	0x3cc123ff	0.023576735
105	0xbd8bead3	-0.068318985
106	0xbbaed088	-0.0053349175
107	0xbdcd0701	-0.100111015
108	0xbda4ce00	-0.08047104
109	0x3d0061a9	0.031343136
110	0x3c873b97	0.016507907
111	0x3d894897	0.067032985
112	0x3c086918	0.008325838
113	0x3d0d3f32	0.034484096
114	0xbc807149	-0.015679019
115	0xbd183365	-0.03715839
116	0xbc063dae	-0.0081934165
117	0xbca21e7d	-0.019789929
118	0xbdac9a1e	-0.08427833
119	0x3b8ac5da	0.0042350115
120	0xbd41c040	-0.047302485
121	0x3ccc62f1	0.024949523
122	0xbcad1b07	-0.021131052
123	0x3c9c63c4	0.01909054
124	0xbc1b0ddf	-0.009463756
125	0xbdb0847d	-0.0861902
126	0xbd87a8f7	-0.06624024
127	0x3b82942b	0.003984948
128	0xbd572cb2	-0.05253286
129	0xbd23bc8f	-0.039974745
130	0xbdb388fb	-0.08766361
131	0xbd3e895a	-0.046517707
132	0xbc9d9a39	-0.019238578
133	0x3acc4f69	0.0015587631
134	0xbda9e1d3	-0.08295026
135	0xbdb93c89	-0.09044749
136	0x3d93670f	0.07197391
137	0x3dcfaeb4	0.10140744
138	0xbc644148	-0.01393158
139	0x3d65102e	0.055923633
140	0xbd86fded	-0.06591401
141	0xbdd91ccc	-0.10601196
142	0x3db224ff	0.08698463
143	0xbc838938	-0.016056642
144	0xbc9d0d99	-0.019171523
145	0x3d9a4d8b	0.075343214
146	0xbddd6677	-0.10810559
147	0xbceb62d8	-0.028733656
148	0x3db0594f	0.08610784
149	0xbcecb14e	-0.02889314
150	0x3d595b4c	0.053065583
151	0x3cb2b88b	0.021816513
152	0x3d626be2	0.055278666
153	0xbd85e7bd	-0.06538341
154	0xbc2965cb	-0.010339211
155	0x3d1d6389	0.038425002
156	0xbd431031	-0.047622863
157	0xbd6f5c84	-0.05843784
158	0xbd4e436b	-0.050357264
159	0x3d4a64e6	0.04941263
160	0xbc435930	-0.011923119
161	0xbc52df1e	-0.012870578
162	0xbd3665f6	-0.04453083
163	0xbdf0562f	-0.11735188
164	0x3cc47c44	0.023985036
165	0xbd967562	-0.07346608
166	0xbd2b12b9	-0.041765902
167	0xbc8ce4d3	-0.017198956
168	0x3c8ecfb8	0.017433032
169	0xbd220af5	-0.03956123
170	0xbdc9f9bf	-0.098620884
171	0x3c8b5524	0.017008372
172	0xbd2bb3a5	-0.04191937
173	0xbda440c6	-0.08020167
174	0xbdf470fb	-0.11935612
175	0x3bb9f421	0.0056748544
176	0x3d694f36	0.056960307
177	0xbda2d193	-0.07950129
178	0xbd739a22	-0.059473164
179	0x3ca56270	0.02018854
180	0xbd44bc41	-0.048031095
181	0xbdc9ea1f	-0.09859108
182	0xbd5a3225	-0.053270478
183	0xbd11c79b	-0.03559075
184	0xbc197fd0	-0.009368852
185	0xbbc13ea0	-0.005897358
186	0xbcce08d2	-0.02515069
187	0x3cc86f36	0.024467092
188	0xbd5728ca	-0.052529134
189	0x3da12cf7	0.078699045
190	0xbdd7115a	-0.105013564
191	0x3cc55e0b	0.024092695
192	0xbda91cc7	-0.08257442
193	0xbdb7cd58	-0.08974713
194	0x3da11579	0.07865424
195	0xbd7b9bf8	-0.06142804
196	0xbcf26971	-0.029591294
197	0x3ce8ff41	0.028442027
198	0x3d094320	0.03351128
199	0xbd69a352	-0.05704052
200	0x3db4ad75	0.08822147
201	0x3c9777e4	0.018489785
202	0x3c109df7	0.008826724
203	0xbe01d8aa	-0.12680307
204	0xbd840d3a	-0.06447835
205	0x3da6e239	0.08148617
206	0x3d17a54e	0.03702288
207	0xbd04035c	-0.032229766
208	0x3d97069c	0.073743075
209	0x3d54376e	0.051810674
210	0xbdaff855	-0.085922875
211	0xbd7b3378	-0.06132838
212	0x3d887ced	0.06664453
213	0x3c809859	0.015697645
214	0xbe0ad962	-0.13559487
215	0x3d076e5f	0.033064242
216	0xbd87bc7f	-0.0662775
217	0x3d50470c	0.050849006
218	0xbd845050	-0.06460631
219	0xbc846d14	-0.016165294
220	0xbb008ca1	-0.0019615071
221	0x3da7613b	0.08172842
222	0x3cf7dbfe	0.030256268
223	0x3c799d37	0.015235237
224	0xbd9e461a	-0.077282146
225	0x3db311ab	0.08743604
226	0xbc99ae68	-0.018759921
227	0x3d166a5b	0.036722522
228	0xbd10d4a7	-0.03535905
229	0xbdbb3472	-0.091408625
230	0xbcf4f5da	-0.029902387
231	0xbdd1b255	-0.10239092
232	0x3c0e1584	0.008672122
233	0xbd37034e	-0.044680886
234	0x3d0cf5a8	0.034413964
235	0x3c727911	0.014799372
236	0xbb6672e7	-0.0035163702
237	0x3bbe4ae0	0.0058072656
238	0xbdb10ec2	-0.08645393
239	0xbc27eae2	-0.0102488715
240	0xbce0f88a	-0.027462263
241	0xbdbabf42	-0.09118511
242	0xbc73b3a0	-0.014874369
243	0xbdcf647b	-0.10126587
244	0xbd5be7a6	-0.053687714
245	0x3b986a15	0.004651318
246	0xbd937efd	-0.072019555
247	0xbd8eb995	-0.06968991
248	0x3cf74fcc	0.030189417
249	0x3d9c385f	0.076279394
250	0xbd34b4f2	-0.044117875
251	0xbd6dc9d5	-0.05805381
252	0x3c3268d0	0.010889247
253	0x3d57dcee	0.05270093
254	0x3dab6203	0.083683036
255	0xbe087030	-0.13324046

fcs2.bias f4 [128]
0	0xbdd93824	-0.10606411
1	0x3ebca898	0.36847377
2	0xbdc3204e	-0.09527646
3	0xbd3ee9ae	-0.046609573
4	0x3cf3166a	0.029673774
5	0xbcf5dc44	-0.030012257
6	0x3cf7c3a3	0.030244654
7	0x3d01f60d	0.031728793
8	0xbdd58485	-0.10425667
9	0xbdb09d7a	-0.08623786
10	0xbd9f6efb	-0.0778484
11	0x3d431b6a	0.047633566
12	0x3c75b14c	0.014995884
13	0xbd2f301e	-0.042770498
14	0xbd94cc4a	-0.072655275
15	0x3d764e0e	0.060133033
16	0xbc5701a4	-0.01312295
17	0xbc34a0d5	-0.0110246735
18	0xbd8db7c4	-0.06919816
19	0xbc64a20d	-0.013954652
20	0xbcb9a39b	-0.022661021
21	0x3d39a703	0.04532529
22	0xbc1e6054	-0.009666521
23	0x3d0187c4	0.031623617
24	0xbd146e8a	-0.03623823
25	0xbd9d09b1	-0.07667864
26	0xbc863a8b	-0.016385337
27	0xbcd632b1	-0.026147218
28	0x3c99314e	0.018700268
29	0xbd64ae1e	-0.055830114
30	0xbd7e7383	-0.06212188
31	0x3d677466	0.05650749
32	0xbcbae652	-0.022814903
33	0x3c831d80	0.016005278
34	0xbdeea219	-0.116520114
35	0x3cd34c7f	0.025793312
36	0xbd6d3ff4	-0.05792232
37	0x3ec5d3a7	0.3863804
38	0xbd8e213c	-0.06939933
39	0xbb8fc5c8	-0.004387591
40	0xbd8c3123	-0.068453096
41	0x3cb85de0	0.0225057
42	0xbd80c351	-0.06287254
43	0xbcff3c35	-0.031156639
44	0xbc33740c	-0.010952961
45	0xbdaa11ac	-0.08304152
46	0x3eda4108	0.4262774
47	0xbccbb6d1	-0.024867447
48	0xbd7a31a8	-0.061082512
49	0xbd87faff	-0.066396706
50	0xbd5f1b84	-0.0544696
51	0xbd5cb2c7	-0.053881433
52	0xbd868a86	-0.0656939
53	0xbc09db79	-0.008414143
54	0x3d1ca136	0.03823968
55	0x3d2340b7	0.03985664
56	0x3d4eaf07	0.050459888
57	0xbd75ad64	-0.05997981
58	0xbd2337be	-0.03984808
59	0x3d370257	0.044679966
60	0xbd4ac27a	-0.049501874
61	0x3cdb36ba	0.026759494
62	0xbca33ba6	-0.019925904
63	0xbd7324f2	-0.059361406
64	0xbd24c630	-0.04022807
65	0xbcff1794	-0.031139173
66	0xbd31873e	-0.043341868
67	0xbdacffae	-0.084472045
68	0xbd0fee2e	-0.035139255
69	0xbe1ddf27	-0.15417157
70	0x3dafa995	0.08577267
71	0xbcc8fbd6	-0.024534147
72	0x3cb415ee	0.021983113
73	0xbd14ff12	-0.036376067
74	0x3d3d2531	0.046178047
75	0xbd4a95ff	-0.049459454
76	0x3cc6a849	0.024250166
77	0xbdc0a6ff	-0.09406852
78	0x3cbc8a9f	0.023015318
79	0xbd4b68f0	-0.049660623
80	0xbce0ba0a	-0.02743246
81	0x3c66be9c	0.014083531
82	0xbd07668f	-0.033056792
83	0x3d21bcd5	0.039486725
84	0xbd394459	-0.045231197
85	0xbd649e25	-0.05581488
86	0xbcffd6fc	-0.031230442
87	0xbd52f2a6	-0.05150094
88	0x3d00c641	0.03143907
89	0x3c333452	0.010937767
90	0xbd53a657	-0.051672306
91	0xbd3c6523	-0.04599489
92	0xbd431031	-0.047622863
93	0x3ab50665	0.001381111
94	0x3d5e7085	0.054306526
95	0xbdbfeb7e	-0.093710884
96	0x3b749e18	0.0037325677
97	0x3ccfaacc	0.025349997
98	0xbb60835a	-0.003425798
99	0x3e80ed19	0.2518089
100	0x3dfea9a2	0.12434699
101	0xbd40fcef	-0.047116216
102	0x3d489356	0.048968635
103	0x3d235ae6	0.03988161
104	0xbd01c11e	-0.03167831
105	0x3e10e29f	0.14148949
106	0xbd284062	-0.041077025
107	0x3c4eebc2	0.012629451
108	0x3cd9dc34	0.026594259
109	0xbd00ea61	-0.03147352
110	0x3b55cd21	0.0032623487
111	0x3d22028e	0.039553218
112	0xbcfa6858	-0.030567333
113	0x3e037833	0.12838821
114	0xbdb60075	-0.08886806
115	0x3cc3cc83	0.02390123
116	0xbd29dee4	-0.04147233
117	0xbb85fe17	-0.0040891278
118	0xbc4c06d4	-0.0124528
119	0xbda62d91	-0.0811416
120	0x3bd302d9	0.0064395485
121	0xbd8900b8	-0.0668959
122	0xbd378cb3	-0.044811916
123	0x3d0571b5	0.032579143
124	0xbd4d0701	-0.050055508
125	0xbc29b7d4	-0.010358769
126	0x3dd52107	0.1040669
127	0xbd7ffe0c	-0.062498137

fca1.weight f4 [128, 2]
0	0xbd3e81c3	-0.04651047
1	0x3b5279e0	0.00321161
2	0xbd295948	-0.04134491
3	0xbda384b8	-0.079842985
4	0x3d8a19c2	0.06743194
5	0x3cc9e5fb	0.024645796
6	0xbc8c94b0	-0.017160743
7	0x3d6dfd9e	0.058103196
8	0x3d5958b2	0.053063102
9	0x3d8be563	0.068308614
10	0x3b9b811a	0.0047456147
11	0xbd946e24	-0.0724757
12	0x3dad82d3	0.08472218
13	0xbd8a1832	-0.06742896
14	0x3d46138e	0.048358493
15	0xbccc6b7c	-0.024953596
16	0x3f45cf58	0.77269506
17	0xbe03097a	-0.12796584
18	0xbc380944	-0.011232678
19	0x3d0526bd	0.032507647
20	0xbd907765	-0.07054023
21	0x3e4988ea	0.19681135
22	0x3d7e35bf	0.062062975
23	0x3d590ed3	0.052992653
24	0x3c2ff700	0.010740042
25	0x3d8cddd5	0.068782486
26	0x3d644835	0.055732924
27	0xbd3fefe1	-0.046859626
28	0xbeb4fecb	-0.35350642
29	0x3f4e30e7	0.8054337
30	0xbd070775	-0.032966096
31	0x3d33f9a6	0.043939255
32	0xbd1b57f2	-0.037925668
33	0x3d8282cf	0.06372606
34	0x3db9fe56	0.09081714
35	0x3e39a59f	0.18129586
36	0x3c5b10c1	0.013370694
37	0xbbb132dd	-0.0054076747
38	0xbccc6ed0	-0.024955183
39	0xbbbe6170	-0.0058099553
40	0xbdf0083d	-0.11720321
41	0x3cd7b96c	0.026333533
42	0xbdbfbb72	-0.09361924
43	0x3d1b166a	0.037863173
44	0xbd8296fe	-0.06376456
45	0x3d47f89a	0.04882107
46	0x3d87e843	0.06636097
47	0x3d1b3877	0.037895646
48	0x3d04b54b	0.032399457
49	0x3dd58d40	0.10427332
50	0x3d927dad	0.07152877
51	0x3d8828eb	0.066484295
52	0x3dce0f94	0.10061565
53	0xbe1c5cdf	-0.15269803
54	0x3d57bd76	0.05267092
55	0x3c60dea8	0.01372496
56	0xbd917359	-0.07102079
57	0x3eab0774	0.33404124
58	0xbd9b36cb	-0.0757881
59	0xbbdf4310	-0.0068134144
60	0xbd7f257a	-0.0622916
61	0x3cb08a04	0.021550186
62	0xbcae9a30	-0.021313757
63	0xbd584a26	-0.05280509
64	0x3b70fee0	0.003677301
65	0x3c52e1d6	0.012871226
66	0xbd11db97	-0.035609808
67	0x3dae25c1	0.08503295
68	0x3d140e02	0.03614617
69	0x3d9c14b1	0.07621134
70	0xbc099c18	-0.008399032
71	0x3a9d3980	0.0011995286
72	0xbd04b259	-0.032396648
73	0xbc266d58	-0.0101579055
74	0xbda12ae7	-0.07869511
75	0x3d934357	0.071905784
76	0xbd9d17d7	-0.07670563
77	0xbe01099d	-0.12601323
78	0xbe05146b	-0.1299607
79	0xbd901a4e	-0.07036267
80	0xbde02260	-0.109440565
81	0x3da82827	0.082107835
82	0xbd92bdb4	-0.07165089
83	0xbee79093	-0.4522749
84	0xbd26b3fe	-0.040698998
85	0x3da31e12	0.0796472
86	0x3d30fe11	0.043211047
87	0xbcb750ec	-0.022377454
88	0x3d54cbca	0.05195216
89	0xbc8ab2d8	-0.016930982
90	0xbd978490	-0.07398331
91	0xbc9f8cfc	-0.019476406
92	0x3cc65c84	0.024214037
93	0xbc357db8	-0.011077337
94	0xbd9d53e9	-0.0768202
95	0xbda18bd4	-0.07887998
96	0xbda1700e	-0.07882701
97	0xbb3ff34e	-0.0029289308
98	0x3c48ef50	0.012264088
99	0xbd5f651e	-0.054539792
100	0x3d03e820	0.032203794
101	0x3d434ac9	0.047678743
102	0xbd839256	-0.06424396
103	0x3cffd850	0.031231076
104	0x3daf46a7	0.08558398
105	0xbb904170	-0.004402332
106	0xbd99004d	-0.074707605
107	0xbeb0d188	-0.3453486
108	0x3d425c80	0.047451496
109	0x3d9fe54d	0.078074075
110	0x3d46679e	0.04843866
111	0xbe151830	-0.14560008
112	0xbe2e5172	-0.17023256
113	0x3dcffc3a	0.1015553
114	0xbc042970	-0.00806652
115	0x3c439160	0.011936516
116	0xbf1bccd5	-0.60859424
117	0xbe80aa81	-0.25130084
118	0x3dfe91ca	0.12430151
119	0x3b8de402	0.004330159
120	0xbdac6756	-0.08418147
121	0xbc31c272	-0.010849582
122	0x3ca85c2b	0.020551762
123	0xbd2b4e15	-0.04182251
124	0xbc5c35bd	-0.013440547
125	0x3d93422a	0.07190354
126	0x3bfa4670	0.0076377913
127	0xbb447f62	-0.0029983153
128	0xbd8e7c0e	-0.06957255
129	0x3c51a69d	0.012796071
130	0x3da9defb	0.08294483
131	0x3d3dd692	0.04634721
132	0xbe1990a6	-0.14996585
133	0x3da5a0fa	0.080873445
134	0x3e03e855	0.12881596
135	0x3ccbee05	0.02489377
136	0x3d50444a	0.050846376
137	0x3d79c0fa	0.060975052
138	0x3d17f532	0.03709907
139	0xbe86f031	-0.26355127
140	0xbd1b7758	-0.037955612
141	0xbc8e966d	-0.017405713
142	0x3d844aa5	0.0645955
143	0x3d6f3cee	0.058407716
144	0xbd0f4a1d	-0.03498279
145	0x3c4baa78	0.01243078
146	0xbd940f2d	-0.07229457
147	0xbd2102de	-0.039309375
148	0x3e9edbf1	0.31027177
149	0xbd51b448	-0.05119732
150	0x3dacc781	0.0843649
151	0xbd098046	-0.033569597
152	0xbc8a9b30	-0.016919702
153	0x3da3d651	0.07999862
154	0xbd960c9b	-0.07326623
155	0x3ca3152c	0.019907556
156	0x3d6cba59	0.057794902
157	0xbcf4fa81	-0.029904606
158	0x3efebec1	0.4975491
159	0x3f61983d	0.8812292
160	0x3cbf3f9e	0.023345765
161	0x3db2161f	0.086956255
162	0x3ea3ab82	0.31966788
163	0xbe930747	-0.2871649
164	0x3d9a1b01	0.07524682
165	0x3bb08660	0.0053871125
166	0xbd209cd5	-0.039212067
167	0xbd892871	-0.06697167
168	0x3c79f3e7	0.015255905
169	0x3da2de0d	0.07952509
170	0x3cde9290	0.027169496
171	0xbbed5309	-0.0072425646
172	0xbd60f624	-0.054922238
173	0xbd2095a9	-0.039205227
174	0xbd20f43b	-0.039295416
175	0xbc8215df	-0.01587957
176	0xbc9a8527	-0.01886232
177	0xbd1e4ce6	-0.038647555
178	0xbd1a8317	-0.037722673
179	0xbd2e6af8	-0.042582482
180	0xbd684661	-0.056707744
181	0x3e8fbc5f	0.28073403
182	0x3e39b22d	0.18134375
183	0xbcd7f36b	-0.026361188
184	0x3e198c86	0.14995012
185	0x3df8d097	0.1214916
186	0x3f8f27e9	1.1184055
187	0xbf83e559	-1.0304366
188	0x3dca865f	0.098889105
189	0xbd546d90	-0.0518623
190	0xbbf34910	-0.007424481
191	0x3db503f1	0.088386424
192	0x3e64f8f1	0.22360589
193	0xbe0389ab	-0.12845485
194	0xbd44358a	-0.04790262
195	0xbd818553	-0.06324258
196	0xbd34b4fe	-0.04411792
197	0x3cd658ee	0.026165452
198	0x3d90ddbf	0.07073545
199	0x3dcf4155	0.10119883
200	0xbe00173d	-0.12508865
201	0xbdbfa5b4	-0.09357777
202	0xbcbb068e	-0.022830274
203	0xbba20db5	-0.0049454817
204	0xbcef063e	-0.029177781
205	0xbda905de	-0.08253072
206	0xbe339a24	-0.17539269
207	0x3dab7db4	0.08373585
208	0xbba66a71	-0.005078607
209	0x3da171d5	0.0788304
210	0x3d3a73d6	0.045520626
211	0x3db9a05f	0.090637915
212	0xbd8b9323	-0.068151735
213	0xbe5f0296	-0.2177833
214	0xbe7f59f1	-0.24936654
215	0x3d60560d	0.054769564
216	0xbd0aeeae	-0.03391903
217	0xbc5ce181	-0.013481499
218	0xbddc267d	-0.107495286
219	0xbe0c1bd9	-0.13682498
220	0xbcf73dd4	-0.03018085
221	0xbd7b438d	-0.06134372
222	0xbd0adcbb	-0.03390191
223	0xbd971111	-0.07376302
224	0xbc374a88	-0.011187203
225	0x3d1e4f22	0.038649686
226	0xbc46ee48	-0.012141772
227	0x3c0562f0	0.008141264
228	0xbc0dbed4	-0.008651454
229	0x3cf1097d	0.02942347
230	0xbd40b1b6	-0.04704448
231	0x3d522f5e	0.051314704
232	0x3d789002	0.06068421
233	0x3d8be303	0.068304084
234	0x3dc17873	0.09446802
235	0xbd42b60a	-0.047536887
236	0xbdc23128	-0.09482032
237	0x3d97ef1e	0.07418655
238	0x3dad5879	0.084641404
239	0xbdf3b3a2	-0.118994966
240	0xbdc8eea8	-0.09811145
241	0xbd997eee	-0.07494913
242	0xbd852a04	-0.065021545
243	0x3daa412d	0.083132125
244	0xbd55c169	-0.052186403
245	0xbda54718	-0.08070201
246	0xbdbf232c	-0.093328804
247	0x3d326ea4	0.043562546
248	0x3e038df6	0.12847123
249	0x3db7826c	0.08960423
250	0xbd49a10c	-0.049225852
251	0x3d60259a	0.05472336
252	0xbd620abf	-0.05518603
253	0xbd1905c2	-0.037359007
254	0x3da3c6af	0.0799688
255	0x3d06618a	0.032807864

fca1.bias f4 [128]
0	0xbebe93bd	-0.3722209
1	0x3f8a8b6d	1.0823799
2	0x3f853edc	1.0409808
3	0xbe6ef194	-0.23334342
4	0xbf2bcf05	-0.6711276
5	0x3f626db1	0.88448626
6	0xbec208d6	-0.37897366
7	0xbe78d702	-0.24300769
8	0x3f0f151c	0.55891585
9	0x3f85186b	1.0398077
10	0x3f82f229	1.0230151
11	0x3f795bdd	0.974058
12	0xbec6a864	-0.38800347
13	0xbedbc942	-0.42926985
14	0x3e235352	0.15949753
15	0xbf290bf3	-0.6603386
16	0x3f4b95ac	0.79525256
17	0x3f26415d	0.64943486
18	0x3f6ca394	0.924371
19	0xbd9fd6b8	-0.07804626
20	0x3f84ade1	1.0365564
21	0x3f635f78	0.8881755
22	0xbef15030	-0.4713149
23	0x3f57602b	0.84131116
24	0x3f5c2df1	0.860076
25	0xbf1a61ff	-0.6030578
26	0x3ee1bd7c	0.44089878
27	0xbf08b6e2	-0.5340406
28	0x3caa4eaf	0.020789472
29	0xbf2a8cbd	-0.66621
30	0xbf010bff	-0.5040893
31	0xbf06508c	-0.52466655
32	0x3f06eaa5	0.5270179
33	0x3f6b99de	0.9203166
34	0xbefdd743	-0.49578294
35	0xbf2b387d	-0.6688307
36	0xbef0eff9	-0.47058085
37	0xbe8940ca	-0.26807243
38	0x3f2f9f1e	0.6860217
39	0x3f8b470f	1.088106
40	0x3f6dd19e	0.92897975
41	0x3e98dbd1	0.29855207
42	0x3f3e2b08	0.7428441
43	0x3f18c76e	0.59679306
44	0xbf200552	-0.6250812
45	0xbde5a138	-0.11212391
46	0xbedcef6a	-0.43151408
47	0xbe34ae0c	-0.17644519
48	0xbf33f929	-0.70302063
49	0xbefd69e2	-0.49494845
50	0xbe5efb46	-0.2177554
51	0xbee4b595	-0.44669786
52	0xbf201d51	-0.62544733
53	0x3f0bc75b	0.5460107
54	0xbe500c74	-0.2031725
55	0x3f47d2c8	0.78056
56	0x3f485236	0.78250444
57	0xbe5d27f7	-0.21597277
58	0x3cb5ef1d	0.022208745
59	0x3f7b14b9	0.98078495
60	0xbedfeb72	-0.43734318
61	0xbd9bec88	-0.07613474
62	0x3f5e369d	0.86802083
63	0xbdfc90d0	-0.12332308
64	0xbea9db0b	-0.3317493
65	0xbf0194fa	-0.50617945
66	0x3f5baa35	0.8580659
67	0x3f528065	0.82227165
68	0xbf0a8f29	-0.54124695
69	0x3f1cb066	0.6120666
70	0xbd7c7f82	-0.06164504
71	0xbeec56bc	-0.46159923
72	0xbeec04b4	-0.46097338
73	0xbee28d8d	-0.4424862
74	0x3ebd9f5e	0.3703565
75	0xbf2aabe1	-0.66668516
76	0xbe23bb04	-0.1598931
77	0xbe92dc7b	-0.28683838
78	0x3f40e3ae	0.7534741
79	0xbd83d66b	-0.06437381
80	0xbea83328	-0.3285153
81	0x3f47492b	0.7784602
82	0xbe604e2c	-0.2190482
83	0xbdee9328	-0.116491616
84	0x3f5759f1	0.84121615
85	0x3f1cc798	0.61242056
86	0x3f7415fd	0.9534605
87	0x3f7156ed	0.94273263
88	0xbe8919da	-0.26777536
89	0xbe9f1e6c	-0.31077898
90	0xbcba78cc	-0.022762679
91	0x3f424436	0.7588533
92	0x3f012b68	0.5045686
93	0xbeb1604e	-0.34643787
94	0xbe1b8ec8	-0.15191185
95	0xbf146078	-0.579597
96	0x3f41dcd1	0.75727564
97	0xbf04cc38	-0.51874113
98	0x3f87e215	1.061587
99	0x3f5a4f3f	0.8527717
100	0x3f40c034	0.7529328
101	0x3f5b2aff	0.8561248
102	0xbf23b209	-0.63943535
103	0x3f316d89	0.6930776
104	0x3f90f58b	1.1324934
105	0x3f659014	0.8967297
106	0x3f286493	0.65778464
107	0x3ea1c5d2	0.31596237
108	0x3f27de33	0.65573424
109	0x3f0319e8	0.51211405
110	0x3f803aac	1.0017905
111	0xbec0f9ea	-0.3769067
112	0xbed74422	-0.4204417
113	0xbf15fc68	-0.58588266
114	0x3f96371d	1.1735569
115	0xbeccf7ee	-0.40032905
116	0xbe081c80	-0.13292122
117	0x3f5758d8	0.8411994
118	0x3f29acba	0.66279185
119	0x3f64db52	0.89397156
120	0x3f482105	0.78175384
121	0x3f3f2407	0.7466435
122	0xbf0a39ac	-0.5399425
123	0x3f2e4538	0.6807437
124	0x3f205350	0.62627125
125	0xbe036333	-0.1283081
126	0xbefd6aae	-0.49495453
127	0xbed3d91f	-0.41376588

fc2.weight f4 [128, 256]
0	0x3d9aa467	0.075508885
1	0xbee09289	-0.43861797
2	0x3e5d3c9b	0.2160515
3	0x3da775b2	0.081767455
4	0x3e3929db	0.18082373
5	0x3ccf58c3	0.02531088
6	0xbf478c06	-0.77948034
7	0x3ebd3677	0.36955616
8	0xbfbd32b5	-1.47811
9	0xbc833c23	-0.016019886
10	0xbd948212	-0.072513714
11	0x3e37ecd7	0.17961441
12	0xbd0b3b0a	-0.03399185
13	0x3c438968	0.011934616
14	0xbb3b579b	-0.0028586152
15	0x3e5d3529	0.2160231
16	0xbe0ac755	-0.13552602
17	0xbd96240b	-0.073310934
18	0x3db0f36a	0.086401775
19	0xbd51d966	-0.051232718
20	0x3dff740e	0.124733075
21	0x3e897874	0.2684971
22	0xbdfc1e27	-0.123104386
23	0x3e314f2e	0.17315361
24	0xbd891058	-0.066925704
25	0xbda1dffd	-0.079040505
26	0x3dcfc5cc	0.10145149
27	0xbd8084d1	-0.06275333
28	0xbcbac712	-0.022800002
29	0xbd272850	-0.04080993
30	0x3cceebfd	0.025259012
31	0x3de3b2c0	0.11118078
32	0x3c7df683	0.0155006675
33	0x3e561e31	0.20909955
34	0x3d70e607	0.05881312
35	0xbdacc12e	-0.084352836
36	0x3e86e099	0.2634323
37	0x3ecc4139	0.3989351
38	0xbdb35cd4	-0.0875794
39	0x3e1da6cf	0.15395664
40	0x3da650b9	0.081208654
41	0x3d93de01	0.07220078
42	0xbd0416e4	-0.032248393
43	0x3e8356cd	0.2565216
44	0x3d3d43cc	0.046207234
45	0x3d2b1b4d	0.041774083
46	0xbdc087eb	-0.09400924
47	0x3e7a49bf	0.24442194
48	0xbc2e6710	-0.010644689
49	0x3b6e799e	0.0036388407
50	0x3ed1381a	0.40863115
51	0xbc096648	-0.008386202
52	0x3e7bf7d3	0.24606256
53	0x3d989125	0.07449559
54	0x3e3b43cf	0.18287586
55	0xbc6917fd	-0.014226911
56	0x3f08dc35	0.5346101
57	0xbd545620	-0.051839948
58	0xbcef257e	-0.029192682
59	0x3e9c26c3	0.30498323
60	0x3e0af135	0.13568576
61	0x3eca0bb5	0.39462057
62	0xbcfb3760	-0.030666053
63	0x3d751123	0.059830796
64	0x3c20a394	0.009804625
65	0xbd06d21e	-0.032915227
66	0xbd8d31a0	-0.06894231
67	0xbcf6e9d8	-0.030140802
68	0x3d32cffb	0.043655377
69	0xbc70d6d3	-0.014699656
70	0x3dcc3dab	0.099727
71	0xbd394c8e	-0.045239024
72	0x3e4f82f4	0.20264798
73	0xbda706fc	-0.08155629
74	0x3e244267	0.16040955
75	0x3d388108	0.04504493
76	0x3dd14576	0.10218327
77	0xbdc517bb	-0.09623667
78	0xbc02f44f	-0.007992818
79	0x3db2ad41	0.08724452
80	0x3d698412	0.057010718
81	0x3ec00990	0.37507296
82	0x3bc2ed09	0.005948667
83	0x3d8904a0	0.06690335
84	0xbdd3e8bf	-0.10347127
85	0xbd554468	-0.05206719
86	0x3d0f2ec5	0.034956712
87	0xbd57962a	-0.052633442
88	0x3f901db8	1.125907
89	0x3e4935b4	0.19649392
90	0x3d69ce4a	0.0570815
91	0xbc8e05e4	-0.017336793
92	0xbcf5cd08	-0.030004993
93	0xbdd0b085	-0.101899184
94	0x3e7ae943	0.24503045
95	0xbcd93ff4	-0.026519753
96	0x3ced0a6d	0.028935635
97	0x3c74d920	0.014944345
98	0xbccb45c8	-0.024813548
99	0x3e5be65f	0.21474598
100	0x3f1f0a1b	0.62124795
101	0x3d4c7291	0.049913947
102	0xbf8cf5d8	-1.1012526
103	0xbd83d094	-0.064362675
104	0x3e516115	0.2044719
105	0x3e6f3bf5	0.23362716
106	0x3e75a759	0.2398962
107	0x3e97005f	0.2949247
108	0x3d08a6e0	0.03336227
109	0xbd3efd36	-0.0466282
110	0xbda32c06	-0.07967381
111	0x3e99ef7c	0.30065525
112	0xbd9ae6cf	-0.075635545
113	0x3e42aa79	0.19010343
114	0x3c141c81	0.009039999
115	0x3e99e075	0.3005406
116	0x3d301c91	0.042995993
117	0x3e87274a	0.26397163
118	0x3e8c5cf4	0.27414668
119	0xbc9e31da	-0.01931088
120	0x3e8dd3b4	0.2770058
121	0x3c394841	0.011308731
122	0xbc81c3ce	-0.015840437
123	0x3eab9c14	0.33517516
124	0x3cfbc401	0.03073311
125	0xbdbb3472	-0.091408625
126	0x3ea1c87d	0.31598273
127	0xbd0d273c	-0.034461245
128	0x3da29083	0.0793772
129	0x3e3d1e20	0.18468523
130	0x3e26f4e9	0.16304363
131	0xbd9ca113	-0.0764791
132	0xbd2abdf0	-0.041685045
133	0x3dd5ea4f	0.104450814
134	0xbd4e0981	-0.050302032
135	0xbd024e2f	-0.031812843
136	0xbe59ca6e	-0.21268627
137	0x3dccb25d	0.099949576
138	0x3e0318fb	0.12802498
139	0x3d0658a4	0.032799378
140	0x3b78a340	0.0037939101
141	0x3cf34450	0.02969566
142	0x3d81c4dc	0.06336376
143	0x3c869ec4	0.016433127
144	0x3e3ea3c9	0.18617167
145	0x3defd6b8	0.11710876
146	0x3da24abe	0.07924412
147	0xbce33038	-0.027732953
148	0x3e2219c4	0.15830141
149	0x3e1d74ad	0.1537654
150	0x3d0aed8c	0.03391795
151	0x3d11bd51	0.035580937
152	0x3e2ea3c8	0.17054665
153	0xbd737891	-0.059441153
154	0xbc103c5c	-0.008803453
155	0xbda04e72	-0.07827462
156	0x3cc63807	0.024196638
157	0xbd5bf09d	-0.053696264
158	0xbbec4180	-0.0072099566
159	0x3d432952	0.047646828
160	0x3e229378	0.15876567
161	0x3d180aab	0.03711955
162	0x3d6d2782	0.057899006
163	0xbd664d83	-0.056226265
164	0xbba762c0	-0.0051082075
165	0xbda93b2b	-0.082632385
166	0x3e4b9b8d	0.19883557
167	0x3e02d275	0.12775595
168	0x3e3c8315	0.18409379
169	0xbdbbf37a	-0.09177299
170	0x3e25c4ee	0.16188404
171	0x3da377c9	0.079818316
172	0xbc1701b8	-0.009216718
173	0xbd87c1b8	-0.06628746
174	0xbd96240b	-0.073310934
175	0xbd710ddc	-0.058851108
176	0xbc8efca4	-0.017454453
177	0x3cfcc410	0.030855209
178	0xbda13953	-0.07872262
179	0x3d031816	0.032005392
180	0x3c3f66ae	0.011682196
181	0x3d70019f	0.058595296
182	0xbd98d4e3	-0.0746248
183	0x3e475d00	0.1946907
184	0x3e391d7f	0.18077658
185	0xbd48c90e	-0.049019866
186	0x3e3246a8	0.17409766
187	0x3e3dac71	0.18522812
188	0x3d69ed9a	0.05711136
189	0xbd2acd2d	-0.041699577
190	0x3e1f1f90	0.15539384
191	0xbda3aaf0	-0.07991588
192	0xbd9d9527	-0.07694464
193	0xbc934d79	-0.017981278
194	0x3e44254f	0.19154857
195	0x3e04dbf6	0.12974533
196	0xbccbea18	-0.024891898
197	0x3d091c20	0.033474088
198	0xbd419930	-0.04726523
199	0x3d038e2b	0.032118004
200	0xbcd2d8a0	-0.02573806
201	0xbdad8d61	-0.084742315
202	0xbe3fcaeb	-0.18729751
203	0xbc2fd641	-0.010732234
204	0x3da0058d	0.07813559
205	0x3d8540ad	0.065064766
206	0x3e2648cf	0.16238712
207	0xbe034ae9	-0.12821545
208	0xbcab6aa4	-0.020924874
209	0xbc20f65b	-0.009824361
210	0xbd5f265c	-0.05447994
211	0x3c72a9d0	0.014810994
212	0x3e060d0c	0.13090914
213	0x3e17baec	0.14817399
214	0x3e5855ca	0.21126476
215	0x3df03810	0.11729443
216	0xbd94f95b	-0.07274123
217	0x3d53fb4a	0.05175332
218	0xbea88aa5	-0.32918277
219	0x3e04ca3d	0.12967773
220	0xbd06c3f7	-0.03290173
221	0xbe995a1d	-0.29951563
222	0xbe38f251	-0.18061186
223	0x3d1fe65a	0.03903804
224	0x3c61a5eb	0.013772468
225	0xbd01f308	-0.031725913
226	0x3e593f5a	0.21215573
227	0x3dd8383e	0.10557602
228	0x3df39866	0.11894302
229	0x3deb0493	0.11475482
230	0xbd8e080a	-0.06935127
231	0x3e13a8f7	0.14419924
232	0x3e304fbd	0.17217918
233	0x3dc2bbd0	0.09508479
234	0x3e0eb727	0.13937055
235	0x3baffe77	0.0053709107
236	0x3d23a82f	0.039955314
237	0x3df46858	0.119339645
238	0x3e2eb9e7	0.17063104
239	0xbc626f8c	-0.01382054
240	0x3d3fe562	0.046849616
241	0x3cf18ac8	0.029485121
242	0x3d4b3f7a	0.049621083
243	0x3caf17b4	0.021373607
244	0x3d7d8622	0.061895497
245	0x3d9915ec	0.074748844
246	0x3e1fafe2	0.15594438
247	0x3d355423	0.044269692
248	0x3d886eb6	0.066617414
249	0x3e0d9f32	0.1383026
250	0xbd83018b	-0.06396779
251	0x3e167cb6	0.14696011
252	0x3e15c846	0.1462718
253	0x3d9c2ba7	0.076255135
254	0xbd5b4d65	-0.053540606
255	0x3d02e8d6	0.03196033

fc2.bias f4 [128]
0	0x3e465b54	0.19370776
1	0x3f1396ce	0.57651985
2	0x398e213c	0.00027109112
3	0x3e98d72c	0.29851663
4	0x3e0753f0	0.13215613
5	0x3d15788e	0.036491923
6	0x3e4676a4	0.19381195
7	0xbd82da7b	-0.06389328
8	0x3e823fcc	0.25439298
9	0x3dd77830	0.10520971
10	0x3e10e6d9	0.14150561
11	0x3e1b237e	0.15150258
12	0x3e355cf0	0.17711234
13	0x3d0cc593	0.03436811
14	0x3d98cd17	0.07460993
15	0xbb8f6670	-0.004376225
16	0xbb38252e	-0.0028098333
17	0xbd359306	-0.044329666
18	0x3cc43b82	0.023954157
19	0xbd605092	-0.054764338
20	0xbd8a4109	-0.06750686
21	0x3d89ffc5	0.06738237
22	0x3e8de264	0.27711785
23	0xbcdf05cc	-0.027224444
24	0xbd530247	-0.051515844
25	0x3dcf96c1	0.10136176
26	0x3cc19160	0.02362889
27	0x3e399819	0.18124427
28	0x3c2f8821	0.010713608
29	0x3e50398e	0.20334455
30	0x3dd39534	0.103311926
31	0x3c3fc7eb	0.011705379
32	0xbd06d606	-0.032918952
33	0x3e42862d	0.18996496
34	0x3c8956a8	0.016764954
35	0xbbacc8fe	-0.0052729836
36	0x3da3a03a	0.07989545
37	0x3ee52957	0.44758102
38	0x3c39dd9f	0.0113443425
39	0xbcc57fb8	-0.024108753
40	0x3de65a3e	0.11247681
41	0x3e61c602	0.2204819
42	0x3e659689	0.22420706
43	0x3ea5ea8d	0.3240551
44	0x3c567519	0.013089442
45	0x3d349170	0.044084013
46	0x3d9840c1	0.07434226
47	0xbdb5d540	-0.08878565
48	0xbd111af7	-0.035426106
49	0x3d0f0f85	0.03492691
50	0xbb0ffdce	-0.0021971348
51	0x3e442e7a	0.19158354
52	0x39af8ff1	0.00033485846
53	0x3baeb3df	0.005331501
54	0xbce1a853	-0.027546084
55	0x3c02de63	0.007987591
56	0x3e4774e2	0.19478181
57	0x3e446020	0.19177294
58	0x3a79b81b	0.000952603
59	0xbc6186b8	-0.01376503
60	0x3e54486b	0.2073075
61	0xbd6cfb08	-0.05785659
62	0xbc4df54a	-0.0125706885
63	0x3d1d9a7a	0.0384774
64	0xbd8f65b4	-0.0700182
65	0xbd74b900	-0.059746742
66	0xbd9750d4	-0.073884636
67	0x3d133609	0.035940204
68	0x3e121b75	0.14268287
69	0x3e0b8149	0.13623537
70	0xbc6fd248	-0.014637537
71	0x3b841cb5	0.0040317425
72	0xbcf5e02c	-0.03001412
73	0x3dab65f5	0.08369056
74	0x3e4bc1ab	0.19898097
75	0x3cc1f42e	0.023676004
76	0x3ddfd661	0.109295614
77	0xbd8088b9	-0.06276078
78	0xbc14811f	-0.009063988
79	0x3dcd94ae	0.10038124
80	0x3e0490a5	0.12945803
81	0x3dec3d24	0.11535099
82	0xbd162fd4	-0.036666706
83	0x3ddb3d28	0.10705024
84	0x3e10b170	0.14130187
85	0xbd8c0dfb	-0.06838604
86	0xbc22552d	-0.009908003
87	0xbca581b0	-0.020203441
88	0x3d95c6ab	0.073132835
89	0xbda70469	-0.08155138
90	0xbd719e50	-0.05898887
91	0x3e43f6b1	0.19137074
92	0xbc5dbbf4	-0.013533581
93	0x3d9429f1	0.07234562
94	0x3e931d26	0.28733176
95	0x3da61ae4	0.08110598
96	0x3c27d233	0.0102429865
97	0x3e71b2c8	0.23603356
98	0x3e9641b3	0.29347
99	0x3dc2c836	0.095108435
100	0x3dab3d28	0.08361274
101	0xbaf9cfff	-0.001905918
102	0x3c73ec2a	0.014887849
103	0x3c4f4815	0.012651463
104	0x3da903dd	0.0825269
105	0xbb516fed	-0.0031957582
106	0x3e0d34c8	0.13789666
107	0x3d276de2	0.040876277
108	0x3e21e123	0.15808539
109	0x3cf1cef9	0.029517638
110	0xbd906746	-0.07050948
111	0xbd9ac78f	-0.07557594
112	0x3e91073d	0.28325835
113	0x3e58958e	0.211508
114	0xbd4d496a	-0.05011884
115	0xbdadd306	-0.08487515
116	0xbd414431	-0.047184173
117	0x3dd5b21b	0.104343615
118	0x3e8dedcc	0.27720487
119	0xbb53fc47	-0.0032346414
120	0x3d9daf8e	0.076995
121	0x3d65054b	0.05591325
122	0x3f0dfcda	0.55463946
123	0x3e146f73	0.1449564
124	0xbd4a0aab	-0.04932658
125	0x3d039214	0.032121733
126	0x3dabbe92	0.08385958
127	0x3e19422d	0.1496665

fc3.weight f4 [1, 128]
0	0x3e9c1ae8	0.30489278
1	0x3fed310d	1.8530594
2	0xbceb3993	-0.028713977
3	0x3f5326c4	0.82481027
4	0x3eb2ebb6	0.34945458
5	0xbae6f2e2	-0.0017619992
6	0x3ed200d7	0.41016266
7	0xbc4830b5	-0.012218644
8	0x3f00dd42	0.5033761
9	0x3eb59d0c	0.3547138
10	0x3ebceacf	0.36897895
11	0x3e9b5952	0.30341583
12	0x3ebc60a3	0.36792478
13	0xbb8b045a	-0.004242462
14	0x3eb954bb	0.36197457
15	0x3f0c8458	0.5488944
16	0xbcd45018	-0.025917098
17	0xbc83e034	-0.01609812
18	0x3e993435	0.29922643
19	0x3baba01d	0.005237593
20	0xbcc2d1b1	-0.02378163
21	0x3f07c8f3	0.53041
22	0x3f8ce5f3	1.1007675
23	0xbafb9642	-0.0019194561
24	0xbc001483	-0.00781739
25	0x3e9dcefd	0.30821982
26	0x3bad9807	0.005297664
27	0x3eb25f23	0.3483821
28	0xbb9491b2	-0.00453397
29	0x3ea49c1c	0.32150352
30	0x3ea66c14	0.32504332
31	0x3ee8ac50	0.45443964
32	0x3b850cfd	0.004060386
33	0x3ec22f90	0.37926912
34	0xbcbe9b8d	-0.023267532
35	0xbc98fa9e	-0.018674191
36	0x3ee4595b	0.44599423
37	0x3fda1a9b	1.7039369
38	0xbf28546a	-0.65753806
39	0x3ec01385	0.37514892
40	0x3eb4c756	0.3530833
41	0x3f3ab38d	0.7293022
42	0x3ea8864e	0.32914966
43	0x3f0a6ae1	0.54069334
44	0x3cd027cc	0.025409602
45	0x3aace9dc	0.0013192254
46	0x3e9cfdf7	0.3066251
47	0xbf60006f	-0.8750066
48	0xba001677	-0.000488616
49	0x3bdefcb9	0.006805029
50	0x3bc45082	0.0059910426
51	0x3eb2d7e8	0.34930348
52	0x3ca308de	0.01990169
53	0xbcd70f80	-0.026252508
54	0xbc8da824	-0.01729209
55	0x3b93d631	0.0045116176
56	0x3ea06148	0.3132422
57	0x3e9c0432	0.3047195
58	0x3eddd7b0	0.4332862
59	0x3ed6893d	0.4190158
60	0x3ea2d1b7	0.31800625
61	0xbb26c5f0	-0.002544757
62	0xbcef5076	-0.029213171
63	0x3ecd8ded	0.40147343
64	0x3ec21ed4	0.37914145
65	0xbafee4d5	-0.0019446859
66	0x3c9cfa11	0.01916221
67	0x3bbd8e04	0.005784752
68	0x3f188514	0.5957806
69	0x3e9a5415	0.30142274
70	0xbb1b5281	-0.00237003
71	0x3ec577e0	0.3856802
72	0x3cbe3dcd	0.023222828
73	0x3eb71cff	0.3576431
74	0x3eb376c3	0.35051546
75	0x3eb3ba80	0.35103226
76	0x3ea74c16	0.32675236
77	0x3c96899c	0.018376164
78	0x3ec93300	0.39296722
79	0x3eaaed11	0.33383992
80	0x3eb44d69	0.3521531
81	0x3e9f6649	0.31132725
82	0x3e7880d1	0.2426789
83	0x3ebc579c	0.3678559
84	0x3ed09a19	0.40742567
85	0xbc8032c9	-0.015649216
86	0xbb3953f9	-0.0028278811
87	0xbc986dfd	-0.018607134
88	0x3ea37a2e	0.31929153
89	0xbcdd5ea7	-0.027022673
90	0xbb27a492	-0.002558027
91	0x3ea756f4	0.32683527
92	0x3eadc49b	0.3393906
93	0x3ea33dde	0.31883138
94	0x3f69f0b9	0.9138294
95	0x3ef195d7	0.4718463
96	0xbe8c62fc	-0.2741927
97	0x3f4dba90	0.80362797
98	0x3eb05401	0.3443909
99	0x3ed933ca	0.42422324
100	0x3ebce6bd	0.3689479
101	0x3baec8b8	0.005333986
102	0xbcd8d67b	-0.02646946
103	0x3ebdff7f	0.3710899
104	0x3ec1a203	0.37818918
105	0xbcab425d	-0.020905668
106	0x3eaa83b5	0.3330361
107	0xbb82c30b	-0.003990536
108	0x3ea6e389	0.3259547
109	0x3ee9bdc3	0.4565259
110	0xbcbdbce5	-0.023161361
111	0xbcb3d1cc	-0.021950625
112	0x3eddf511	0.43351033
113	0x3fbc61e7	1.4717377
114	0xbcde9b10	-0.027173549
115	0x3edcaaf2	0.4309917
116	0x3e97756f	0.29581782
117	0x3ea66b91	0.32503942
118	0x3f80c84b	1.0061125
119	0xbccb8448	-0.02484335
120	0x3eb2fc79	0.34958246
121	0xbe48ab50	-0.195966
122	0x3fe9d749	1.8268825
123	0xbf84e791	-1.0383168
124	0x3f14932d	0.5803707
125	0xbc91fd88	-0.017821088
126	0x3e9f314b	0.31092295
127	0x3e9b3584	0.30314267
