reinforce/codes_for_book/c07/Models/100_actor.pt (torch_old, 175478 bytes, 8 tensors)

fc1.weight f4 [256, 8]
00000000: 0c2f 0d3e 32b4 a7be c5b3 633e f72b 87be
00000010: 6904 27bd dc25 17be 4669 e5bd 53b9 57be
00000020: 8353 ed3e 8841 ebbe 217a 0440 6470 48bf
00000030: b2dd 933e 58a6 05bf e9fc 69bf 89dc a23e
00000040: a26d c73e 6dc1 a9bd da59 2040 b3df f93d
00000050: 5660 4c3d ca60 833d 85cd 86bf aa07 8cbe
00000060: 4892 f73c 38c9 0ebd 7654 013d 701c 003d
00000070: 3869 cf3c d0fc b7bc 0cfc ae3c f096 a2bc
00000080: e9d6 9cbc b20a 7cbd 4859 233c 248f 4b3d
00000090: 91d9 debb b83b 393d e043 82bb 2c55 9b3c
000000a0: bb4b 753e 999b 13be 653e 0f3f e086 f1be
000000b0: 813a 56be f893 e7bd 6bc0 4ebe bf20 aebe
000000c0: bcd0 bebc 2006 e1bb 02ab 313d f8d3 8fbc
000000d0: 6e7f 1b3d 54be cf3b 68e7 193d 6ad9 56bd
000000e0: f349 96bd dc42 81bc bd86 21c0 ba3c 96bd
000000f0: 16ca 2dbe 2842 60bd 15a4 593f dcdd 06bd
00000100: 7a3a 41bd 8048 79bb 988d 3bbd 40d4 013b
00000110: 7e73 233d 0201 4e3d c6ee 723d 6535 6d3c
00000120: b401 1c3d 0034 6739 e4a2 a53c d7cc 10bd
00000130: b29b 3b3d a4e5 183d 1827 48bd b282 73bd
00000140: 7b14 323c 8af8 603c b20e 153d 45df 9839
00000150: 5b7d 61bc cc7b 97bd aabc 14bd fdce abbd
00000160: fd72 913e 9649 2fbf 22bb 4d40 5bf4 8bbf
00000170: 5a2a 0ebe 758d a7bc b650 12bf effc d83e
00000180: bced 173f ba16 1cbe 2435 4640 3bec 59bf
00000190: 37e2 7c3e b08a a3bd 7e60 913d fa82 0fbf
000001a0: 1eb8 6e3e 62d5 e0be 2505 773f 84c1 46bf
000001b0: b3c5 44be fa0f e1bc c42b 6cbe 4fc6 dcbd
000001c0: 169e 483e 57d3 b6be bc56 ec3e 92e9 4dbe
000001d0: 2b00 8dbe c872 2ebe 1b6d 82be ca28 57be
000001e0: 3cd2 a43c 4459 f63c 5142 563d 903f 23bd
000001f0: 46a9 6ebd 5a3c 20bd 1201 6a3d 30d0 563c
00000200: b7ce adbc a5e0 0ebf 47e4 10bf ab19 7ebe
00000210: 2704 f03d 43b9 3bbe 43e0 1fbe 1bea 82bf
00000220: b8e6 f03d ba55 1ebe a5d1 6d3e d1cb fbbd
00000230: a8bd 9bbd 407b 1bbb 6732 11be 6330 75be
00000240: b8ce 78bd f813 40bd 701a 9a3b 8ab3 203d
00000250: 2a2f 133d 0099 3bbc 6836 debc d6d4 e4bb
00000260: a09f 4b3e 81e4 b9be 0f13 673f 96ed 3ebf
00000270: efa8 f9bd c418 a1be 5b6c 6bbe 7a9d b0be
00000280: 0a30 5fbd a88c c83c b0ab 8cbc f047 3a3c
00000290: bc61 633d 40b6 b7bb c114 30bd d369 e13c
000002a0: 4729 373e 4823 b8be a0f9 113f 97b8 07bf
000002b0: 2afb 143e 1e39 19bd d29c c3be ad95 f7bd
000002c0: f11d 26bd c82e 73bc 71f7 683d c02b 6bbb
000002d0: 40e2 f7bc 30e4 413c bf31 24bd 881d 10bc
000002e0: dac1 3d3d 3cfb 793d 687e 7f3d 3c27 6b3d
000002f0: 9049 273c 98a0 e7bc 681b 3dbc e878 50bd
00000300: 40b3 863e 15bd ec3c a53f efbe 52e1 a8bf
00000310: 0c33 31be f49c 83be c428 83bf fe0a 0fbf
00000320: 923d 153e 0f94 11be 5528 853e d557 e4bd
00000330: aaa2 7cbc 531a 6bbc 398f 26be 27a1 87be
00000340: 9dce 793d 1417 e9be 7600 3b3f d9de 863d
00000350: 0f31 7e3b f713 cdbe bed5 a8bf 4bb7 b5bd
00000360: 6c27 82bc 3450 7fbd a879 6fbc 54d8 b0bc
00000370: ecfc d53c 3cb7 643d 803f 34bc f439 033d
00000380: 55df 34bd e0bd 3f3b 3841 bd3c 2f49 243d
00000390: 2435 0b3d 789f 883c b0bb b8bc 4e57 6ebd
000003a0: af31 b7be fedd 8e3d ea9f e4bf 6cec 893f
000003b0: 1e7e 433e 821c 64be 367f 1bbf 8ed2 f5be
000003c0: a907 3a3d c6ec 3ebd 805b 00bc 38f3 693c
000003d0: 2c23 6bbd a898 3e3c 4886 36bc 1486 db3c
000003e0: 0b69 3c3e 8aeb 94be bb6b 8c3e bfd0 90be
000003f0: a481 50bd 4cfa c5bd 8b0e 4fbd 6efe 6ebe
0.13787478 -0.32754666 0.22236545 -0.2640073 -0.04077569 -0.14760536 -0.1120172 -0.2106679
0.46352777 -0.45948434 2.0699542 -0.78296494 0.28880078 -0.52206945 -0.91401535 0.3180888
0.3895083 -0.08288846 2.505484 0.1220087 0.04989656 0.064149454 -1.053147 -0.27349597
0.03022112 -0.034859866 0.03157469 0.03127712 0.025318727 -0.022459418 0.02136042 -0.019847363
-0.019145446 -0.061533637 0.009970017 0.049697056 -0.0068008383 0.045222968 -0.0039753765 0.018961512
0.2395467 -0.14414825 0.5595458 -0.47173214 -0.20920755 -0.1130752 -0.20190589 -0.34009358
-0.023292892 -0.0068671852 0.043375976 -0.01755713 0.037963323 0.0063398276 0.0375742 -0.052453436
-0.073383234 -0.015778951 -2.5238488 -0.073358014 -0.16971621 -0.05475059 0.85015994 -0.032926425
-0.04717491 -0.0038037598 -0.04578933 0.0019810349 0.039905064 0.05029393 0.059309743 0.014478062
0.03808756 0.00022049248 0.020219274 -0.0353516 0.04580278 0.037328377 -0.048865408 -0.059450813
0.010869141 0.013731131 0.036390968 0.00029158048 -0.013762797 -0.07396659 -0.036312737 -0.08389089
0.28408042 -0.6847166 3.2145467 -1.0933946 -0.13883343 -0.020453194 -0.57154405 0.42380473
0.5934713 -0.15243044 3.0969934 -0.85126084 0.24695669 -0.07985437 0.070984825 -0.5605923
0.23312423 -0.43912798 0.96492225 -0.7763903 -0.19216041 -0.027473439 -0.2306357 -0.10780012
0.19591555 -0.35708115 0.46159923 -0.20108631 -0.2753919 -0.17035973 -0.25473866 -0.21011654
0.020119779 0.030071862 0.052309338 -0.03985554 -0.0582669 -0.039120056 0.057129927 0.013111159
-0.021216733 -0.5581153 -0.56598324 -0.24814479 0.11719542 -0.1833239 -0.15612893 -1.0227693
0.11762756 -0.1546239 0.23224504 -0.12294734 -0.076045334 -0.0023724586 -0.14179383 -0.2394424
-0.060744017 -0.046894044 0.0047028586 0.03923372 0.03593365 -0.011450052 -0.027125552 -0.00698338
0.19885111 -0.36307147 0.90263456 -0.7458128 -0.12190425 -0.31464207 -0.22990553 -0.34495145
-0.054489173 0.024481133 -0.01717171 0.01136969 0.05551313 -0.0056064427 -0.042988542 0.027516281
0.1788684 -0.35964417 0.5702152 -0.53016037 0.14548936 -0.037407987 -0.38205582 -0.12089095
-0.040555898 -0.0148426965 0.056876604 -0.0035884231 -0.030259252 0.011834189 -0.040086504 -0.008796103
0.04632745 0.06103061 0.06237641 0.057410464 0.01021041 -0.02827482 -0.011542179 -0.050896555
0.26308632 0.028898755 -0.46728244 -1.3193762 -0.17304629 -0.25705683 -1.0246816 -0.5587615
0.14574268 -0.14216636 0.26007333 -0.11149565 -0.0154196415 -0.014349538 -0.16265573 -0.26490137
0.060988057 -0.4552542 0.7304758 0.065854736 0.0038786565 -0.40054294 -1.3190229 -0.08872851
-0.015887938 -0.062332347 -0.014616407 -0.021587528 0.02612158 0.05583881 -0.011001468 0.03203769
-0.0441583 0.0029257461 0.023102388 0.040108856 0.033986226 0.016677603 -0.022550434 -0.05818873
-0.35780093 0.069759354 -1.7861302 1.0775275 0.19091079 -0.222765 -0.60740983 -0.48012203
0.04541746 -0.046612523 -0.007834315 0.014279179 -0.05740659 0.011633076 -0.011140414 0.026797332
0.18399446 -0.29085952 0.27425942 -0.2828426 -0.050904885 -0.09666881 -0.05055098 -0.23339245

fc1.bias f4 [256]
00000000: 47c8 a3bd 3ae7 0a3e 6e51 32be 32b4 d8bd
00000010: d03c 76be 6f97 dcbd baec 8bbe ef2c 0b3d
00000020: f03e 9abe 11c4 48be c568 bebb d193 223c
00000030: 8aed 99bc d3bf fdbd 5407 a0bd b4d2 e6bd
00000040: 266f 2c3d d568 5abd d9cd 65be 36ce 86bd
00000050: 8562 20be d54a 18be d41b cdbd bf83 30be
00000060: 6255 593e f5c7 d0bd 7332 1b3f ee05 a4be
00000070: 8486 abbd a327 4f3f 5023 19be c036 1cbe
00000080: 1e66 68be 1135 48be 3347 16be a4cd 85bd
00000090: a802 42be c88e 9bbe a9de 00be a956 023e
000000a0: 8ec2 22be b08e 71be 7f0c f03d 51f4 93be
000000b0: eb08 9dbe 8853 2ebe 91b6 873c 8f70 573e
000000c0: f51d 6dbd 7fcd 4f3e e284 6dbe 976f a1be
000000d0: 96a1 ddbd 0085 54bc e2e6 a73e ca4c 85be
000000e0: 6d5e 34bd 464d 78bd b0a6 9a3e 2870 fa3b
000000f0: ec12 70be 6c20 a4be 5480 f6bd 17d0 a3be
00000100: 5e1e 233e 000f d0bd d1f8 5ebe ad29 ed3c
00000110: 39c6 00be f24e aabe d90d 603e 6667 c8bd
00000120: 91bb 1cbe 5b03 eb3d 095f ccbd 6f25 533d
00000130: ec03 c73c b827 aebd 9866 8f3e 34e0 83be
00000140: edd4 0ebe 3eb0 d2bd 9514 873e 9d09 85be
00000150: 79db 89bd 084e 18be 73d8 1f3d c37a 3bbd
00000160: d7f5 49be f5d2 c7bb 8ab2 e83e 085c 9abe
00000170: 5316 38be 5b7a e53a 1201 6abe e618 a1be
00000180: e1fd a63c f3ac eabd 78fd e1bd aada 56bd
00000190: de69 36bd 6992 1dbe 8aad 56be e071 9dbe
000001a0: 60b6 ddbc 085a d43c 33a8 3ebe 522b 61bd
000001b0: 9045 ffbc d843 923d 91ca 9abe 0e50 c43c
000001c0: cf02 08be fa22 98be 6283 e4bd 8dde 13be
000001d0: c8ed ccbd 2c74 1cbe 0a59 4dbd 3e3c 0abe
000001e0: d0b7 afbe e4a6 4fbe fabf c3bd 109f 88be
000001f0: 6436 aebe 248a 8ebe 51db ff3e 1610 9fbe
00000200: f60d 6ebe 7041 46be 84fc 8cbd 6c1b 63be
00000210: a7e3 83be d292 973f 3c7d 05bd fb1b 2b3f
00000220: 0d97 edbd e624 e63e 2790 113d c905 9dbd
00000230: 9165 80bd 8a7b 60be 0993 39be 780a f1bd
00000240: a825 1a3f 161d 9abe 5a5f 7cbe 4489 33be
00000250: 7782 ca3a 34fe c5bd 3f2d 85be 17f9 dcbd
00000260: 4578 66be 5c8d 50be c42d 023f 5bcd febb
00000270: 4eb2 9ebe 8900 e03e 7af3 b4be c507 2b3e
00000280: 6ceb c9bd 24ba 8abe f7d1 40bd 40da 05be
00000290: efb1 b2be 58fc 10bd 70f5 d33e d12d 84bc
000002a0: ac78 bcbd 6550 0bbe 3b60 14be c5eb bdb9
000002b0: 944e 1fbe 2d05 05be 8084 a4bd 3239 acbe
000002c0: 5a3f 1ebe 4166 7bbe dcd8 9dbe d2b2 b13d
000002d0: 7aa4 1abe c47f 9bbc 1c0c f33d ae5b 5fbe
000002e0: 5e16 46bd 4724 b3be f0da a4be e566 a1bc
000002f0: e74d c0bd 2c6f 753e 2cec cdbd 94c1 62be
00000300: 6568 82be 97fd adbe 1675 433d b856 4b3c
00000310: 357d 5ebe 6a74 7bbd 7578 5a3d 990f f23e
00000320: 9165 803c 93a6 98bd 7447 abbd f407 ff3c
00000330: 5c17 2ebe b793 6bbe ab89 b2bd 37bd 903d
00000340: 5b32 3cbd 5ff6 853d 2065 8cbe 23ae 0cbe
00000350: 5915 80be 4ebb e5b9 22be 3dbe e26f 8ebd
00000360: 84c4 4d3e 21be 0abe 96bc 2dbe c212 56be
00000370: 08d6 98be 4ec4 833d 2b45 313e 00d6 a13d
00000380: 2baf 2cbe 08aa f1bd f8ad 143e dcb0 473e
00000390: 8f9a 37be dc48 7ebe b64c a3be 5d31 b5bd
000003a0: eb0f 453c cf01 aebe 901f 0b3f 22b7 8ebe
000003b0: f63a 91be 0e0c 9abe b5f8 edbd 2222 32be
000003c0: 3ef3 70be ebe0 8cbd fcf2 6cbe 800c cabc
000003d0: 903e 1cbe 8238 88be f72b 07bc 0268 27be
000003e0: 3c29 4cbe c202 7bbe 8609 903d 892e a4bd
000003f0: 2b56 a9bd fe67 19be 4df3 48be f55b 133f
-0.07997184 0.13564768 -0.17413875 -0.105812445 -0.24046636 -0.10771071 -0.27329046 0.0339784
-0.30126143 -0.19606043 -0.0058108293 0.0099229375 -0.018790025 -0.12390103 -0.07813898 -0.11270657
0.042098187 -0.053322632 -0.22441806 -0.065823 -0.15662582 -0.14872296 -0.100150734 -0.17237757
0.21223977 -0.10194389 0.60623854 -0.32035774 -0.08375266 0.80919856 -0.14954877 -0.1525526
-0.22695205 -0.19551493 -0.14675598 -0.065333635 -0.18946326 -0.3038237 -0.12584938 0.1272837
-0.15894529 -0.23589587 0.117211334 -0.28897336 -0.30670866 -0.17024052 0.016566547 0.21039031
-0.057889897 0.20293234 -0.23195222 -0.3153045 -0.10821836 -0.012971163 0.32793337 -0.26035148
-0.044035364 -0.06062057 0.30205297 0.0076427646 -0.23444718 -0.32055986 -0.120361954 -0.31994697
0.15929553 -0.10159111 -0.21774603 0.028950537 -0.12575616 -0.33263355 0.21880282 -0.09785347
-0.15305926 0.114752494 -0.09979064 0.05154937 0.024293862 -0.085036695 0.2800796 -0.2575699
-0.13948412 -0.10287522 0.2638289 -0.25983897 -0.06731314 -0.14873517 0.03902478 -0.04577137
-0.19722687 -0.006098146 0.45448714 -0.3014834 -0.17977266 0.0017507778 -0.22851971 -0.31464309
0.02038473 -0.11458769 -0.110346735 -0.052454628 -0.044534557 -0.15387882 -0.20964637 -0.30750942
-0.027064502 0.025921836 -0.1861885 -0.054972954 -0.0311611 0.071418464 -0.3023267 0.023963954
-0.13282321 -0.29714185 -0.11157872 -0.14440365 -0.10006291 -0.15278691 -0.050133742 -0.13499543
-0.34319925 -0.20278507 -0.09558101 -0.26683855 -0.34025872 -0.27839768 0.49972013 -0.3106696
-0.23247513 -0.193609 -0.06884101 -0.2217843 -0.25759622 1.1841681 -0.032590136 0.6683957
-0.11601076 0.44950026 0.035537865 -0.07667119 -0.06269372 -0.21922126 -0.18122496 -0.11769575
0.6021371 -0.30100316 -0.24645749 -0.17532831 0.0015450259 -0.09667626 -0.26011083 -0.107896976
-0.22506817 -0.20366424 0.5085108 -0.007775945 -0.3099541 0.43750408 -0.35342008 0.16702183
-0.09859356 -0.2709514 -0.047075238 -0.13071537 -0.34901378 -0.035396904 0.4139819 -0.016135128
-0.09202704 -0.13604887 -0.14489834 -0.0003622455 -0.15557319 -0.12990256 -0.08033085 -0.33637387
-0.15453854 -0.24550726 -0.30829513 0.086766854 -0.15101805 -0.018981822 0.11867544 -0.21812317
-0.048361175 -0.34988615 -0.32198286 -0.019702384 -0.09389859 0.2396819 -0.10054812 -0.22144157
-0.25470272 -0.33982536 0.047719084 0.012410812 -0.2172745 -0.061390318 0.053337533 0.47277525
0.01567343 -0.074536465 -0.08363238 0.031131722 -0.17001098 -0.23005567 -0.08717664 0.0706734
-0.04594646 0.06541132 -0.27420902 -0.13738303 -0.25016287 -0.00043817837 -0.18529561 -0.06954934
0.20094496 -0.13549091 -0.16966471 -0.20905593 -0.29850793 0.064339265 0.17311542 0.079021454
-0.16863696 -0.11800009 0.14519489 0.1950106 -0.17930053 -0.24832481 -0.31894463 -0.08847306
0.012027721 -0.33985755 0.54345036 -0.27874094 -0.28365296 -0.30087322 -0.11619703 -0.17395833
-0.2353029 -0.06878837 -0.23139566 -0.024664164 -0.1525824 -0.26605612 -0.008250228 -0.1634827
-0.19937605 -0.24512771 0.070330665 -0.080166884 -0.08268388 -0.14981076 -0.19624062 0.5756219

fc2.weight f4 [128, 256]
00000000: 8616 5c3e 0f89 9abd 53b3 583a 413e 21bd
00000010: 338c 99bd 1255 b13d 68e0 14bc b95b 1dbe
00000020: 428b 52bd d297 3b3d e405 8ebd 3175 803d
00000030: 4bc6 153e b890 d43c c68b 783e c209 403d
00000040: 4de3 50bd 2e44 2c3e 042f ffbc 383f 893c
00000050: 67ea 903d 2a17 023e 2011 c3bb 78c4 4bbc
00000060: 9ffb e63d 3409 bd3d 6522 22bc c8ab 3d3c
00000070: a076 aabc 251f 8fbd 690a a6bd 8288 1e3e
00000080: a5af 1dbd 1b08 c53c 9cb2 4f3e 2fa3 893d
00000090: 121d 573e 4a37 383d 3045 7abe a0e8 1b3b
000000a0: 34b4 28bd a0bb 383e b34d bcbb fcf8 123d
000000b0: ca8d 143e 870e 883e a154 26be 6b6a 323c
000000c0: b8d5 fa3d 3ab0 0b3e 00ba d8ba 1868 98bc
000000d0: 8e8a c8bc 11e9 263e 84b6 4fbd 94b0 ecbb
000000e0: 846b aa3d 1e55 063e dda9 643d 51fd afbd
000000f0: aa84 ba3d 4032 803b 2b78 953d f5a7 9f3d
00000100: f58f 76bd 409f a7bd 1f8f 833d c3ae eb3d
00000110: 44e7 6c3e 141e 9ebd 6e74 223d 6efe 1b3d
00000120: c436 633e b724 4abc 1072 253e fddf 213d
00000130: baff 013e 2a1c 083d 9c78 a0bd 90f0 113d
00000140: eaa3 3abc ebfe 4e3e 2787 ef3d 26ec 2c3d
00000150: 8207 743e 0253 533d d14c 263e 8fd8 103d
00000160: 7baf 743e a022 4b3d 430f d83c 56c8 113d
00000170: 1797 b03d a3fd 82be d27e 013d fa13 683d
00000180: 966a 3fbd 2c95 503e d706 c0bc 3e12 553d
00000190: 58e6 acbd 071b 2d3e f533 5b3e e46f cb3c
000001a0: 58cd 37bd b8e6 f03d e953 9d3d a724 aebc
000001b0: a602 233d 2cc2 33bc 9047 e0bb 0aaf 69bd
000001c0: f484 7f3e 940a b3bd 21ad 9b3d c000 0dbc
000001d0: 4dba 9d3d e205 703d c982 1d3e 2221 90bd
000001e0: 6705 ae3c e92c 393e e81e 52bd f1c7 893d
000001f0: f730 aabd 2c95 d03d 4989 43bd 1cc5 54bd
00000200: fe7d 6bbd e948 26bd 6fc2 7abd 0362 61bc
00000210: 3062 4fbc 9149 933d 121d d7bd 6a1c ea3d
00000220: fb41 3c3d e1f0 26bd 388a 2e3e 8970 e93d
00000230: 6056 293b a815 673c 2271 713d 30bc 18bd
00000240: ac49 04bc 28a8 d4bd fc0b a23c 3c4b dd3c
00000250: f283 b1bd 9431 173d 7f91 f9bb d2df 143e
00000260: 200b 0abc 9e88 0fbe eba8 b2bd a8d5 aebd
00000270: 155e 873d 5db4 34be 5855 2fbc f334 62bd
00000280: 372f 9abd c95d 32bd 7d40 0e3e 0e3b 52bc
00000290: ccb9 38bd 5858 2d3c e079 25be 9d8a e4bc
000002a0: 2f56 f03d 5ecc 77bd 10c9 c93b 1dad f73d
000002b0: 4009 12bd 6976 303e a716 993d 649d 0c3d
000002c0: bbca b13d 8227 0b3e 74d9 82bd 5484 a03d
000002d0: bc9a d5bc 5c1b 47be 2dda 76bd baae 71bd
000002e0: 68ba 08bd 861a 86bc c669 a6bd d3e4 8c3c
000002f0: c717 9a3d de5e 3fbe be56 063d 77a1 a83d
00000300: 782e 44bc f00c d2bb 71bd b9bc 5e47 23be
00000310: 1292 163d 8985 09bf e3d3 323d b199 68be
00000320: 904f 123e 2514 183d a82b 7bbe b11a 933c
00000330: f520 a6bd b69c 523d 212e e93d b30c 003e
00000340: 7d9d 773d e0c4 4a3e 724e 93bd ed1a 4cbd
00000350: 16bb 8bbd 6468 4fbb 1f2d 9b3d 0f89 9abc
00000360: 3a13 74be 213d 8abc 821e 43bd e405 0e3d
00000370: b0d6 e9bc 91d9 5ebd cc8c 0dbe 6d08 18be
00000380: 53d2 a83d 767b 6a3d 0d5d bebd eb2b 323d
00000390: a071 e63b 007b 3aba e966 68bd 38e3 0ebc
000003a0: 04cc 963d 3470 4f3c 7627 b6bc 1703 813d
000003b0: 10be c3bb b586 643e 2adf a73d bcae 003d
000003c0: 62bd 9d3c 4e46 8abd a049 2f3e 6f75 703d
000003d0: 1d07 3e3e 84da 88bd 1bb2 283d 8043 583a
000003e0: 51eb a73d e00b 64bc e8ed 913d eedb dbbd
000003f0: 6135 263e 30c0 253e 6e63 663d ac94 a93c
0.21492967 -0.07545673 0.00082664675 -0.03936601 -0.07497444 0.08658804 -0.009086706 -0.1536702
-0.051402338 0.045799084 -0.06934717 0.062723525 0.14626424 0.025947914 0.2427207 0.046884306
-0.05099802 0.16822883 -0.031150348 0.016753778 0.07075959 0.12704149 -0.005952969 -0.0124369785
0.11278462 0.09230271 -0.009895896 0.0115766 -0.020808518 -0.06988362 -0.08107454 0.15481761
-0.038497586 0.024051717 0.20282978 0.06720578 0.21007183 0.044974603 -0.24440455 0.0023789778
-0.04118748 0.18040323 -0.005746567 0.03588198 0.14507213 0.26573583 -0.16243221 0.01088963
0.12247795 0.13641444 -0.0016534925 -0.018604323 -0.02448013 0.16299845 -0.05071117 -0.007223198
0.08321288 0.13118407 0.055826057 -0.08593238 0.09107335 0.0039122403 0.07298311 0.07795707
-0.060195882 -0.081846714 0.064237826 0.115079425 0.23135096 -0.07720581 0.039661817 0.03808444
0.2218886 -0.012337855 0.16156793 0.039520252 0.12695208 0.033229984 -0.078355044 0.03562981
-0.011391619 0.20214431 0.116957 0.042217396 0.23830989 0.051592834 0.1624024 0.035362776
0.23895065 0.049593568 0.026374465 0.035591446 0.08622568 -0.25584134 0.031615086 0.056659676
-0.046732508 0.20369405 -0.023440761 0.05201935 -0.08442372 0.16904841 0.21406539 0.024833627
-0.044873565 0.11762756 0.0768202 -0.021257712 0.039797448 -0.010971587 -0.0068444684 -0.057051696
0.24953061 -0.08742252 0.07601381 -0.008606136 0.0770155 0.05859936 0.15381922 -0.070375696
0.02124281 0.18083538 -0.051299006 0.06727589 -0.083101206 0.10184702 -0.047738347 -0.05194579
-0.057493202 -0.040596876 -0.061220583 -0.013756278 -0.012657687 0.07191766 -0.105035916 0.11431201
0.04596136 -0.040757064 0.17044914 0.113984175 0.0025838837 0.014104284 0.058945782 -0.037288845
-0.008074205 -0.10383636 0.019781105 0.027013414 -0.08667745 0.036912516 -0.0076162214 0.14538506
-0.008425504 -0.14016959 -0.08723625 -0.085368454 0.066097416 -0.17646928 -0.0107015 -0.055226278
-0.07528537 -0.04354647 0.13891788 -0.012831463 -0.045099065 0.010580145 -0.16159773 -0.027898127
0.11735188 -0.060497634 0.0061580017 0.120935656 -0.035653353 0.1723267 0.07475024 0.034329787
0.08681246 0.1358929 -0.06389132 0.078377396 -0.02607476 -0.1944403 -0.060266662 -0.059004523
-0.033380896 -0.01637007 -0.081256434 0.017198956 0.075240664 -0.18688533 0.032797568 0.08233922
-0.01197397 -0.0064102337 -0.02267334 -0.15945193 0.036760397 -0.53719383 0.043659102 -0.22714879
0.14288163 0.037128586 -0.24528372 0.017957063 -0.08111755 0.051418982 0.113857515 0.12504844
0.060452927 0.19801664 -0.07192697 -0.049830366 -0.06822793 -0.0031647915 0.075769655 -0.018864183
-0.2383546 -0.016874852 -0.047636516 0.034673586 -0.028544754 -0.054406706 -0.13823241 -0.14846964
0.08243241 0.057246648 -0.09295092 0.043498915 0.007032588 -0.00071136653 -0.056738768 -0.008721165
0.07363132 0.012661029 -0.022235613 0.062994175 -0.005973585 0.22317012 0.08196862 0.03141664
0.019255344 -0.06751691 0.1711793 0.058705743 0.18557401 -0.066823035 0.04118548 0.00082498044
0.0819918 -0.013918847 0.07125455 -0.10735308 0.162313 0.16186595 0.056247167 0.020700775

fc2.bias f4 [128]
00000000: 735b 1fbe 1f89 b6bd a06b 1bbd cb49 bcbd
00000010: 4390 82bd 9aae 5e3c 5d48 f2bd 4a49 ea3c
00000020: 4dab 76bd 84fb 75bd 9e70 783d de85 23bd
00000030: f079 c1bd ff98 9dbd a4e6 0dbe cc0b e3bd
00000040: bdc1 16bf a3ec 0cbe 0253 cf3e 8c0a fa3d
00000050: 8314 28bc b35e b2bc 398a d0ba f896 25bd
00000060: cb92 8c3b 93e4 5f3e 3b9f 153d 92af 9ebd
00000070: 9570 3ebb f120 e1bd 07cf 2f3e 551a a83d
00000080: 1199 09bd 01b7 afbd c7ec edbd 0f24 ddbd
00000090: fa74 86be 6497 d9bc 8920 4cbd 2ab2 44bd
000000a0: 200c c7bd 40c7 15bd 1343 043d 8747 c9bd
000000b0: 8676 a0bd feea 98bc d71d a83c b5cc e5bb
000000c0: 4745 a4bd ff0d 82bd ff45 2dbd 60cb 70be
000000d0: 70f4 27be 609c b8bd 8775 9abd 4ccb 8dbd
000000e0: e696 49bd 0aed b63e 80e9 32bd 3818 a5bd
000000f0: b6fd acbe 8826 4bbd d408 9cbc 1195 df3c
00000100: 6efe ee3c 893c 07be 0063 a2bd c3af 9dbd
00000110: 1a54 92be d7a7 23be c1b5 0bbe 83cd c4bd
00000120: 686a 293e 5528 85bd cde2 95bd 3ab2 60bd
00000130: 8e77 24bd 0b87 7ebe 3f99 ddbc 9f7c 913c
00000140: 6d13 8fbd b4cf 4cbc 96d5 7bbf 495f 30be
00000150: 7c14 67bc 0040 2ebd 71fb 12be 3d1d 64bd
00000160: 2445 2f3d cc40 c6bd 3c8a f5bc ba98 a13c
00000170: 2975 f2bc 60da 91bd 53cb ce3d 8c5e ecbd
00000180: 7472 9cbe f232 32bc 1387 a93d 82d3 43bd
00000190: 3ef9 2fbe 43fe 61bd 9c13 03bd 2236 babc
000001a0: 98b7 afbc 6124 b0bd 2591 98bc 1f2d 9bbd
000001b0: 49ca eebe 1b2c 8fbd 802c 313d a006 debd
000001c0: 2e7f 9fbb 5da3 bebd ce64 b5bd 2137 b3bd
000001d0: d052 a5bd 06ff bfbc 7987 aebd 946b 46bd
000001e0: 0ff1 ab3e 079e e73e 0069 e7ba f544 d1bd
000001f0: 00e4 92bd cff9 653c 7340 03be 6f94 c0bd
-0.15562229 -0.089128725 -0.037944436 -0.091937624 -0.06375172 0.013591433 -0.118302085 0.0285994
-0.06022196 -0.060054317 0.060654275 -0.039922588 -0.09447086 -0.07695197 -0.13857514 -0.110862345
-0.5888937 -0.13762145 0.40493017 0.12209043 -0.010258797 -0.021773672 -0.0015910334 -0.04042718
0.00428996 0.21864538 0.036528807 -0.07748331 -0.0029058803 -0.10992611 0.17168818 0.082081474
-0.03359324 -0.08579827 -0.11617427 -0.10797893 -0.2626112 -0.026561446 -0.049835715 -0.048021473
-0.097191095 -0.036566973 0.03229053 -0.09828096 -0.078351066 -0.01866674 0.020522041 -0.0070129284
-0.08021026 -0.06350326 -0.04230308 -0.23515081 -0.1640184 -0.09014201 -0.07541948 -0.069235414
-0.049216174 0.3572772 -0.043679714 -0.0806126 -0.33787316 -0.049597293 -0.019047178 0.02729276
0.029174056 -0.13206686 -0.07929039 -0.076995395 -0.2857979 -0.15981995 -0.13643552 -0.09609511
0.16544497 -0.06501833 -0.073186494 -0.05485747 -0.04015308 -0.24856202 -0.027050612 0.01775962
-0.06986127 -0.012500692 -0.9837278 -0.17223848 -0.014104005 -0.042541504 -0.1435373 -0.055691946
0.042790547 -0.09680328 -0.029973142 0.019726146 -0.029596882 -0.0712173 0.10097375 -0.11541471
-0.3055607 -0.010876404 0.082777165 -0.04780913 -0.17184922 -0.055174123 -0.032001123 -0.02273089
-0.021449849 -0.08600689 -0.018623898 -0.075769655 -0.46638706 -0.06990834 0.04325533 -0.10841107
-0.004867456 -0.09308503 -0.088571176 -0.087507494 -0.08072436 -0.023437034 -0.08521933 -0.04844244
0.3358235 0.45237753 -0.0017655194 -0.10218231 -0.07172394 0.01403661 -0.12817554 -0.094033115

fc3.weight f4 [64, 128]
00000000: 98b2 88be 40d9 b9bd 0f4d 41bd 49e5 5e3d
00000010: 6140 9d3b 428a 07be 008b f33e e5d9 f73e
00000020: e180 f2bd 01d3 9cbc ec80 ea3d b054 42be
00000030: c850 c2bc da3b 91bd a46b e2bc 0a48 d73c
00000040: 908e c6be de5e bf3d 6e03 dcbd 672a 0d3e
00000050: a861 803d 1d5d da3d cb00 ecbc 7c5c 163d
00000060: aa39 953d b919 a63e b20e 95bd d80b 19bd
00000070: ec68 043d ceb4 d83d b360 eebe f637 2f3e
00000080: 7e25 6f3c 9dc8 bd3d afe9 933d 5dec 0e3c
00000090: 4dd6 903e e1d8 b6be e013 cabd d0f8 e03d
000000a0: 034f 96bc 731f 643b 96e2 fcbd 2a0c a63d
000000b0: 444b 123e 7cb2 17be 880e 233e 4202 473f
000000c0: 6350 8cbd b640 66bd c597 763d cc7b 973e
000000d0: ae81 b1bd 04b0 29bd b490 8dbc 36c3 0f3d
000000e0: 1472 57bd 18fa 023f 4944 2cbf cf6b efbd
000000f0: 3d7b fb3d f5a9 8e3d 26bf 873d a858 debd
00000100: ce37 3fbd 99f0 64bf 8cd0 0b3f 16e7 983d
00000110: 8537 b5bf 724f 9dbd bfb1 b03e faf7 9dbd
00000120: f482 243f 4e04 b6bd 24a2 0ebe ffb7 b63d
00000130: beef 37be 86d7 d83e e300 16be a31b c53c
00000140: 70bb babc 3264 e3be fb25 b6be fcce 33be
00000150: 0ef5 1a3d dcaa e43d 6f41 403b d4c4 75bd
00000160: 62f5 0dbf f59d 44bc e009 713d 581e 33bd
00000170: 6851 08bd 372f 9a3c a49c 553e 40cb b8bc
00000180: 23ea 193f cb57 dcbd ead2 773f dcc0 59be
00000190: e781 173d 20fe d73c 4bda d03b 9e8d b03d
000001a0: f436 07be 7ce1 cf3c 0cae 623d f6f3 2c3d
000001b0: 1f91 1dbf b11d fabd bdc4 c5be 4302 0c3d
000001c0: d495 3ebf 0449 973d bc40 52bd 9f60 243d
000001d0: ad18 77bd 48cd 9bbd e3be f2bd 565c b5bd
000001e0: 9ce5 153f 7f07 b73d 9735 88bd 390c a73d
000001f0: 88ab 283d 2863 2ebd c3c7 fc3c ff9d 983e
00000200: 360f fbbd 80a2 5dbc 7f3f 07bd ff8a 53bd
00000210: aaba a33d e164 d2bd b1b3 00bd 6271 50bc
00000220: a5eb 853d 50be 88bd 539b 153d 82a4 0bbd
00000230: 60b6 d3bb 77d8 e6bd 50e7 c1bd 1588 5abd
00000240: 51c5 d5bd 9ce3 623d 329c c5bd e872 1c3d
00000250: 0418 b1bd 7a00 e2bd 25a4 e33d 353b 98bb
00000260: 13a5 cebd b7b9 75bd 19cf 9c3d fcc3 8f3d
00000270: 34f1 cabd aede fa3d f07b 41be f862 87bd
00000280: 2400 7fbc b4ca 7c3d b841 093d 7c51 84bd
00000290: cc72 f5bc f164 2a3d d0cc 313d baa0 433d
000002a0: 68d7 903d 4e6c 983d 79ad 33be 41ff e8bc
000002b0: 0881 b8bd 8b91 ce3d 8720 b13d 3427 bfbd
000002c0: 9981 fbbd a0f3 543c 35ba 6dbd d722 adbd
000002d0: 282d d4bd 9e16 863c c823 c83c eb43 f53d
000002e0: 4258 c93d 8455 4cbe 61b5 69be 18a8 38bc
000002f0: bb48 bdbc 22dd f33d 5ae0 f73d 524d cd3d
00000300: 27db b63d f9f2 25bc 351a e3bd 19ed debd
00000310: efd5 dcbc 0804 b83d d1a2 c2bd a8d4 93bc
00000320: e0b0 4dbe 4a83 c43d 542e 84bd 5240 813c
00000330: b20b f0bd a9fc 423d 2903 69bd 00d6 0bbb
00000340: 91aa a63b bbcf 413d 04b9 d1bd 1c7a 79bd
00000350: 693e d63c 7a66 b6bd f864 af3d f6dd be3d
00000360: fb9c c1bc 8947 b0bd 6620 8fbd 4f36 91bd
00000370: 6a99 e73d 42ec 1d3a 2161 2b3d b47f 17be
00000380: 7bd6 d8bd 97d6 c9bd 2676 ef3c ca0c 6abd
00000390: 6075 d43c a2d8 f33d 110b 933d 33a1 13be
000003a0: 0ce6 bcbd 6037 7b3b 7f95 23bd 65a1 f73c
000003b0: 8ed1 40bc aeb6 dcbc 9b9c e1bd f620 90bd
000003c0: 8bc7 e13c 269b a0bd 2792 1fbe 9019 b3bd
000003d0: dca8 963d 4347 b23d 06c7 e5bc de24 10bb
000003e0: df6b b73b 063d e03c 0a3b 8b3c d487 5c3d
000003f0: b2b8 a73d 5817 c43c 0a0e 28bd d5d2 1dbe
-0.26698756 -0.0907464 -0.04719263 0.054417882 0.0047989343 -0.13236335 0.47566986 0.48408428
-0.11840988 -0.019143583 0.11450371 -0.18977618 -0.02372016 -0.07091494 -0.027639218 0.026279468
-0.38780642 0.09344266 -0.10742842 0.13785706 0.062686265 0.10662291 -0.028808972 0.036709294
0.07286389 0.324415 -0.072781935 -0.03736481 0.032326624 0.10581361 -0.4655815 0.17111191
0.014596341 0.092667796 0.07222306 0.008723346 0.282885 -0.3571234 -0.09867072 0.10984957
-0.018348223 0.0034808784 -0.12347905 0.08107789 0.14286524 -0.1481418 0.15923512 0.7773782
-0.0685127 -0.056214057 0.060203332 0.29586637 -0.086673126 -0.041427627 -0.017280914 0.035098277
-0.052599028 0.5116286 -0.67291695 -0.11690485 0.12279365 0.069660105 0.066282555 -0.108567536
-0.04668408 -0.8942962 0.5461509 0.07465951 -1.4157568 -0.076811686 0.3451061 -0.077133134
0.6426232 -0.0888754 -0.13929039 0.08921813 -0.17962548 0.4235193 -0.14648776 0.02406103
-0.022794455 -0.4441238 -0.35575852 -0.17559427 0.03783136 0.11165401 0.0029335876 -0.060002163
-0.5545255 -0.0120005505 0.05884731 -0.04373011 -0.03328076 0.018821342 0.20860535 -0.022557855
0.6012289 -0.10758933 0.96806204 -0.21264976 0.03698912 0.026366293 0.006373679 0.08620761
-0.13204557 0.025376074 0.055341765 0.042224847 -0.6154956 -0.122126944 -0.38626662 0.034181844
-0.7444737 0.073869735 -0.051331267 0.040131208 -0.060326267 -0.07607514 -0.11852815 -0.08855502
0.5855348 0.08936977 -0.066508465 0.08156628 0.04117921 -0.04257503 0.030856973 0.2980804
-0.12258761 -0.013527513 -0.03301954 -0.05164623 0.07994588 -0.102731474 -0.031421367 -0.012722345
0.06539086 -0.06676924 0.03652508 -0.034092434 -0.00646095 -0.11271756 -0.094679475 -0.053352434
-0.10438026 0.055392846 -0.096489325 0.03819552 -0.08647159 -0.11035247 0.111152925 -0.00464573
-0.10090079 -0.059991565 0.07656688 0.07019803 -0.09909287 0.12249504 -0.18894935 -0.06610674
-0.015563998 0.06171675 0.03350994 -0.064608544 -0.029961966 0.04160017 0.043408215 0.047760703
0.070723355 0.074425325 -0.17546643 -0.028442027 -0.09008986 0.10086354 0.08648782 -0.09333649
-0.12280578 0.012997538 -0.05803891 -0.08453911 -0.10360175 0.016368207 0.024431124 0.11975845
0.09831287 -0.19954497 -0.22823097 -0.011270545 -0.02310597 0.11907412 0.121033385 0.10024513
0.08928519 -0.01012873 -0.11088983 -0.108850665 -0.02695748 0.08985144 -0.09503711 -0.018045738
-0.20087004 0.09595354 -0.06454149 0.01577774 -0.11720981 0.047604237 -0.05688778 -0.002133727
0.005086251 0.047317248 -0.10240367 -0.06090747 0.026152806 -0.089062646 0.0856418 0.093196794
-0.023634424 -0.08607394 -0.069886014 -0.07090437 0.11308558 0.000602428 0.041840676 -0.14794809
-0.10587784 -0.09855383 0.029231142 -0.057141103 0.025934875 0.11906554 0.07179845 -0.14416961
-0.092235655 0.0038332567 -0.039937492 0.030228326 -0.011768712 -0.026942577 -0.11016198 -0.07037537
0.02756097 -0.07842092 -0.15583096 -0.0874511 0.07356426 0.08704998 -0.028049003 -0.002199463
0.005597576 0.027372848 0.016995925 0.053840473 0.08189525 0.023936912 -0.041029014 -0.15412457

fc3.bias f4 [64]
00000000: c2c9 a83e ddb9 9bbc c1ed cbbd 9df4 9ebc
00000010: e678 e5bd c109 b9bc db2d 6b3e 86b5 c83d
00000020: 7a63 81bd 0048 893e de46 6abe f1bb 7e3a
00000030: 96d5 dd3d 8aa0 3ebd 8920 4cbd 9081 733e
00000040: c8f1 0bbe 334f 4b3c 3b61 bcbd 1922 3f3b
00000050: f79a e8be 0a3b 0b3d e77c d4be 6705 aebd
00000060: 4475 63bd b9ad 82bd f42c 0ebe bec4 a6bd
00000070: 4d0e 06bd 8b99 dbbd 8028 12bd c5be 41bf
00000080: 734c 793c 1912 7c3e f847 0ebf f4db 00be
00000090: b7c1 103f 9162 4fbd 956d dc3d 1fce 19be
000000a0: 4b84 2ebe a779 353e 3687 a6be 6bf4 333f
000000b0: 77c0 233d b009 1dbd 9853 13bf 129a 2bbe
000000c0: 8220 833e f90f 34bf 2f7e 17bf 9e07 65bd
000000d0: 15f1 923e 9138 3cbe 042f 7fbc d2d0 733d
000000e0: 20e7 533e 25e0 86bd 84a3 843c 4bb5 1fbd
000000f0: 94b4 96bd 3bc9 583c d104 31be fa4d b33e
0.3296643 -0.019009525 -0.09957457 -0.01940375 -0.112047 -0.022587659 0.22966711 0.09800248
-0.06317802 0.26812744 -0.22878596 0.00097173365 0.10831754 -0.04653982 -0.049835715 0.23779893
-0.13666451 0.012409019 -0.09198233 0.002916461 -0.4543073 0.03399185 -0.41501543 -0.08497124
-0.055531755 -0.06380791 -0.13884336 -0.08142994 -0.032728482 -0.10722645 -0.035683155 -0.75681716
0.015215981 0.24616279 -0.55578566 -0.12583905 0.56545585 -0.05063111 0.107630886 -0.15020035
-0.17042653 0.17722188 -0.32525033 0.7029483 0.03997847 -0.038339317 -0.5754943 -0.16757992
0.2561074 -0.7033687 -0.59176916 -0.055915467 0.28699556 -0.18380953 -0.015575174 0.05952532
0.20693636 -0.06585721 0.016191252 -0.038991254 -0.07358661 0.013231571 -0.17286994 0.3502043

fc4.weight f4 [2, 64]
00000000: 2e0c 943d 9970 53bc 5430 59bc 9f8f eb3f
00000010: f864 2f3c 287b 71bb d4f9 c4bc da87 313e
00000020: c0c6 673a 17f7 97be 1e4e 343d 89ae d33c
00000030: bed4 23c0 fe2f 3fbc e772 e63c b267 2cbf
00000040: 99f3 d33d 6fc7 e7bc 5da9 3dbc 99e3 6a3f
00000050: 00e1 043e c850 c23b 205c a33e daee c33c
00000060: 4ffe 363e 9ba4 93bd 21a4 9c3b 4b8a f63e
00000070: bd79 01bd 21f6 b73c f864 af3b a24f a4be
00000080: 77fc 8cbf 5a90 52bf 17ba a0be 178f da3e
00000090: acb5 94be 9340 7fbd 2807 71be 27bb 6a3e
000000a0: 6417 4c3d 208f 35bf b0a4 56bf 1125 3abf
000000b0: f041 e73c 0272 b5be bb8b 463f 00d0 853e
000000c0: a6a1 babd 5fa0 7d3e 20a0 e43d fe78 8f3c
000000d0: 14e3 863e 5f25 213e 3166 5fbc cfd9 b5bd
000000e0: 4248 f9c0 16fd ccbc 6c9e e23c 1b5e 613b
000000f0: 2f65 113d 7e04 0ebe 504d 003d f2e5 34bf
00000100: e730 fc3e dbb9 0cbd 52b2 8a3b 1ed5 85be
00000110: 1d41 6dbc ba73 e0bb eaca 1e3e f3b5 0c3d
00000120: 539b 15bd 06c7 e23d 9be7 3abf cc0a 00bb
00000130: c2cc d4be e730 bebc 1dc5 a93c b66e 1ebd
00000140: 4eb7 06bd ae40 b03c 3ac3 563c cebf d73e
00000150: ff49 a2bf bf15 373d 00ed 9cbe fa31 cdbc
00000160: 12e5 7cbb 8cb1 d3bc 3f9f b8bc 2bf9 5cbf
00000170: e14d a53d 654f 853d 1dd8 05bd 9081 f9bf
00000180: f275 0fc0 a227 473d 9d2e c4be 8ace 263e
00000190: 8811 ee3e 18e2 673e 9f07 7fbe f2f9 88bf
000001a0: cf54 b13d fec7 383d 4cb3 18c0 c1f2 f33f
000001b0: 6d08 183d a103 0240 38b1 92be bf08 873d
000001c0: dd3a 833f db51 9dbe 6bdd 2fbf 7444 aa3b
000001d0: 177f 5a3f b691 27bf bb33 323d 3655 023e
000001e0: 70a2 0040 be5f b7bc a45a 6cbb 9183 423d
000001f0: 774e 1abc 6d25 343e 709c d4bb 7e86 a63d
0.072288856 -0.012905263 -0.013256151 1.8403205 0.010705225 -0.0036847088 -0.024044909 0.1733698
0.0008841567 -0.29680702 0.04401981 0.02584006 -2.5598598 -0.011669157 0.028130962 -0.67345726
0.10349197 -0.02829334 -0.011576024 0.91753536 0.12976456 0.00593004 0.31906223 0.023917604
0.17870449 -0.072091304 0.004780308 0.48152384 -0.03161024 0.02245623 0.0053526126 -0.32092005
-1.1014546 -0.82251513 -0.31391975 0.42687294 -0.29044855 -0.062317442 -0.23537886 0.22922955
0.049826995 -0.70921516 -0.83845043 -0.7271281 0.028229684 -0.35438544 0.7755696 0.26135254
-0.09112863 0.24768208 0.11163354 0.017513748 0.26345122 0.15736912 -0.013635204 -0.08879434
-7.7900705 -0.025023025 0.027663432 0.0034388367 0.035496887 -0.13868901 0.03132373 -0.7066337
0.4925606 -0.034356933 0.004232683 -0.26139158 -0.014480856 -0.006849733 0.15507093 0.034353208
-0.03652508 0.11073117 -0.7300965 -0.0019537685 -0.41562468 -0.023216678 0.020723874 -0.0386798
-0.032889657 0.021515217 0.013108069 0.42138523 -1.2678832 0.044698473 -0.30649567 -0.025048245
-0.0038588685 -0.025841497 -0.022536872 -0.863177 0.08071495 0.06509284 -0.032676805 -1.9492664
-2.2415738 0.04862178 -0.38316813 0.16289726 0.4649775 0.22644842 -0.24905251 -1.0701277
0.08658754 0.045112602 -2.3859434 1.9058458 0.03711741 2.0314715 -0.28650832 0.06593465
1.0252339 -0.30726513 -0.6869723 0.0051961485 0.85350174 -0.6545671 0.043506365 0.12727818
2.0099144 -0.02238452 -0.0036064768 0.047488753 -0.009418122 0.17592402 -0.0064883754 0.08131121

fc4.bias f4 [2]
00000000: 18ab 283e c38a 183f
0.16471517 0.59586734
