reinforce/codes_for_book/c07/Models/200_critic.pt (torch_old, 275786 bytes, 9 tensors)

fcs1.weight f4 [256, 8]
0	0xbd894ed8	-0.067044914
1	0xbd0d467c	-0.034491047
2	0x3d867846	0.06565909
3	0x3cfeb5eb	0.031092605
4	0xbd0a9ae1	-0.03383911
5	0xbd54a828	-0.05191818
6	0xbd2b3a8d	-0.041803885
7	0xbdaafff5	-0.08349601
8	0xbc8d8863	-0.017276948
9	0xbd3a1268	-0.04542771
10	0xbf755e04	-0.9584658
11	0x402dd627	2.7161958
12	0xbd7a4d52	-0.061108895
13	0xbe20b781	-0.15695001
14	0x3e5cfbc0	0.2158041
15	0x3e6ab6f4	0.22921354
16	0xbe3a4700	-0.18191147
17	0xbc03bc73	-0.008040535
18	0xbfc7baa7	-1.5603837
19	0x403b6f5b	2.9286716
20	0x3eaa0b9f	0.3321199
21	0xbe6db9d0	-0.23215413
22	0x3e046ffe	0.12933347
23	0x3e585a18	0.21128118
24	0x3bf97df7	0.007613893
25	0xbcbdec80	-0.023184061
26	0xbbd8a9a0	-0.0066120178
27	0x3c81de84	0.015853174
28	0xbbf10060	-0.007354781
29	0xbd2b51fd	-0.041826237
30	0x3d02e670	0.031958044
31	0x3d144272	0.03619618
32	0xbd014c3c	-0.031566843
33	0xbc1ec268	-0.009689905
34	0x3c7563b8	0.014977388
35	0x3c8941a8	0.01675494
36	0x3c041578	0.008061759
37	0xbd36f1d4	-0.04466422
38	0xbcaf18e8	-0.02137418
39	0xbd6871c2	-0.056749113
40	0xbcdc9b57	-0.02692954
41	0xbdaa2d04	-0.08309367
42	0xbd0d179c	-0.034446344
43	0xbd41145f	-0.047138568
44	0x3cd35067	0.025795175
45	0xbda3d017	-0.07998674
46	0xbd8c6fa3	-0.068572305
47	0xbd90f7cf	-0.07078516
48	0x3dd27c36	0.102775976
49	0x3de07ee5	0.10961703
50	0x3fb91f88	1.4462748
51	0x3c8d3930	0.017239183
52	0x3d065302	0.032794006
53	0x3d4bf8c5	0.049797792
54	0xbf29aca5	-0.6627906
55	0xbe6193d0	-0.22029042
56	0xbe962861	-0.29327682
57	0xbdff23dd	-0.12458012
58	0xbfb3400e	-1.4003923
59	0xbf8c8023	-1.0976604
60	0x3d6898bf	0.056786295
61	0xbe0edd48	-0.139516
62	0xbe4c4013	-0.19946317
63	0x3d54de86	0.051970027
64	0xbda821b7	-0.082095556
65	0x3e2d2807	0.169098
66	0xbf79c892	-0.9757167
67	0x402c079e	2.687965
68	0xbc5af1ce	-0.013363315
69	0xbc386e8c	-0.011256825
70	0x3d544431	0.051822845
71	0xbee0b4de	-0.4388799
72	0xbd55d109	-0.052201305
73	0xbd971254	-0.07376543
74	0x3d9d8e81	0.07693196
75	0xbc89a0e1	-0.016800346
76	0xbd7e8af3	-0.06214423
77	0x3cb44ecd	0.022010231
78	0xbca95243	-0.020669108
79	0xbdae1507	-0.085001044
80	0xbc554850	-0.013017729
81	0x3d228fc6	0.039687894
82	0xbcfa7be0	-0.030576646
83	0x3d5ebe38	0.054380625
84	0xbd8ae132	-0.06781234
85	0xbd839214	-0.064243466
86	0xbd01e84a	-0.03171567
87	0xbd6169d3	-0.055032562
88	0x3cf9a384	0.030473478
89	0xbd90c570	-0.07068908
90	0xbec1a750	-0.37822962
91	0xbe8e3977	-0.27778217
92	0xbd71ce52	-0.059034653
93	0x3ea9ca1d	0.33162013
94	0x3ee71c5f	0.45138833
95	0x3c7d1172	0.015446054
96	0xbe3751e0	-0.17902327
97	0xbd131ac2	-0.03591419
98	0xbff201b2	-1.8906767
99	0x3ee8e21c	0.45485008
100	0x3d5abfec	0.053405687
101	0xbba566ee	-0.0050476706
102	0xbecb66f3	-0.39726982
103	0xbc981e2c	-0.018569075
104	0x3d3ad4a7	0.045612957
105	0xbeb8d51c	-0.3610009
106	0x3f47aa56	0.77994287
107	0x3fed2834	1.8527894
108	0x3e54b408	0.20771801
109	0xbe5e6dc5	-0.21721561
110	0x3e491788	0.19637883
111	0xbef3b286	-0.4759714
112	0xbda18a0d	-0.07887659
113	0x3cb95011	0.022621186
114	0xbb805dc1	-0.0039174263
115	0x3c13bec1	0.009017647
116	0xbcfd5272	-0.030923102
117	0xbda70469	-0.08155138
118	0x3c98086d	0.018558705
119	0x3b7c0a51	0.0038458297
120	0xbd5dacc8	-0.054119855
121	0xbceb35ab	-0.028712114
122	0x3d8055f1	0.06266392
123	0xbdb6a85f	-0.08918833
124	0xbdc156c8	-0.0944038
125	0xbd41db98	-0.04732856
126	0xbc6810f8	-0.014164202
127	0x3cbb1532	0.022837255
128	0xbda29f66	-0.07940559
129	0xbd8274eb	-0.063699566
130	0xbcfad9a0	-0.03062135
131	0xbd68a181	-0.056794647
132	0xbc9c5218	-0.019082114
133	0x3c1608b3	0.0091573475
134	0x3cbc9fbc	0.023025386
135	0x3cc4f493	0.024042403
136	0x3e0dcb19	0.13847007
137	0xbeb36381	-0.35036853
138	0xbe96002d	-0.2929701
139	0x3fb998b0	1.4499722
140	0x3ebe340d	0.37149087
141	0xbf247e23	-0.6425497
142	0xbdf58f93	-0.11990275
143	0x3d932da6	0.07186441
144	0x3d420ac0	0.047373533
145	0x3d1ece08	0.038770705
146	0xbd0e80b0	-0.034790695
147	0x3d01ad20	0.031659245
148	0x3b8032c9	0.003912304
149	0x3b6a45a0	0.0035747066
150	0x3d10ba56	0.035333954
151	0xbcdcbf60	-0.026946723
152	0x3cf193a4	0.029489346
153	0xbd5af2aa	-0.05345408
154	0x3d665d3c	0.05624126
155	0x3d529806	0.051414512
156	0xbca54630	-0.02017507
157	0xbb690d00	-0.0035560727
158	0xbc39e158	-0.01134523
159	0x3d1b7e34	0.037962154
160	0xbbb73ccf	-0.0055919657
161	0xbd3377f4	-0.043815568
162	0xbd8708ce	-0.06593476
163	0x3cc07437	0.023492916
164	0xbbfecd5b	-0.007775945
165	0x3bdc1a6e	0.006717018
166	0xbd470004	-0.048584
167	0xbb983f1d	-0.0046461956
168	0x3eab99b2	0.33515698
169	0x3e17a0c5	0.14807422
170	0xbfa70757	-1.3049115
171	0x3f7637cf	0.9617891
172	0xbecfbfd1	-0.40576032
173	0xbe579853	-0.21054201
174	0x3e671e59	0.2257017
175	0x3dd05286	0.1017199
176	0xbd19cf89	-0.037551437
177	0xbf0ff481	-0.5623246
178	0x40481d6f	3.1267965
179	0xbfd0cae6	-1.631192
180	0x3e23bf7a	0.15991011
181	0xbd954b34	-0.072897345
182	0xbe8e9c53	-0.2785364
183	0x3ee9831c	0.4560784
184	0xbe1f44a3	-0.15553527
185	0xbcce0e38	-0.025153264
186	0xbf43fedd	-0.76560766
187	0xbec43f83	-0.38329706
188	0xbd4461f9	-0.047944997
189	0xbe322742	-0.17397788
190	0x3ecd6d38	0.4012239
191	0xbced24d0	-0.028948218
192	0xbe5f529a	-0.21808854
193	0x3e0bf0e0	0.13666105
194	0xbf02554f	-0.5091142
195	0x3f903a9e	1.1267889
196	0x3dffab39	0.1248383
197	0x3dec139b	0.11527177
198	0xbf2846e1	-0.6573315
199	0x3d482b7e	0.048869602
200	0xbea1099c	-0.31452644
201	0x3e86d21d	0.2633218
202	0x40e298ce	7.081153
203	0xbf830554	-1.0236001
204	0x3dca048c	0.098641485
205	0xbe2e0717	-0.16994892
206	0xbdc6df2e	-0.09710537
207	0xbe5f1044	-0.21783549
208	0x3d0ea8dc	0.034829006
209	0x3d4f02d3	0.050539803
210	0xbcfb2ba8	-0.030660465
211	0xbd48a7c2	-0.04898811
212	0xbca73c5c	-0.020414524
213	0x3d2a5044	0.041580454
214	0xbd16ba3a	-0.036798693
215	0x3bcfbb40	0.0063394606
216	0x3c59ff79	0.013305538
217	0xbec0e2f2	-0.37673146
218	0x3f83699c	1.0266604
219	0xbfe72860	-1.8059196
220	0xbeaa369f	-0.33244798
221	0x3df7b510	0.12095082
222	0x3e74700c	0.23870867
223	0xbec35893	-0.38153514
224	0x3e5cd912	0.21567181
225	0x3e02959b	0.12752382
226	0x4016466b	2.348048
227	0x3dbc0348	0.09180313
228	0x3d92d119	0.071687885
229	0x3dd13bee	0.10216509
230	0xbf19f5b1	-0.6014052
231	0xbe844661	-0.25834945
232	0xbd348195	-0.04406889
233	0xbd951a6a	-0.07280429
234	0x3c98fa9e	0.018674191
235	0xbd913e1f	-0.07091927
236	0xbd9028c6	-0.07039027
237	0xbd3ed23e	-0.04658722
238	0xbd9243d8	-0.071418464
239	0xbd8aae6a	-0.06771548
240	0x3c52db36	0.012869647
241	0x3ca0a0b8	0.019607887
242	0x3a83c840	0.0010054186
243	0xbd43e1cc	-0.04782276
244	0x3d18856d	0.03723662
245	0xbd482406	-0.04886248
246	0x3b2b67a0	0.0026154295
247	0x3d0238fe	0.031792633
248	0x3d56dc46	0.052456163
249	0xbd601836	-0.05471059
250	0x3d49d06c	0.049271032
251	0x3d7dc7f2	0.06195826
252	0x3c2ddeb0	0.010612175
253	0xbb0b8960	-0.0021291599
254	0x3caf4708	0.021396175
255	0xbca83804	-0.020534523

fcs1.bias f4 [256]
0	0x3b62c964	0.0034604901
1	0xbdcf8281	-0.101323135
2	0xbe476b71	-0.1947458
3	0xbe455a92	-0.19272831
4	0xbeaa4d37	-0.33262035
5	0xbc9ca039	-0.019119369
6	0x3e6e9c7b	0.2330188
7	0x3eafa3c7	0.3430464
8	0x3e87386b	0.2641023
9	0xbd990656	-0.074719116
10	0xbd753833	-0.05986805
11	0xbd7d263b	-0.061804038
12	0x3ec102e6	0.37697524
13	0x3e9ca603	0.30595407
14	0xbdcf02d3	-0.101079606
15	0xbdad0396	-0.084479496
16	0xbd611bb2	-0.054958053
17	0x3d4434e6	0.04790201
18	0xbe64f416	-0.22358736
19	0xbe37b80c	-0.17941302
20	0xbdf6843c	-0.120369405
21	0xbe5982ce	-0.21241304
22	0x3e3f40ef	0.18677114
23	0x3cee1b1a	0.029065657
24	0x3ea7d72b	0.32781348
25	0x3e889862	0.2667876
26	0xbe87dfa7	-0.2653782
27	0x3ebee57f	0.37284467
28	0x3da964e6	0.08271198
29	0x3ca673e1	0.020318927
30	0xbe63427c	-0.2219333
31	0xbe4594bb	-0.19295017
32	0xbd6b5270	-0.057451665
33	0xbeb00a1e	-0.3438272
34	0xbe36814e	-0.17822763
35	0xbc9067b4	-0.017627575
36	0x3e0d4559	0.13795985
37	0xbdf03842	-0.1172948
38	0xbe70249d	-0.23451467
39	0xbd5cf52f	-0.053944763
40	0xbeae546a	-0.34048778
41	0xbd801a6c	-0.062550396
42	0xbd1e1d1b	-0.038601976
43	0xbde66a46	-0.11250739
44	0xbe3cf82d	-0.18454047
45	0x3c69ca4e	0.014269425
46	0xbdce15fe	-0.100627884
47	0xbdaa0115	-0.08300988
48	0xbd44c29e	-0.048037164
49	0x3e92dceb	0.28684172
50	0xbb5313bc	-0.0032207808
51	0xbd131c88	-0.03591588
52	0xbe9eb773	-0.30999336
53	0x3ea1c566	0.31595916
54	0xbdd24f9d	-0.10269091
55	0x3e6f3394	0.23359519
56	0xbdc9b858	-0.09849614
57	0x3e69bca5	0.22825868
58	0x3db9060f	0.09034359
59	0xbe43cbb2	-0.19120672
60	0xbcae4fa0	-0.021278203
61	0xbcc6e5a9	-0.024279432
62	0x3db5f4f3	0.08884611
63	0xbe37fd45	-0.17967708
64	0x3e218518	0.15773427
65	0x3e0dd748	0.13851655
66	0xbe947955	-0.2899882
67	0x3eba3d7c	0.36375034
68	0xbd9fbd1b	-0.07799741
69	0x3dbad7b3	0.091231726
70	0xbd9b03b9	-0.075690694
71	0x3eccbb48	0.39986634
72	0xbcf38ec1	-0.029731156
73	0xbe072427	-0.13197385
74	0xbe92d15e	-0.2867536
75	0x3c179724	0.009252343
76	0xbe90cdb5	-0.28281942
77	0xbea7aaaf	-0.3274741
78	0xbc9126bf	-0.01771867
79	0xbd3dfd4f	-0.046384152
80	0x3d930db5	0.07180349
81	0x3e106833	0.14102249
82	0x3d5d819e	0.05407869
83	0xbea58fcb	-0.32336268
84	0xbdece4b0	-0.11567056
85	0xbd51393d	-0.051079977
86	0xbe383701	-0.17989732
87	0xbe0bc12f	-0.13647912
88	0xbe956cf5	-0.2918469
89	0x3df82188	0.121157706
90	0xbd0462ba	-0.032320715
91	0xbe4c9254	-0.19977695
92	0x3e932ac1	0.28743556
93	0x3da1e1bc	0.079043835
94	0xbe7c8540	-0.24660206
95	0x3e6d6d91	0.23186328
96	0x3e2c38f3	0.168186
97	0xbe3da89a	-0.18521348
98	0xbcfd4585	-0.030916939
99	0xbe004fcc	-0.1253044
100	0xbbd460a4	-0.006481247
101	0x3eb53220	0.35389805
102	0xbdf8d30c	-0.12149629
103	0xbe314afc	-0.1731376
104	0x3e74a574	0.2389124
105	0x3db7e612	0.08979429
106	0x3cb6b65b	0.02230375
107	0x3d814e1f	0.063137285
108	0xbe1f31d0	-0.15546346
109	0x3eb6088f	0.35553405
110	0xbe2b378f	-0.16720413
111	0xbe415ab0	-0.18882251
112	0xbeace140	-0.33765602
113	0xbe84bb48	-0.25924134
114	0x3e0abbb6	0.13548169
115	0x3e968e96	0.2940566
116	0x3df4d027	0.119537644
117	0x3e642d0b	0.22282808
118	0xbdd13265	-0.1021469
119	0x3e85925a	0.2608822
120	0x3e9f5a5f	0.31123635
121	0x3dbdbbd8	0.09264344
122	0x3ebb3fcf	0.3657212
123	0xbe99151b	-0.29898915
124	0x3dd98476	0.10620968
125	0xbde866e9	-0.113477536
126	0xbd7549c8	-0.059884816
127	0xbeb97fa9	-0.3623021
128	0xbd82b178	-0.06381506
129	0xbd743fe5	-0.059631247
130	0xbe765250	-0.24054837
131	0xbe6be792	-0.23037556
132	0xbdfa42a9	-0.12219746
133	0xbeb08832	-0.3447891
134	0xbe57cb1a	-0.21073571
135	0x3d2146e4	0.039374247
136	0xbd8ec1e4	-0.069705755
137	0x3ddbcf18	0.107328594
138	0xbea82d8f	-0.32847258
139	0xbe054ae5	-0.13016851
140	0xbdfdbfd3	-0.12390103
141	0x3e82de3c	0.25560176
142	0xbd420a78	-0.047373265
143	0xbe8aa8ea	-0.27081996
144	0x3ec105ca	0.3769973
145	0xbd224975	-0.039620835
146	0x3eb100c8	0.3457091
147	0xbe955464	-0.29165947
148	0xbea40236	-0.32032937
149	0xbe07203f	-0.13195895
150	0xbcb6fd1f	-0.022337494
151	0xbd3c88c0	-0.046028852
152	0xbe7d98c2	-0.24765304
153	0xbe5b91b4	-0.214423
154	0xbd190164	-0.03735484
155	0x3e65af7d	0.22430225
156	0x3e285f46	0.16442594
157	0xbe2a37b5	-0.16622813
158	0x3e8ec54c	0.278849
159	0xbe5991fc	-0.21247095
160	0xbe424915	-0.18973191
161	0x3e807a3a	0.2509325
162	0xbd076ddf	-0.033063766
163	0x3e27e4db	0.16395895
164	0xbe491584	-0.19637114
165	0xbe38ac00	-0.18034363
166	0xbe695149	-0.22784914
167	0x3e093b54	0.13401538
168	0xbe862e9b	-0.26207432
169	0x3e8e64f8	0.27811408
170	0x3e22e1c7	0.1590644
171	0xbd96dba4	-0.07366112
172	0x3d12d02e	0.035843067
173	0x3c119027	0.008884466
174	0x3c54d59d	0.0129903825
175	0x3ea29343	0.31752977
176	0xbead25b9	-0.33817843
177	0xbde8c891	-0.1136638
178	0xbde82fe1	-0.11337257
179	0x3dbe5000	0.092926025
180	0xbea24d7a	-0.31699735
181	0x3e43c09b	0.19116442
182	0x3e45f910	0.19333291
183	0xbea9f54f	-0.33194968
184	0xbe2505c9	-0.16115488
185	0xbdf2e941	-0.11860896
186	0x3e646e0c	0.22307605
187	0xbd6630ab	-0.056198757
188	0x3b654b7c	0.003498762
189	0xbe188955	-0.14896138
190	0x3e816dde	0.25279135
191	0xbdbf5aa6	-0.09343462
192	0xbe7c7b9a	-0.24656525
193	0xbe84af77	-0.2591512
194	0xbe83dc4c	-0.2575401
195	0xbe419d18	-0.18907583
196	0x3e5c3cca	0.21507564
197	0xbdf22e95	-0.11825291
198	0xbe48ed87	-0.1962186
199	0xbddcde09	-0.10784537
200	0xbde1b71c	-0.110212535
201	0x3e062519	0.13100089
202	0x3d89c94e	0.06727849
203	0x3c201fcc	0.009773206
204	0xbe5205ae	-0.20509979
205	0xbdc1f038	-0.09469646
206	0xbde90711	-0.11378301
207	0xbe72466b	-0.23659675
208	0xbeb40646	-0.35161036
209	0x3bbe39e4	0.005805241
210	0xbd2b231d	-0.041781534
211	0xbdf93d01	-0.12169839
212	0xbe37ceff	-0.17950056
213	0x3da2b5a0	0.079447985
214	0x3d4788f6	0.0487146
215	0x3e9b2d60	0.30308056
216	0xbe7cd044	-0.24688822
217	0x3d590687	0.05298474
218	0xbe940e66	-0.28917235
219	0xbea733d3	-0.32656726
220	0xbe4fc479	-0.20289792
221	0xbeb1bc99	-0.347142
222	0x3e986b24	0.29769242
223	0x3dca8f79	0.098906465
224	0x3bab573b	0.0052289045
225	0xbea45657	-0.32097122
226	0xbe0df2a3	-0.1386209
227	0xbe893b50	-0.26803064
228	0xbe15faba	-0.14646426
229	0x3e9131a4	0.28358185
230	0xbddaff84	-0.10693267
231	0x3de41216	0.11136262
232	0xbe1399b0	-0.14414096
233	0xbd2ca9be	-0.042154066
234	0xbea4d622	-0.3219462
235	0x3e322c56	0.17399725
236	0x3ec14685	0.37749115
237	0xbe312e02	-0.17302707
238	0x3dbf0167	0.09326439
239	0x3bd41a7d	0.006472884
240	0x3ea7814f	0.32715842
241	0xbdd08d63	-0.101832174
242	0xbe743524	-0.23848397
243	0xbe0c1275	-0.13678916
244	0xbe57c701	-0.21072008
245	0xbeae302b	-0.34021124
246	0xbdd62246	-0.10455756
247	0x3cda9686	0.026683103
248	0xbe1d3641	-0.15352727
249	0xbe875f07	-0.26439688
250	0xbe7616dc	-0.24032158
251	0xbe785264	-0.2425018
252	0xbea89162	-0.32923418
253	0xbe7eb5eb	-0.24874084
254	0xbddfcfa9	-0.1092828
255	0x3e92a345	0.2864019

fcs2.weight f4 [128, 256]
0	0x3d2a1fae	0.04153412
1	0xbd5a072c	-0.053229496
2	0xbb16916c	-0.0022974862
3	0x3d96e805	0.07368473
4	0xbcea7738	-0.028621301
5	0x3cf0fa40	0.029416203
6	0xbda0806c	-0.078369945
7	0xbdbcc2e4	-0.0921686
8	0xbd280a22	-0.04102529
9	0x3d190b42	0.037364252
10	0xbd48dbb0	-0.049037635
11	0xbdf094af	-0.11747109
12	0x3cf14c48	0.029455319
13	0xbdc86f36	-0.09786837
14	0xbda42528	-0.080148995
15	0xb9fdda00	-0.00048418343
16	0x3d92b3ff	0.07163238
17	0x3a4104bf	0.0007363073
18	0xbccb5be4	-0.02482409
19	0x3d6b856e	0.057500295
20	0xbc1e62d0	-0.009667113
21	0xbd10635e	-0.035251014
22	0xbd164733	-0.036688995
23	0xbdc83c6d	-0.0977715
24	0xbcdff6b9	-0.027339326
25	0xbba7d75a	-0.0051221075
26	0xbd1f77f3	-0.038932752
27	0xbd979ef4	-0.07403365
28	0xbb853bdd	-0.004065974
29	0x3d8ab7f5	0.06773368
30	0x3cdc048c	0.026857637
31	0x3c2e6218	0.010643505
32	0x3cbd95d4	0.023142733
33	0xbd0b0107	-0.033936527
34	0xbd74809b	-0.05969296
35	0xbdbb6353	-0.09149804
36	0xbdeab4c3	-0.11460259
37	0x3a0bd580	0.0005334243
38	0xbc94238c	-0.018083356
39	0x3d807d01	0.062738426
40	0xbca5f208	-0.020257011
41	0x3c4d496a	0.01252971
42	0xbc3f011e	-0.011657981
43	0xbda1097c	-0.07863137
44	0xbc107eb6	-0.008819273
45	0xbd605092	-0.054764338
46	0xbde939d9	-0.11387987
47	0xbdf52893	-0.119706295
48	0xbc2b425d	-0.010452834
49	0xbc37c588	-0.011216529
50	0x3c9d57d1	0.019206913
51	0xbdde8f58	-0.108671844
52	0xbcb71370	-0.022348136
53	0x3d2a2534	0.041539386
54	0xbdd2bbf6	-0.10289757
55	0xbcc6d50c	-0.02427151
56	0x3da40823	0.080093645
57	0xbd4a671f	-0.04941475
58	0xbe03018b	-0.12793557
59	0x3d0a1502	0.03371144
60	0x3d0ef626	0.034902714
61	0xbcb03fb9	-0.02151476
62	0xbd88b298	-0.06674689
63	0xbdf6edb5	-0.12057058
64	0xbd942c22	-0.0723498
65	0xbdeeb81e	-0.11656211
66	0x3d9a06c9	0.075208254
67	0xbdc6774c	-0.09690723
68	0x3c8e3504	0.017359264
69	0x3d521fb6	0.051299773
70	0xbdb350e4	-0.08755663
71	0xbe04e205	-0.12976845
72	0xbddbb8c6	-0.10728602
73	0x3c9ecbb4	0.019384243
74	0xbda5eb28	-0.08101493
75	0x3d6f9ade	0.058497302
76	0xbc9846ed	-0.018588508
77	0xbb7cc3c0	-0.0038568825
78	0xbcd822cb	-0.026383778
79	0xbd578a72	-0.052622266
80	0xbda68769	-0.08131296
81	0xbd904bee	-0.070457324
82	0x3d82cadb	0.06386348
83	0x3d449942	0.04799772
84	0x3c1a0826	0.009401357
85	0x3ca5fd80	0.02026248
86	0xbca98b50	-0.020696312
87	0xbd935a69	-0.07194979
88	0xbc8b798a	-0.017025728
89	0x3b1c1b68	0.0023820046
90	0x3cf576b4	0.029963829
91	0xbd645662	-0.055746444
92	0xbc7167a0	-0.014734179
93	0x3d2e72c8	0.042589933
94	0x3d758f7a	0.059951283
95	0xbdd7962a	-0.105266884
96	0xbdc4c1cb	-0.096072756
97	0x3d6f7442	0.05846048
98	0x3d17933c	0.037005648
99	0xbd7904df	-0.06079566
100	0x3d36f297	0.044664945
101	0xbd67a398	-0.0565525
102	0xbd0d300a	-0.03446964
103	0xbc3d8778	-0.011567943
104	0x3cc123ff	0.023576735
105	0xbd8bead3	-0.068318985
106	0xbbaed088	-0.0053349175
107	0xbdcd0701	-0.100111015
108	0xbda4ce00	-0.08047104
109	0x3d0061a9	0.031343136
110	0x3c873b97	0.016507907
111	0x3d894897	0.067032985
112	0x3c086918	0.008325838
113	0x3d0d3f32	0.034484096
114	0xbc807149	-0.015679019
115	0xbd183365	-0.03715839
116	0xbc063dae	-0.0081934165
117	0xbca21e7d	-0.019789929
118	0xbdac9a1e	-0.08427833
119	0x3b8ac5da	0.0042350115
120	0xbd41c040	-0.047302485
121	0x3ccc62f1	0.024949523
122	0xbcad1b07	-0.021131052
123	0x3c9c63c4	0.01909054
124	0xbc1b0ddf	-0.009463756
125	0xbdb0847d	-0.0861902
126	0xbd87a8f7	-0.06624024
127	0x3b82942b	0.003984948
128	0xbd572cb2	-0.05253286
129	0xbd23bc8f	-0.039974745
130	0xbdb388fb	-0.08766361
131	0xbd3e895a	-0.046517707
132	0xbc9d9a39	-0.019238578
133	0x3acc4f69	0.0015587631
134	0xbda9e1d3	-0.08295026
135	0xbdb93c89	-0.09044749
136	0x3d93670f	0.07197391
137	0x3dcfaeb4	0.10140744
138	0xbc644148	-0.01393158
139	0x3d65102e	0.055923633
140	0xbd86fded	-0.06591401
141	0xbdd91ccc	-0.10601196
142	0x3db224ff	0.08698463
143	0xbc838938	-0.016056642
144	0xbc9d0d99	-0.019171523
145	0x3d9a4d8b	0.075343214
146	0xbddd6677	-0.10810559
147	0xbceb62d8	-0.028733656
148	0x3db0594f	0.08610784
149	0xbcecb14e	-0.02889314
150	0x3d595b4c	0.053065583
151	0x3cb2b88b	0.021816513
152	0x3d626be2	0.055278666
153	0xbd85e7bd	-0.06538341
154	0xbc2965cb	-0.010339211
155	0x3d1d6389	0.038425002
156	0xbd431031	-0.047622863
157	0xbd6f5c84	-0.05843784
158	0xbd4e436b	-0.050357264
159	0x3d4a64e6	0.04941263
160	0xbc435930	-0.011923119
161	0xbc52df1e	-0.012870578
162	0xbd3665f6	-0.04453083
163	0xbdf0562f	-0.11735188
164	0x3cc47c44	0.023985036
165	0xbd967562	-0.07346608
166	0xbd2b12b9	-0.041765902
167	0xbc8ce4d3	-0.017198956
168	0x3c8ecfb8	0.017433032
169	0xbd220af5	-0.03956123
170	0xbdc9f9bf	-0.098620884
171	0x3c8b5524	0.017008372
172	0xbd2bb3a5	-0.04191937
173	0xbda440c6	-0.08020167
174	0xbdf470fb	-0.11935612
175	0x3bb9f421	0.0056748544
176	0x3d694f36	0.056960307
177	0xbda2d193	-0.07950129
178	0xbd739a22	-0.059473164
179	0x3ca56270	0.02018854
180	0xbd44bc41	-0.048031095
181	0xbdc9ea1f	-0.09859108
182	0xbd5a3225	-0.053270478
183	0xbd11c79b	-0.03559075
184	0xbc197fd0	-0.009368852
185	0xbbc13ea0	-0.005897358
186	0xbcce08d2	-0.02515069
187	0x3cc86f36	0.024467092
188	0xbd5728ca	-0.052529134
189	0x3da12cf7	0.078699045
190	0xbdd7115a	-0.105013564
191	0x3cc55e0b	0.024092695
192	0xbda91cc7	-0.08257442
193	0xbdb7cd58	-0.08974713
194	0x3da11579	0.07865424
195	0xbd7b9bf8	-0.06142804
196	0xbcf26971	-0.029591294
197	0x3ce8ff41	0.028442027
198	0x3d094320	0.03351128
199	0xbd69a352	-0.05704052
200	0x3db4ad75	0.08822147
201	0x3c9777e4	0.018489785
202	0x3c109df7	0.008826724
203	0xbe01d8aa	-0.12680307
204	0xbd840d3a	-0.06447835
205	0x3da6e239	0.08148617
206	0x3d17a54e	0.03702288
207	0xbd04035c	-0.032229766
208	0x3d97069c	0.073743075
209	0x3d54376e	0.051810674
210	0xbdaff855	-0.085922875
211	0xbd7b3378	-0.06132838
212	0x3d887ced	0.06664453
213	0x3c809859	0.015697645
214	0xbe0ad962	-0.13559487
215	0x3d076e5f	0.033064242
216	0xbd87bc7f	-0.0662775
217	0x3d50470c	0.050849006
218	0xbd845050	-0.06460631
219	0xbc846d14	-0.016165294
220	0xbb008ca1	-0.0019615071
221	0x3da7613b	0.08172842
222	0x3cf7dbfe	0.030256268
223	0x3c799d37	0.015235237
224	0xbd9e461a	-0.077282146
225	0x3db311ab	0.08743604
226	0xbc99ae68	-0.018759921
227	0x3d166a5b	0.036722522
228	0xbd10d4a7	-0.03535905
229	0xbdbb3472	-0.091408625
230	0xbcf4f5da	-0.029902387
231	0xbdd1b255	-0.10239092
232	0x3c0e1584	0.008672122
233	0xbd37034e	-0.044680886
234	0x3d0cf5a8	0.034413964
235	0x3c727911	0.014799372
236	0xbb6672e7	-0.0035163702
237	0x3bbe4ae0	0.0058072656
238	0xbdb10ec2	-0.08645393
239	0xbc27eae2	-0.0102488715
240	0xbce0f88a	-0.027462263
241	0xbdbabf42	-0.09118511
242	0xbc73b3a0	-0.014874369
243	0xbdcf647b	-0.10126587
244	0xbd5be7a6	-0.053687714
245	0x3b986a15	0.004651318
246	0xbd937efd	-0.072019555
247	0xbd8eb995	-0.06968991
248	0x3cf74fcc	0.030189417
249	0x3d9c385f	0.076279394
250	0xbd34b4f2	-0.044117875
251	0xbd6dc9d5	-0.05805381
252	0x3c3268d0	0.010889247
253	0x3d57dcee	0.05270093
254	0x3dab6203	0.083683036
255	0xbe087030	-0.13324046

fcs2.bias f4 [128]
0	0xbdd93824	-0.10606411
1	0x3eb8f2f7	0.36122867
2	0xbdd0df27	-0.10198813
3	0xbd3ee9ae	-0.046609573
4	0x3ca5b165	0.02022619
5	0xbcf5dc44	-0.030012257
6	0x39073052	0.00012892604
7	0x3cf74748	0.030185357
8	0xbdd128bf	-0.1021285
9	0xbdb09d7a	-0.08623786
10	0xbd9f6efb	-0.0778484
11	0x3d23d792	0.040000506
12	0xbc894708	-0.016757503
13	0xbd569c2a	-0.052395023
14	0xbd94cc4a	-0.072655275
15	0x3d97563d	0.073894955
16	0xbccdc124	-0.02511651
17	0xbc34a0d5	-0.0110246735
18	0xbd8db7c4	-0.06919816
19	0xbc64a20d	-0.013954652
20	0xbd1403b9	-0.036136363
21	0x3d756d4f	0.059918698
22	0xbd28ca45	-0.041208524
23	0x3d2e034f	0.042483624
24	0xbd146e8a	-0.03623823
25	0xbd9d09b1	-0.07667864
26	0xbd02ade8	-0.03190413
27	0xbcd632b1	-0.026147218
28	0x3c99314e	0.018700268
29	0xbd64ae1e	-0.055830114
30	0xbd7e7383	-0.06212188
31	0x3d9ca436	0.07648508
32	0xbcbae652	-0.022814903
33	0x3c486c54	0.012232859
34	0xbdc3402d	-0.09533725
35	0x3cd34c7f	0.025793312
36	0xbd47cf72	-0.04878182
37	0x3ecba206	0.39772052
38	0xbd8e213c	-0.06939933
39	0xbbd922f9	-0.0066264835
40	0xbd8c3123	-0.068453096
41	0x3cb85de0	0.0225057
42	0xbd80c351	-0.06287254
43	0xbd12e8eb	-0.03586666
44	0xbc33740c	-0.010952961
45	0xbdaa11ac	-0.08304152
46	0x3edca92a	0.43097812
47	0xbd7fbe4b	-0.062437337
48	0xbd7a31a8	-0.061082512
49	0xbd87faff	-0.066396706
50	0xbd63c932	-0.055611797
51	0xbd5cb2c7	-0.053881433
52	0xbd485b22	-0.048915036
53	0xbc09db79	-0.008414143
54	0x3dadc82d	0.08485446
55	0x3c5be3bd	0.013420996
56	0x3d31e2da	0.043429233
57	0xbd75ad64	-0.05997981
58	0xbd2337be	-0.03984808
59	0x3d55bfc5	0.05218484
60	0xbd80f1fc	-0.06296155
61	0x3d260232	0.040529437
62	0xbca33ba6	-0.019925904
63	0xbd7324f2	-0.059361406
64	0xbd24c630	-0.04022807
65	0xbd5e9305	-0.054339428
66	0xbd31873e	-0.043341868
67	0xbdacffae	-0.084472045
68	0xbd0fee2e	-0.035139255
69	0xbe13861a	-0.14406624
70	0x3dd0b936	0.10191576
71	0xbcc8fbd6	-0.024534147
72	0x3c8993b5	0.016794065
73	0xbd14ff12	-0.036376067
74	0x3d99488d	0.07484541
75	0xbd4a95ff	-0.049459454
76	0x3c930db5	0.017950872
77	0xbdc0a6ff	-0.09406852
78	0xbc0f5503	-0.008748296
79	0xbd4b68f0	-0.049660623
80	0xbce0ba0a	-0.02743246
81	0x3c4822a7	0.012215293
82	0xbd07668f	-0.033056792
83	0x3d21bcd5	0.039486725
84	0xbd394459	-0.045231197
85	0xbd649e25	-0.05581488
86	0xbcffd6fc	-0.031230442
87	0xbd52f2a6	-0.05150094
88	0x3dbfa46e	0.09357534
89	0x3badc365	0.005302834
90	0xbd53a657	-0.051672306
91	0xbd3c6523	-0.04599489
92	0xbd431031	-0.047622863
93	0x3ab50665	0.001381111
94	0x3d9e8d8e	0.07741843
95	0xbdbfeb7e	-0.093710884
96	0x3b749e18	0.0037325677
97	0x3ccfaacc	0.025349997
98	0xbb60835a	-0.003425798
99	0x3e85c0fe	0.26123804
100	0x3e200974	0.15628606
101	0xbd40fcef	-0.047116216
102	0x3d37f34e	0.044909768
103	0x3c9e686e	0.019336905
104	0xbcae279c	-0.021259122
105	0x3e1b9be6	0.1519619
106	0xbcd2ed51	-0.025747927
107	0x3d054aed	0.032542158
108	0x3cd9dc34	0.026594259
109	0xbd00ea61	-0.03147352
110	0x3b55cd21	0.0032623487
111	0x3d845602	0.06461717
112	0xbcfa6858	-0.030567333
113	0x3e1238e0	0.14279509
114	0xbdb60075	-0.08886806
115	0x3d4f63f2	0.050632425
116	0xbd29dee4	-0.04147233
117	0xbc8a9fe4	-0.016921945
118	0xbcee9035	-0.029121498
119	0xbda62d91	-0.0811416
120	0x3cb19852	0.021679077
121	0xbd8900b8	-0.0668959
122	0xbd3792bf	-0.044817682
123	0x3d41eb40	0.047343493
124	0xbd4d0701	-0.050055508
125	0xbc29b7d4	-0.010358769
126	0x3deb8575	0.11500064
127	0xbd7ffe0c	-0.062498137

fca1.weight f4 [128, 2]
0	0xbd3e81c3	-0.04651047
1	0x3b5279e0	0.00321161
2	0xbd1a177f	-0.037620064
3	0xbda63a06	-0.08116536
4	0x3d8e8382	0.06958677
5	0x3cca99c8	0.024731532
6	0xbc8c94b0	-0.017160743
7	0x3d6dfd9e	0.058103196
8	0x3d5958b2	0.053063102
9	0x3d8be563	0.068308614
10	0x3be28bf5	0.006913657
11	0xbd91b92e	-0.07115398
12	0x3dad82d3	0.08472218
13	0xbd8a1832	-0.06742896
14	0x3d46138e	0.048358493
15	0xbccc6b7c	-0.024953596
16	0x3f50be40	0.815403
17	0xbd62de00	-0.055387497
18	0xbc011b38	-0.007880025
19	0x3d03d121	0.032181863
20	0xbd8b7bdc	-0.06810734
21	0x3e49bd1e	0.19701049
22	0x3d83fe15	0.06444947
23	0x3d591249	0.052995954
24	0x3c2ff700	0.010740042
25	0x3d8cddd5	0.068782486
26	0x3d644835	0.055732924
27	0xbd3fefe1	-0.046859626
28	0xbeb34f9d	-0.35021678
29	0x3f523aed	0.82121164
30	0xbd070775	-0.032966096
31	0x3d33f9a6	0.043939255
32	0xbd098d9c	-0.033582315
33	0x3d8083b3	0.0627512
34	0x3dc04a5f	0.09389185
35	0x3e3a50e3	0.18194918
36	0x3c87bb7d	0.016568894
37	0xbbad92b9	-0.0052970317
38	0xbccc6ed0	-0.024955183
39	0xbbbe6170	-0.0058099553
40	0xbde9f4f5	-0.11423675
41	0x3cdcae91	0.026938708
42	0xbdb90974	-0.09035006
43	0x3d1eefaa	0.03880278
44	0xbd8296fe	-0.06376456
45	0x3d47f89a	0.04882107
46	0x3d8ff2fa	0.07028766
47	0x3d16ed4b	0.036847394
48	0x3d1143d6	0.035465084
49	0x3dd53a57	0.10411518
50	0x3d927dad	0.07152877
51	0x3d8828eb	0.066484295
52	0x3dd269de	0.10274099
53	0xbe19970c	-0.14999026
54	0x3d57bd76	0.05267092
55	0x3c60dea8	0.01372496
56	0xbd2b026a	-0.04175035
57	0x3ea23fe8	0.31689382
58	0xbd9b36cb	-0.0757881
59	0xbbdf4310	-0.0068134144
60	0xbd7f257a	-0.0622916
61	0x3cb08a04	0.021550186
62	0xbcae9a30	-0.021313757
63	0xbd584a26	-0.05280509
64	0x3be2f677	0.0069263536
65	0x3c65ff02	0.014037849
66	0xbd064b77	-0.032786813
67	0x3daf2d80	0.085536
68	0x3d140e02	0.03614617
69	0x3d9c14b1	0.07621134
70	0xbc099c18	-0.008399032
71	0x3a9d3980	0.0011995286
72	0xbd04b259	-0.032396648
73	0xbc266d58	-0.0101579055
74	0xbda12ae7	-0.07869511
75	0x3d934357	0.071905784
76	0xbd9660e0	-0.07342696
77	0xbdfefc52	-0.1245047
78	0xbe023211	-0.12714411
79	0xbd931021	-0.07180811
80	0xbddc2abd	-0.10750339
81	0x3dab8dcb	0.08376654
82	0xbde110c3	-0.10989525
83	0xbecb85d6	-0.39750546
84	0xbd192aa3	-0.037394177
85	0x3da6abdc	0.08138248
86	0x3d3f944f	0.046772297
87	0xbcb4abf3	-0.022054648
88	0x3d54cbca	0.05195216
89	0xbc8ab2d8	-0.016930982
90	0xbd978490	-0.07398331
91	0xbc9f8cfc	-0.019476406
92	0x3cc65c84	0.024214037
93	0xbc357db8	-0.011077337
94	0xbd9d53e9	-0.0768202
95	0xbda18bd4	-0.07887998
96	0xbda1700e	-0.07882701
97	0xbb3ff34e	-0.0029289308
98	0x3c48ef50	0.012264088
99	0xbd5f651e	-0.054539792
100	0x3d03e820	0.032203794
101	0x3d434ac9	0.047678743
102	0xbd839256	-0.06424396
103	0x3cffd850	0.031231076
104	0x3daf46a7	0.08558398
105	0xbb904170	-0.004402332
106	0xbd8f67ec	-0.070022434
107	0xbeb03c0f	-0.3442082
108	0x3d425c80	0.047451496
109	0x3d9fe54d	0.078074075
110	0x3d51c601	0.051214222
111	0xbe1259d0	-0.14292073
112	0xbe2ab4c6	-0.16670522
113	0x3dce439d	0.1007149
114	0xbc042970	-0.00806652
115	0x3c439160	0.011936516
116	0xbf12b08f	-0.5730066
117	0xbe9f6f5e	-0.31139654
118	0x3e0376ac	0.12838238
119	0x3b967596	0.004591654
120	0xbdac6756	-0.08418147
121	0xbc31c272	-0.010849582
122	0x3ca85c2b	0.020551762
123	0xbd2b4e15	-0.04182251
124	0xbc1d1c61	-0.009589286
125	0x3d907da6	0.070552155
126	0x3bfa4670	0.0076377913
127	0xbb447f62	-0.0029983153
128	0xbd8e7c0e	-0.06957255
129	0x3c51a69d	0.012796071
130	0x3da9defb	0.08294483
131	0x3d3dd692	0.04634721
132	0xbe1654e3	-0.14680819
133	0x3da8b3e5	0.08237437
134	0x3e05e226	0.1307455
135	0x3cd58cb3	0.026068067
136	0x3d50444a	0.050846376
137	0x3d79c0fa	0.060975052
138	0x3d23a3fe	0.039951317
139	0xbe85d687	-0.26140234
140	0xbd1b7758	-0.037955612
141	0xbc8e966d	-0.017405713
142	0x3d844aa5	0.0645955
143	0x3d6f3cee	0.058407716
144	0xbd0f4a1d	-0.03498279
145	0x3c4baa78	0.01243078
146	0xbd940f2d	-0.07229457
147	0xbd2102de	-0.039309375
148	0x3e9df26f	0.30849025
149	0xbd3d43ee	-0.04620736
150	0x3dacc781	0.0843649
151	0xbd098046	-0.033569597
152	0xbc8a9b30	-0.016919702
153	0x3da3d651	0.07999862
154	0xbd960c9b	-0.07326623
155	0x3ca3152c	0.019907556
156	0x3d7b6143	0.061372053
157	0xbcf63436	-0.030054193
158	0x3ef237e3	0.47308263
159	0x3f5e8b1c	0.86931014
160	0x3cbf3f9e	0.023345765
161	0x3db2161f	0.086956255
162	0x3ea3adba	0.3196848
163	0xbe8fce1c	-0.28086936
164	0x3d9a1b01	0.07524682
165	0x3bb08660	0.0053871125
166	0xbd209cd5	-0.039212067
167	0xbd892871	-0.06697167
168	0x3c9c19b6	0.019055229
169	0x3da065ba	0.07831903
170	0x3cf34095	0.029693881
171	0xbbcea1d9	-0.006305915
172	0xbd4e2bcb	-0.050334733
173	0xbd22d172	-0.039750524
174	0xbd12ee20	-0.035871625
175	0xbc88b3cc	-0.016687296
176	0xbc9a8527	-0.01886232
177	0xbd1e4ce6	-0.038647555
178	0xbd1a8317	-0.037722673
179	0xbd2e6af8	-0.042582482
180	0xbcc0d3c0	-0.02353847
181	0x3e930f29	0.28722504
182	0x3e3d12f7	0.18464266
183	0xbcd4ccf1	-0.02597663
184	0x3e1dfea6	0.15429172
185	0x3dfae7f3	0.12251272
186	0x3f7801d7	0.9687781
187	0xbf89326a	-1.071851
188	0x3dca865f	0.098889105
189	0xbd546d90	-0.0518623
190	0xbbf34910	-0.007424481
191	0x3db503f1	0.088386424
192	0x3e66544d	0.22493096
193	0xbe00ac91	-0.12565829
194	0xbd44358a	-0.04790262
195	0xbd818553	-0.06324258
196	0xbd2874dc	-0.04112707
197	0x3cd37a76	0.02581523
198	0x3d9637aa	0.07334836
199	0x3dd27077	0.10275357
200	0xbdfd09f7	-0.12355416
201	0xbdbc3d12	-0.09191336
202	0xbc9d25c7	-0.019183053
203	0xbb90af0d	-0.004415399
204	0xbcef063e	-0.029177781
205	0xbda905de	-0.08253072
206	0xbe304e1c	-0.17217296
207	0x3dac44c9	0.08411557
208	0xbb17edc3	-0.0023182489
209	0x3da25014	0.0792543
210	0x3d46a545	0.048497457
211	0x3dbd042f	0.092293136
212	0xbd8a4d8c	-0.06753072
213	0xbe5a7fe7	-0.21337853
214	0xbe75d7eb	-0.24008147
215	0x3d5b6c5f	0.053570148
216	0xbcfd03e7	-0.03088565
217	0xbc661b64	-0.014044616
218	0xbdd489c5	-0.1037784
219	0xbe0acc25	-0.13554437
220	0xbce5614e	-0.0280005
221	0xbd794a59	-0.06086192
222	0xbd0adcbb	-0.03390191
223	0xbd971111	-0.07376302
224	0xbc374a88	-0.011187203
225	0x3d1e4f22	0.038649686
226	0xbc46ee48	-0.012141772
227	0x3c0562f0	0.008141264
228	0xbbb3fd61	-0.0054928516
229	0x3ce69011	0.028144868
230	0xbd40b1b6	-0.04704448
231	0x3d522f5e	0.051314704
232	0x3d789002	0.06068421
233	0x3d8be303	0.068304084
234	0x3dc5ebf7	0.09664147
235	0xbd3d0641	-0.046148542
236	0xbdbcae03	-0.092128776
237	0x3d978ad3	0.073995255
238	0x3db0d0e7	0.08633595
239	0xbdef0a91	-0.11671937
240	0xbdc0fbde	-0.0942304
241	0xbd999fc9	-0.0750118
242	0xbd79efdc	-0.061019763
243	0x3da94a20	0.08266091
244	0xbd55c169	-0.052186403
245	0xbda54718	-0.08070201
246	0xbdb8dd61	-0.090266
247	0x3d382c38	0.044964045
248	0x3e07e0d6	0.13269362
249	0x3db6c7c4	0.08924821
250	0xbd49a10c	-0.049225852
251	0x3d60259a	0.05472336
252	0xbd620abf	-0.05518603
253	0xbd1905c2	-0.037359007
254	0x3da3c6af	0.0799688
255	0x3d06618a	0.032807864

fca1.bias f4 [128]
0	0xbebe93bd	-0.3722209
1	0x3f8bc887	1.0920571
2	0x3f86912f	1.0513057
3	0xbe6ef194	-0.23334342
4	0xbf2bcf05	-0.6711276
5	0x3f651749	0.89488655
6	0xbec208d6	-0.37897366
7	0xbe78d702	-0.24300769
8	0x3f0a4cd8	0.54023504
9	0x3f8669e1	1.0501062
10	0x3f846b22	1.0345194
11	0x3f7c1aed	0.98478585
12	0xbec6a864	-0.38800347
13	0xbedbc942	-0.42926985
14	0x3e3da42d	0.1851966
15	0xbf290bf3	-0.6603386
16	0x3f4e3093	0.8054287
17	0x3f291e13	0.66061515
18	0x3f6f5290	0.93485355
19	0xbd9fd6b8	-0.07804626
20	0x3f860ad2	1.0472052
21	0x3f65fc25	0.8983787
22	0xbef15030	-0.4713149
23	0x3f59f213	0.85135
24	0x3f5ef133	0.8708679
25	0xbf1a61ff	-0.6030578
26	0x3ee56ba7	0.44808695
27	0xbf08b6e2	-0.5340406
28	0x3c3c932c	0.011509698
29	0xbf2a8cbd	-0.66621
30	0xbf010bff	-0.5040893
31	0xbf06508c	-0.52466655
32	0x3f09796a	0.5370089
33	0x3f6e70bf	0.93140787
34	0xbefdd743	-0.49578294
35	0xbf2b387d	-0.6688307
36	0xbef0eff9	-0.47058085
37	0xbe8940ca	-0.26807243
38	0x3f321c73	0.6957466
39	0x3f8c9c71	1.0985242
40	0x3f70bc93	0.9403774
41	0x3e26f72e	0.16305229
42	0x3f4119ea	0.75430167
43	0x3f1b4535	0.60652477
44	0xbf200552	-0.6250812
45	0xbde5a138	-0.11212391
46	0xbedcef6a	-0.43151408
47	0xbe34ae0c	-0.17644519
48	0xbf33f929	-0.70302063
49	0xbefd69e2	-0.49494845
50	0xbe5efb46	-0.2177554
51	0xbee4b595	-0.44669786
52	0xbf201d51	-0.62544733
53	0x3f0d90ab	0.5529887
54	0xbe500c74	-0.2031725
55	0x3f4a62b7	0.79056877
56	0x3f4b1f4f	0.7934465
57	0xbe5d27f7	-0.21597277
58	0xbd3d4c7d	-0.046215523
59	0x3f7d89a1	0.9903813
60	0xbedfeb72	-0.43734318
61	0xbd9bec88	-0.07613474
62	0x3f60dd96	0.87838113
63	0xbdfc90d0	-0.12332308
64	0xbea9db0b	-0.3317493
65	0xbf0194fa	-0.50617945
66	0x3f5e6374	0.86870503
67	0x3f55272f	0.83262914
68	0xbf0a8f29	-0.54124695
69	0x3f1ecf60	0.6203518
70	0xbd7c7f82	-0.06164504
71	0xbeec56bc	-0.46159923
72	0xbeec04b4	-0.46097338
73	0xbee28d8d	-0.4424862
74	0x3ec3f7ed	0.3827509
75	0xbf2aabe1	-0.66668516
76	0xbe23bb04	-0.1598931
77	0xbe92dc7b	-0.28683838
78	0x3f4370ef	0.763442
79	0xbde17071	-0.110077746
80	0xbea83328	-0.3285153
81	0x3f49913b	0.7873723
82	0xbe604e2c	-0.2190482
83	0xbdee9328	-0.116491616
84	0x3f59f3af	0.85137457
85	0x3f1f5d5b	0.62251824
86	0x3f76a40b	0.9634406
87	0x3f73e9d2	0.95278656
88	0xbe8919da	-0.26777536
89	0xbe9f1e6c	-0.31077898
90	0xbd12c035	-0.035827834
91	0x3f44cd11	0.76875407
92	0x3f03cbf2	0.5148307
93	0xbe446d94	-0.19182426
94	0xbe1b8ec8	-0.15191185
95	0xbf146078	-0.579597
96	0x3f4435e6	0.7664474
97	0xbf04cc38	-0.51874113
98	0x3f892991	1.071581
99	0x3f5d20f4	0.8637841
100	0x3f437e32	0.76364434
101	0x3f5db288	0.8660054
102	0xbf23b209	-0.63943535
103	0x3f343f92	0.704095
104	0x3f926287	1.1436318
105	0x3f683878	0.90711164
106	0x3f2afc72	0.6679145
107	0x3ea652ec	0.3248514
108	0x3f2a65ab	0.66561383
109	0x3f054e6b	0.5207278
110	0x3f8185f4	1.0119004
111	0xbec0f9ea	-0.3769067
112	0xbed74422	-0.4204417
113	0xbf15fc68	-0.58588266
114	0x3f978990	1.1838856
115	0xbeccf7ee	-0.40032905
116	0xbe081c80	-0.13292122
117	0x3f5a0b20	0.85173225
118	0x3f2c5ce5	0.67329246
119	0x3f67aa5a	0.9049431
120	0x3f4ab785	0.7918628
121	0x3f41c944	0.7569773
122	0xbf0a39ac	-0.5399425
123	0x3f311084	0.69165826
124	0x3f22e726	0.63633955
125	0xbe036333	-0.1283081
126	0xbefd6aae	-0.49495453
127	0xbed3d91f	-0.41376588

fc2.weight f4 [128, 256]
0	0x3d9aa467	0.075508885
1	0xbee7eb96	-0.45296925
2	0x3e72cc81	0.23710825
3	0x3da775b2	0.081767455
4	0x3e28e966	0.16495284
5	0x3ccf58c3	0.02531088
6	0xbf384080	-0.7197342
7	0x3ebd507e	0.36975473
8	0xbfa01b7e	-1.250839
9	0xbc833c23	-0.016019886
10	0xbd948212	-0.072513714
11	0x3e4613f0	0.19343543
12	0xbbcfe94b	-0.0063449494
13	0xbc11cea8	-0.008899368
14	0xbb3b579b	-0.0028586152
15	0x3eabbadc	0.33541
16	0xbe0b3ecb	-0.13598172
17	0xbd96240b	-0.073310934
18	0x3db0f36a	0.086401775
19	0xbd51d966	-0.051232718
20	0x3e04b7d2	0.12960747
21	0x3eaf1b91	0.3420072
22	0xbdfaec62	-0.12252118
23	0x3e52875f	0.20559452
24	0xbd891058	-0.066925704
25	0xbda1dffd	-0.079040505
26	0x3dfdfa12	0.12401213
27	0xbd8084d1	-0.06275333
28	0xbcbac712	-0.022800002
29	0xbd272850	-0.04080993
30	0x3cceebfd	0.025259012
31	0x3df13f32	0.11779632
32	0x3c7df683	0.0155006675
33	0x3e6b4e59	0.22979106
34	0x3e0f52f9	0.13996495
35	0xbdacc12e	-0.084352836
36	0x3e88d5f6	0.2672574
37	0x3eca3818	0.3949592
38	0xbdb35cd4	-0.0875794
39	0x3e117000	0.14202881
40	0x3da650b9	0.081208654
41	0x3d93de01	0.07220078
42	0xbd0416e4	-0.032248393
43	0x3e923fc2	0.28564268
44	0x3d3d43cc	0.046207234
45	0x3d2b1b4d	0.041774083
46	0xbdf5c882	-0.120011345
47	0x3e88acf9	0.26694468
48	0xbc2e6710	-0.010644689
49	0x3b6e799e	0.0036388407
50	0x3eeb2812	0.4592901
51	0xbc096648	-0.008386202
52	0x3e9825ca	0.2971633
53	0x3d989125	0.07449559
54	0x3e5b3ea7	0.21410619
55	0xbcab907c	-0.020942919
56	0x3f17b140	0.5925484
57	0xbd545620	-0.051839948
58	0xbcef257e	-0.029192682
59	0x3e9c7f05	0.30565658
60	0x3dc666cc	0.09687576
61	0x3ed7ac32	0.42123562
62	0xbcfb3760	-0.030666053
63	0x3d751123	0.059830796
64	0x3c20a394	0.009804625
65	0x3c144069	0.00904856
66	0xbd8d31a0	-0.06894231
67	0xbcf6e9d8	-0.030140802
68	0x3d32cffb	0.043655377
69	0x3b08b20a	0.0020858073
70	0x3daade21	0.08343149
71	0xbd394c8e	-0.045239024
72	0x3e6aa2ab	0.22913615
73	0xbda706fc	-0.08155629
74	0x3e31025b	0.17286055
75	0x3d388108	0.04504493
76	0x3e052863	0.13003688
77	0xbdc517bb	-0.09623667
78	0xbd045d34	-0.032315448
79	0x3db2ad41	0.08724452
80	0x3d698412	0.057010718
81	0x3ece5d10	0.40305376
82	0x3bc2ed09	0.005948667
83	0x3d8904a0	0.06690335
84	0xbdd3e8bf	-0.10347127
85	0xbd554468	-0.05206719
86	0x3d0f2ec5	0.034956712
87	0xbd57962a	-0.052633442
88	0x3f8e96c9	1.1139766
89	0x3e6fe98a	0.23428932
90	0x3d69ce4a	0.0570815
91	0xbc8e05e4	-0.017336793
92	0xbcf5cd08	-0.030004993
93	0xbdd0b085	-0.101899184
94	0x3e54bbdf	0.20774792
95	0xbcd93ff4	-0.026519753
96	0x3ced0a6d	0.028935635
97	0x3c74d920	0.014944345
98	0xbccb45c8	-0.024813548
99	0x3e3984f9	0.18117131
100	0x3f2c9aa4	0.6742346
101	0x3d4c7291	0.049913947
102	0xbf97a009	-1.1845714
103	0x3f16a52a	0.5884577
104	0x3e555ccf	0.20836185
105	0x3e6a320c	0.22870654
106	0x3e87f334	0.26552737
107	0x3e985e7f	0.29759595
108	0x3d08a6e0	0.03336227
109	0xbd3efd36	-0.0466282
110	0xbda32c06	-0.07967381
111	0x3ea63ee7	0.32469866
112	0xbd9ae6cf	-0.075635545
113	0x3e45f34a	0.19331089
114	0x3c141c81	0.009039999
115	0x3eb2a449	0.34890965
116	0x3d301c91	0.042995993
117	0x3e9c2ade	0.30501455
118	0x3f0d4180	0.5517807
119	0xbc9e31da	-0.01931088
120	0x3e7882fc	0.24268717
121	0x3c394841	0.011308731
122	0xbc81c522	-0.01584107
123	0x3eaaa446	0.33328456
124	0x3cfbc401	0.03073311
125	0xbdbb3472	-0.091408625
126	0x3ea1d2b6	0.31606072
127	0xbd0d273c	-0.034461245
128	0x3da29083	0.0793772
129	0x3e4793d9	0.19489993
130	0x3e301627	0.1719595
131	0xbd9ca113	-0.0764791
132	0xbd2abdf0	-0.041685045
133	0x3de925f7	0.11384194
134	0xbd4e0981	-0.050302032
135	0xbd024e2f	-0.031812843
136	0xbe8785ba	-0.26469213
137	0x3de0165c	0.10941765
138	0x3e0c822d	0.13721533
139	0x3d29c461	0.041447047
140	0x3b78a340	0.0037939101
141	0x3cf34450	0.02969566
142	0x3d6a354d	0.057179738
143	0x3c869ec4	0.016433127
144	0x3e47b4e3	0.19502597
145	0x3dfc7c92	0.123284474
146	0x3db4fda8	0.088374436
147	0xbce33038	-0.027732953
148	0x3e2c8609	0.16848005
149	0x3e275fea	0.16345182
150	0x3d0aed8c	0.03391795
151	0x3d331116	0.043717466
152	0x3e372225	0.17884119
153	0xbd737891	-0.059441153
154	0xbbaef1b7	-0.0053388732
155	0xbda04e72	-0.07827462
156	0x3c02a4c0	0.00797385
157	0xbd5bf09d	-0.053696264
158	0xbbec4180	-0.0072099566
159	0x3d432952	0.047646828
160	0x3e29dc84	0.16588026
161	0x3d3d7ad6	0.046259724
162	0x3d6d2782	0.057899006
163	0xbd664d83	-0.056226265
164	0xbba762c0	-0.0051082075
165	0xbda93b2b	-0.082632385
166	0x3e55c371	0.20875336
167	0x3e0dd36c	0.13850182
168	0x3e466f34	0.19378358
169	0xbde8cd47	-0.113672785
170	0x3e2e98af	0.17050432
171	0x3db2343e	0.08701371
172	0xbc1701b8	-0.009216718
173	0xbd87c1b8	-0.06628746
174	0xbd96240b	-0.073310934
175	0xbd710ddc	-0.058851108
176	0xbc8efca4	-0.017454453
177	0x3cfcc410	0.030855209
178	0xbda13953	-0.07872262
179	0x3d031816	0.032005392
180	0x3c3f66ae	0.011682196
181	0x3d8ef346	0.069799945
182	0xbd98d4e3	-0.0746248
183	0x3e506fd5	0.2035516
184	0x3e4304ba	0.19044772
185	0xbd48c90e	-0.049019866
186	0x3e4fbede	0.20287654
187	0x3e4621cd	0.19348831
188	0x3d69ed9a	0.05711136
189	0xbd2acd2d	-0.041699577
190	0x3e283078	0.1642474
191	0xbda3aaf0	-0.07991588
192	0xbd9d9527	-0.07694464
193	0xbc934d79	-0.017981278
194	0x3e4e2fed	0.2013547
195	0x3e0c6c33	0.1371315
196	0xbccbea18	-0.024891898
197	0x3d2c74ff	0.042103764
198	0xbd419930	-0.04726523
199	0x3d038e2b	0.032118004
200	0xbcd2d8a0	-0.02573806
201	0xbdad8d61	-0.084742315
202	0xbe4f4647	-0.20241652
203	0xbc2fd641	-0.010732234
204	0x3da0058d	0.07813559
205	0x3d8540ad	0.065064766
206	0x3e2e8de5	0.17046316
207	0xbdfaee65	-0.122525014
208	0xbcab6aa4	-0.020924874
209	0xbbcdc2cb	-0.0062793246
210	0xbd5f265c	-0.05447994
211	0x3c72a9d0	0.014810994
212	0x3e0eba2f	0.13938211
213	0x3e1f6d10	0.15568948
214	0x3e627850	0.22116208
215	0x3e01ff52	0.12695053
216	0xbd94f95b	-0.07274123
217	0x3d53fb4a	0.05175332
218	0xbea94cca	-0.33066398
219	0x3e0b3d80	0.13597679
220	0xbcf0b457	-0.029382868
221	0xbeb102b0	-0.34572363
222	0xbe38f251	-0.18061186
223	0x3d1fe65a	0.03903804
224	0x3c9f7377	0.019464238
225	0xbd01f308	-0.031725913
226	0x3e633ed8	0.22191942
227	0x3de86fc3	0.11349442
228	0x3e0469f6	0.12931046
229	0x3dfdf034	0.12399331
230	0xbd8e080a	-0.06935127
231	0x3e1d7692	0.15377262
232	0x3e39fdcc	0.18163222
233	0x3dd3e08d	0.10345564
234	0x3e1953f0	0.14973426
235	0x3c66ba6d	0.014082533
236	0x3d470261	0.048586253
237	0x3e04378c	0.12911814
238	0x3e38e190	0.18054795
239	0xbc626f8c	-0.01382054
240	0x3d3fe562	0.046849616
241	0x3cf18ac8	0.029485121
242	0x3d7318e6	0.059349917
243	0x3caf17b4	0.021373607
244	0x3d7d8622	0.061895497
245	0x3da9cd88	0.08291155
246	0x3e28bd9e	0.16478583
247	0x3d596729	0.053076897
248	0x3d9d0c0e	0.07668315
249	0x3e16a9c6	0.14713201
250	0xbd83018b	-0.06396779
251	0x3e1fc32d	0.15601797
252	0x3e1b8f23	0.15191321
253	0x3d9c2ba7	0.076255135
254	0xbd5b4d65	-0.053540606
255	0x3d02e8d6	0.03196033

fc2.bias f4 [128]
0	0x3e528508	0.2055856
1	0x3f16630d	0.5874489
2	0x398e213c	0.00027109112
3	0x3ea23f4c	0.31688917
4	0x3e1869db	0.1488413
5	0x3d15788e	0.036491923
6	0x3e584872	0.21121386
7	0xbd82da7b	-0.06389328
8	0x3e8b5703	0.27214822
9	0x3df52d96	0.119715855
10	0x3e206b7a	0.15665999
11	0x3e33b920	0.17551088
12	0x3e5a7067	0.2133194
13	0x3d0cc593	0.03436811
14	0x3dca7c52	0.098869935
15	0xbc865fe8	-0.016403154
16	0xbb38252e	-0.0028098333
17	0xbd359306	-0.044329666
18	0x3d16b14a	0.03679017
19	0xbd605092	-0.054764338
20	0xbd8a4109	-0.06750686
21	0x3d905d98	0.070491016
22	0x3e978a21	0.29597571
23	0xbcdf05cc	-0.027224444
24	0xbd530247	-0.051515844
25	0x3df4b175	0.1194791
26	0x3cc19160	0.02362889
27	0x3e4b194d	0.1983387
28	0x3c2f8821	0.010713608
29	0x3e5b5fa7	0.21423207
30	0x3df1ad82	0.11800672
31	0xbc947041	-0.018119933
32	0xbd06d606	-0.032918952
33	0x3e543ae7	0.20725594
34	0x3c8956a8	0.016764954
35	0xbbacc8fe	-0.0052729836
36	0x3dc18583	0.094492935
37	0x3eeb1351	0.45913175
38	0x3c2f053b	0.010682399
39	0xbae8261b	-0.0017711552
40	0x3e04b201	0.12958528
41	0x3e70c37d	0.23512073
42	0x3e76f7d4	0.24117976
43	0x3eaf1035	0.34192052
44	0x3c567519	0.013089442
45	0x3d349170	0.044084013
46	0x3db1345f	0.08652567
47	0xbdc889ba	-0.09791894
48	0xbd111af7	-0.035426106
49	0x3d0f0f85	0.03492691
50	0xbb0ffdce	-0.0021971348
51	0x3e55b2ca	0.20868984
52	0x39af8ff1	0.00033485846
53	0x3baeb3df	0.005331501
54	0xbce1a853	-0.027546084
55	0x3c02de63	0.007987591
56	0x3e58b728	0.21163619
57	0x3e558f18	0.20855367
58	0x3ca8c926	0.020603728
59	0xbc9ccb65	-0.019139955
60	0x3e65938d	0.22419567
61	0xbd6cfb08	-0.05785659
62	0xbc4df54a	-0.0125706885
63	0x3d7366fa	0.059424378
64	0xbdb33de8	-0.08752042
65	0xbd74b900	-0.059746742
66	0xbd9750d4	-0.073884636
67	0x3d133609	0.035940204
68	0x3e3a908a	0.182192
69	0x3e1d5ddb	0.15367834
70	0xbc6fd248	-0.014637537
71	0x3c9fb2d0	0.019494444
72	0xbcf5e02c	-0.03001412
73	0x3daa7d21	0.08324648
74	0x3e5af5b9	0.21382798
75	0x3d0bd6ff	0.034140583
76	0x3e01452c	0.12624043
77	0xbd8088b9	-0.06276078
78	0x3ca54a1e	0.020176943
79	0x3dec4728	0.115370095
80	0x3e161c3b	0.14659207
81	0x3e12a2f5	0.14319976
82	0xbd2895d9	-0.04115853
83	0x3e0c3bc4	0.13694674
84	0x3e21deda	0.15807667
85	0xbd8c0dfb	-0.06838604
86	0xbc22552d	-0.009908003
87	0xbca581b0	-0.020203441
88	0x3d9b82ad	0.07593284
89	0xbda70469	-0.08155138
90	0xbd719e50	-0.05898887
91	0x3e5139fc	0.20432276
92	0x3c9fdb4a	0.019513745
93	0x3daa18ff	0.08305549
94	0x3e9c9147	0.30579588
95	0x3de11530	0.10990369
96	0x3c9f4727	0.019443108
97	0x3e8011ce	0.25013584
98	0x3e9efc09	0.31051663
99	0x3ddd3d6f	0.10802733
100	0x3da6c110	0.081422925
101	0xbaf9cfff	-0.001905918
102	0x3c73ec2a	0.014887849
103	0x3d08a2ad	0.033358265
104	0x3dc97f66	0.098387524
105	0xbb516fed	-0.0031957582
106	0x3e1e9b79	0.15488996
107	0x3d276de2	0.040876277
108	0x3e2de7a0	0.16982889
109	0x3cd61a83	0.026135689
110	0xbd906746	-0.07050948
111	0xbd9ac78f	-0.07557594
112	0x3e99fd5c	0.3007611
113	0x3e326325	0.17420633
114	0xbd4d496a	-0.05011884
115	0xbd3dff96	-0.046386324
116	0xbd5e4126	-0.05426135
117	0x3e0f3577	0.13985239
118	0x3e95f116	0.29285496
119	0xbb53fc47	-0.0032346414
120	0x3dbc04a4	0.09180573
121	0x3d613349	0.05498055
122	0x3f11965f	0.56870073
123	0x3dfff33e	0.12497567
124	0xbd1f3724	-0.038870946
125	0x3d039214	0.032121733
126	0x3dc68032	0.0969242
127	0x3e2cc3d4	0.16871578

fc3.weight f4 [1, 128]
0	0x3ea333f0	0.31875563
1	0x3fec4ecf	1.846155
2	0xbceb3993	-0.028713977
3	0x3f539453	0.826482
4	0x3eb86f6d	0.3602251
5	0xbae6f2e2	-0.0017619992
6	0x3ed5f76a	0.41790324
7	0xbc4830b5	-0.012218644
8	0x3f02b7c0	0.5106163
9	0x3ebb2660	0.36552715
10	0x3ec279f9	0.37983683
11	0x3e9f559b	0.3112
12	0x3ebe9394	0.37221968
13	0xbb8b045a	-0.004242462
14	0x3ebced75	0.36899915
15	0x3ef7d21b	0.48402485
16	0xbcd45018	-0.025917098
17	0xbc83e034	-0.01609812
18	0x3e95ffed	0.29296818
19	0x3baba01d	0.005237593
20	0xbcc2d1b1	-0.02378163
21	0x3effad45	0.49936882
22	0x3f8cd582	1.1002657
23	0xbafb9642	-0.0019194561
24	0xbc001483	-0.00781739
25	0x3ea234c9	0.31680897
26	0x3bad9807	0.005297664
27	0x3eb7bb85	0.35885254
28	0xbb9491b2	-0.00453397
29	0x3eaa8824	0.33306992
30	0x3eab2b88	0.3343165
31	0x3ede68cf	0.43439338
32	0x3b850cfd	0.004060386
33	0x3ec91ebd	0.39281264
34	0xbcbe9b8d	-0.023267532
35	0xbc98fa9e	-0.018674191
36	0x3ee7ffd6	0.45312375
37	0x3fd91790	1.6960316
38	0xbf1977a3	-0.59948176
39	0x3ebd3ea8	0.36961865
40	0x3eb8b1fe	0.36073297
41	0x3f39ba3b	0.7254979
42	0x3eaed1d5	0.34144464
43	0x3f0c559f	0.5481815
44	0x3cd027cc	0.025409602
45	0x3aace9dc	0.0013192254
46	0x3e9fdfcf	0.3122544
47	0xbf4d2b1a	-0.8014389
48	0xba001677	-0.000488616
49	0x3bdefcb9	0.006805029
50	0x3bc45082	0.0059910426
51	0x3eb8bcbf	0.36081502
52	0x3ca308de	0.01990169
53	0xbcd70f80	-0.026252508
54	0xbc8da824	-0.01729209
55	0x3b93d631	0.0045116176
56	0x3ea68da9	0.32529953
57	0x3ea17fd9	0.31542853
58	0x3ef034e1	0.46915343
59	0x3ecdd7f8	0.40203834
60	0x3ea8627e	0.32887644
61	0xbb26c5f0	-0.002544757
62	0xbcef5076	-0.029213171
63	0x3ecdba3f	0.40181157
64	0x3eb45c67	0.35226747
65	0xbafee4d5	-0.0019446859
66	0x3c9cfa11	0.01916221
67	0x3bbd8e04	0.005784752
68	0x3f16acdf	0.5885753
69	0x3ea1cd49	0.31601933
70	0xbb1b5281	-0.00237003
71	0x3ec8f4e8	0.3924935
72	0x3cbe3dcd	0.023222828
73	0x3ebafe48	0.36522126
74	0x3eba7e15	0.36424318
75	0x3e9f6e68	0.3113892
76	0x3eac7a53	0.33687076
77	0x3c96899c	0.018376164
78	0x3ed816b4	0.4220482
79	0x3eb08b36	0.3448121
80	0x3eba935b	0.36440548
81	0x3ea3d7c7	0.32000563
82	0x3e71b23c	0.23603147
83	0x3ec0cf03	0.37657937
84	0x3ed1500e	0.4088139
85	0xbc8032c9	-0.015649216
86	0xbb3953f9	-0.0028278811
87	0xbc986dfd	-0.018607134
88	0x3eb22d10	0.34800005
89	0xbcdd5ea7	-0.027022673
90	0xbb27a492	-0.002558027
91	0x3eadf554	0.33976233
92	0x3eac835a	0.33693963
93	0x3ea9ed2d	0.33188763
94	0x3f6a682b	0.915652
95	0x3ef49065	0.47766414
96	0xbe12c7cd	-0.1433403
97	0x3f4c3b97	0.79778427
98	0x3eb5a94c	0.35480726
99	0x3ec66350	0.38747644
100	0x3ec8c254	0.3921076
101	0x3baec8b8	0.005333986
102	0xbcd8d67b	-0.02646946
103	0x3ec00677	0.37504932
104	0x3ec5d1b1	0.38636544
105	0xbcab425d	-0.020905668
106	0x3eb05d32	0.34446102
107	0xbb82c30b	-0.003990536
108	0x3eae1661	0.3400145
109	0x3ee85a64	0.45381463
110	0xbcbdbce5	-0.023161361
111	0xbcb3d1cc	-0.021950625
112	0x3ee1c05f	0.4409208
113	0x3fc5d98e	1.5457017
114	0xbcde9b10	-0.027173549
115	0x3ef8a8f3	0.48566398
116	0x3ea52580	0.32255173
117	0x3ea7830f	0.32717177
118	0x3f803ed6	1.0019176
119	0xbccb8448	-0.02484335
120	0x3eb8b1b4	0.36073077
121	0xbe0adee9	-0.13561596
122	0x3fe8bb93	1.8182243
123	0xbf7a853d	-0.97859555
124	0x3f0d8101	0.5527497
125	0xbc91fd88	-0.017821088
126	0x3ea6a622	0.32548624
127	0x3ea331db	0.31873974
