reinforce/codes_for_book/c07/Models/200_actor.pt (torch_old, 175478 bytes, 8 tensors)

fc1.weight f4 [256, 8]
00000000: 0c2f 0d3e 32b4 a7be c5b3 633e f72b 87be
00000010: 6904 27bd dc25 17be 4669 e5bd 53b9 57be
00000020: bfe3 123f 6af7 c6be 2bbb cf3f deec 0dbf
00000030: 26f1 043f 586b 11bf 4579 7cbf 5079 a43e
00000040: c45d c73e 3cfa a9bd 5b59 2040 c02d fa3d
00000050: 3faf 4b3d b224 833d 1ed2 86bf cb15 8cbe
00000060: 4892 f73c 38c9 0ebd 7654 013d 701c 003d
00000070: 3869 cf3c d0fc b7bc 0cfc ae3c f096 a2bc
00000080: e9d6 9cbc b20a 7cbd 4859 233c 248f 4b3d
00000090: 91d9 debb b83b 393d e043 82bb 2c55 9b3c
000000a0: bb4b 753e 999b 13be 653e 0f3f e086 f1be
000000b0: 813a 56be f893 e7bd 6bc0 4ebe bf20 aebe
000000c0: bcd0 bebc 2006 e1bb 02ab 313d f8d3 8fbc
000000d0: 6e7f 1b3d 54be cf3b 68e7 193d 6ad9 56bd
000000e0: 3cd9 9f3d 51f8 96bd fe88 35c0 5920 82bd
000000f0: 0657 84be d29c 32bd dfdf 563f 6f1d fbbd
00000100: 7a3a 41bd 8048 79bb 988d 3bbd 40d4 013b
00000110: 7e73 233d 0201 4e3d c6ee 723d 6535 6d3c
00000120: b401 1c3d 0034 6739 e4a2 a53c d7cc 10bd
00000130: b29b 3b3d a4e5 183d 1827 48bd b282 73bd
00000140: 7b14 323c 8af8 603c b20e 153d 45df 9839
00000150: 5b7d 61bc cc7b 97bd aabc 14bd fdce abbd
00000160: 6e29 503e 2fa4 60bf 5a61 7040 086d 89bf
00000170: 4e2d f7bd a513 58bd 5a32 12bf 3fcf bd3e
00000180: e035 3d3f a22b 0a3e 31ba 4e40 39f1 48bf
00000190: 8062 033e 2a18 f23d f375 793e 1e3c 03bf
000001a0: 1eb8 6e3e 62d5 e0be 2505 773f 84c1 46bf
000001b0: b3c5 44be fa0f e1bc c42b 6cbe 4fc6 dcbd
000001c0: 169e 483e 57d3 b6be bc56 ec3e 92e9 4dbe
000001d0: 2b00 8dbe c872 2ebe 1b6d 82be ca28 57be
000001e0: 3cd2 a43c 4459 f63c 5142 563d 903f 23bd
000001f0: 46a9 6ebd 5a3c 20bd 1201 6a3d 30d0 563c
00000200: b7ce adbc a5e0 0ebf 47e4 10bf ab19 7ebe
00000210: 2704 f03d 43b9 3bbe 43e0 1fbe 1bea 82bf
00000220: b8e6 f03d ba55 1ebe a5d1 6d3e d1cb fbbd
00000230: a8bd 9bbd 407b 1bbb 6732 11be 6330 75be
00000240: b8ce 78bd f813 40bd 701a 9a3b 8ab3 203d
00000250: 2a2f 133d 0099 3bbc 6836 debc d6d4 e4bb
00000260: a09f 4b3e 81e4 b9be 0f13 673f 96ed 3ebf
00000270: efa8 f9bd c418 a1be 5b6c 6bbe 7a9d b0be
00000280: 0a30 5fbd a88c c83c b0ab 8cbc f047 3a3c
00000290: bc61 633d 40b6 b7bb c114 30bd d369 e13c
000002a0: 15af a53e 10ec 00be db90 2c3f 5c77 cdbd
000002b0: a97b 5c3e 2c87 1c3e 1741 a4be 8b5a aa3c
000002c0: f11d 26bd c82e 73bc 71f7 683d c02b 6bbb
000002d0: 40e2 f7bc 30e4 413c bf31 24bd 881d 10bc
000002e0: dac1 3d3d 3cfb 793d 687e 7f3d 3c27 6b3d
000002f0: 9049 273c 98a0 e7bc 681b 3dbc e878 50bd
00000300: 40b3 863e 15bd ec3c a53f efbe 52e1 a8bf
00000310: 0c33 31be f49c 83be c428 83bf fe0a 0fbf
00000320: 923d 153e 0f94 11be 5528 853e d557 e4bd
00000330: aaa2 7cbc 531a 6bbc 398f 26be 27a1 87be
00000340: 6fc7 323d 0765 1cbf 8235 8b3f ae9a 9a3e
00000350: b438 76bd 3897 f7be d70a b8bf a34b 85be
00000360: 6c27 82bc 3450 7fbd a879 6fbc 54d8 b0bc
00000370: ecfc d53c 3cb7 643d 803f 34bc f439 033d
00000380: 55df 34bd e0bd 3f3b 3841 bd3c 2f49 243d
00000390: 2435 0b3d 789f 883c b0bb b8bc 4e57 6ebd
000003a0: 0b44 d4be e30e 523e c284 07c0 6b5d b13f
000003b0: 6f5b 6f3e 1d60 3ebe c6d3 1dbf df3e edbe
000003c0: a907 3a3d c6ec 3ebd 805b 00bc 38f3 693c
000003d0: 2c23 6bbd a898 3e3c 4886 36bc 1486 db3c
000003e0: 0b69 3c3e 8aeb 94be bb6b 8c3e bfd0 90be
000003f0: a481 50bd 4cfa c5bd 8b0e 4fbd 6efe 6ebe
0.13787478 -0.32754666 0.22236545 -0.2640073 -0.04077569 -0.14760536 -0.1120172 -0.2106679
0.5737876 -0.38860637 1.6228994 -0.55439556 0.51930463 -0.5680442 -0.9862254 0.32123804
0.38938725 -0.082996815 2.5054538 0.12215757 0.049727675 0.064034835 -1.0532873 -0.27360377
0.03022112 -0.034859866 0.03157469 0.03127712 0.025318727 -0.022459418 0.02136042 -0.019847363
-0.019145446 -0.061533637 0.009970017 0.049697056 -0.0068008383 0.045222968 -0.0039753765 0.018961512
0.2395467 -0.14414825 0.5595458 -0.47173214 -0.20920755 -0.1130752 -0.20190589 -0.34009358
-0.023292892 -0.0068671852 0.043375976 -0.01755713 0.037963323 0.0063398276 0.0375742 -0.052453436
0.07805106 -0.07371581 -2.8364863 -0.06353826 -0.25847644 -0.043606587 0.8393535 -0.122614734
-0.04717491 -0.0038037598 -0.04578933 0.0019810349 0.039905064 0.05029393 0.059309743 0.014478062
0.03808756 0.00022049248 0.020219274 -0.0353516 0.04580278 0.037328377 -0.048865408 -0.059450813
0.010869141 0.013731131 0.036390968 0.00029158048 -0.013762797 -0.07396659 -0.036312737 -0.08389089
0.20328304 -0.87750524 3.7559419 -1.0736399 -0.12069188 -0.05275311 -0.5710808 0.3707218
0.7391033 0.13493207 3.2301142 -0.78493077 0.12830544 0.11821015 0.243614 -0.51263607
0.23312423 -0.43912798 0.96492225 -0.7763903 -0.19216041 -0.027473439 -0.2306357 -0.10780012
0.19591555 -0.35708115 0.46159923 -0.20108631 -0.2753919 -0.17035973 -0.25473866 -0.21011654
0.020119779 0.030071862 0.052309338 -0.03985554 -0.0582669 -0.039120056 0.057129927 0.013111159
-0.021216733 -0.5581153 -0.56598324 -0.24814479 0.11719542 -0.1833239 -0.15612893 -1.0227693
0.11762756 -0.1546239 0.23224504 -0.12294734 -0.076045334 -0.0023724586 -0.14179383 -0.2394424
-0.060744017 -0.046894044 0.0047028586 0.03923372 0.03593365 -0.011450052 -0.027125552 -0.00698338
0.19885111 -0.36307147 0.90263456 -0.7458128 -0.12190425 -0.31464207 -0.22990553 -0.34495145
-0.054489173 0.024481133 -0.01717171 0.01136969 0.05551313 -0.0056064427 -0.042988542 0.027516281
0.3236014 -0.1259005 0.6740853 -0.100325316 0.21531548 0.15285939 -0.3208091 0.020795127
-0.040555898 -0.0148426965 0.056876604 -0.0035884231 -0.030259252 0.011834189 -0.040086504 -0.008796103
0.04632745 0.06103061 0.06237641 0.057410464 0.01021041 -0.02827482 -0.011542179 -0.050896555
0.26308632 0.028898755 -0.46728244 -1.3193762 -0.17304629 -0.25705683 -1.0246816 -0.5587615
0.14574268 -0.14216636 0.26007333 -0.11149565 -0.0154196415 -0.014349538 -0.16265573 -0.26490137
0.043647226 -0.61091655 1.0875704 0.30196136 -0.06011267 -0.48357558 -1.4378308 -0.2603427
-0.015887938 -0.062332347 -0.014616407 -0.021587528 0.02612158 0.05583881 -0.011001468 0.03203769
-0.0441583 0.0029257461 0.023102388 0.040108856 0.033986226 0.016677603 -0.022550434 -0.05818873
-0.41458163 0.20513491 -2.117478 1.3856634 0.23374723 -0.18591352 -0.61651266 -0.4633703
0.04541746 -0.046612523 -0.007834315 0.014279179 -0.05740659 0.011633076 -0.011140414 0.026797332
0.18399446 -0.29085952 0.27425942 -0.2828426 -0.050904885 -0.09666881 -0.05055098 -0.23339245

fc1.bias f4 [256]
00000000: 47c8 a3bd 1bc0 453e 3b72 32be 32b4 d8bd
00000010: d03c 76be 6f97 dcbd baec 8bbe c62c 023d
00000020: f03e 9abe 11c4 48be c568 bebb 51c2 81bd
00000030: 16cd 253e d3bf fdbd 5407 a0bd b4d2 e6bd
00000040: 266f 2c3d d568 5abd d9cd 65be 36ce 86bd
00000050: 8562 20be 3eb1 2abe d41b cdbd bf83 30be
00000060: 6255 593e f5c7 d0bd c243 043f ee05 a4be
00000070: 8486 abbd 3a59 533f 5023 19be c036 1cbe
00000080: 1e66 68be 5b16 4fbe 3347 16be a4cd 85bd
00000090: a802 42be c88e 9bbe a9de 00be 3df6 563e
000000a0: 8ec2 22be b08e 71be d3b3 963d 51f4 93be
000000b0: 932f c4be 8853 2ebe 3898 0ebd 9e5e 803e
000000c0: f51d 6dbd def3 b53e e284 6dbe 976f a1be
000000d0: 78e3 ddbd 0085 54bc 3fb0 803e ca4c 85be
000000e0: 6d5e 34bd 464d 78bd 89c3 b53e 2870 fa3b
000000f0: ec12 70be 6c20 a4be 5480 f6bd 17d0 a3be
00000100: 9378 853e 000f d0bd d1f8 5ebe ad29 ed3c
00000110: 4557 21be f24e aabe 52b6 a43e 6667 c8bd
00000120: 91bb 1cbe 5b03 eb3d 095f ccbd 6f25 533d
00000130: ec03 c73c b827 aebd 94ec 6f3e 34e0 83be
00000140: edd4 0ebe 3eb0 d2bd aca6 6d3e 0fa5 87be
00000150: 79db 89bd 084e 18be 73d8 1f3d c37a 3bbd
00000160: d7f5 49be f5d2 c7bb 69cd e23e 085c 9abe
00000170: 5316 38be 4bcf 1dba 1201 6abe e618 a1be
00000180: e1fd a63c f3ac eabd 78fd e1bd aada 56bd
00000190: de69 36bd 6992 1dbe 8aad 56be e071 9dbe
000001a0: 60b6 ddbc 085a d43c 33a8 3ebe 522b 61bd
000001b0: 9045 ffbc d843 923d 91ca 9abe 73d3 61bd
000001c0: cf02 08be fa22 98be 6283 e4bd 8dde 13be
000001d0: c8ed ccbd 2c74 1cbe 0a59 4dbd 3e3c 0abe
000001e0: d0b7 afbe e4a6 4fbe fabf c3bd ac2d 97be
000001f0: 6436 aebe 05d1 8ebe efc0 083f 1610 9fbe
00000200: f60d 6ebe 7041 46be 84fc 8cbd 6c1b 63be
00000210: a7e3 83be 0d1a 9b3f d89e 07be 9800 223f
00000220: 0d97 edbd 01b0 e83e 2790 113d c905 9dbd
00000230: 9165 80bd 8a7b 60be 0993 39be 780a f1bd
00000240: 6571 023f 161d 9abe 5a5f 7cbe 4489 33be
00000250: 7782 ca3a 34fe c5bd 3f2d 85be 17f9 dcbd
00000260: 4578 66be 5c8d 50be 1016 043f 5bcd febb
00000270: 4eb2 9ebe 16d6 f13e 7af3 b4be 8463 833e
00000280: 38e0 cabd 24ba 8abe f7d1 40bd 40da 05be
00000290: efb1 b2be 58fc 10bd a876 b43e f037 1cbe
000002a0: ac78 bcbd cf93 adbe 3b60 14be c5eb bdb9
000002b0: 4cd1 63be 2d05 05be 8084 a4bd 3239 acbe
000002c0: 5a3f 1ebe 4166 7bbe dcd8 9dbe 924a 613d
000002d0: 7aa4 1abe cd5f c63c 5e80 e13d ae5b 5fbe
000002e0: bb55 41be 4724 b3be f0da a4be e566 a1bc
000002f0: 6535 edbd 7600 033e 2cec cdbd 94c1 62be
00000300: 6568 82be 97fd adbe a825 7c3c fdde ad3c
00000310: 357d 5ebe 8966 1a3c 7578 5a3d d01a be3e
00000320: 9165 803c 93a6 98bd a84b a9bd f407 ff3c
00000330: 5c17 2ebe 3ce9 94be ab89 b2bd 37bd 903d
00000340: 5b32 3cbd 5c19 033e 2065 8cbe 23ae 0cbe
00000350: 5915 80be 4ebb e5b9 872a 22be e26f 8ebd
00000360: c7e3 193e 21be 0abe 96bc 2dbe 89e8 71be
00000370: 08d6 98be 98e9 773d 0c88 0c3e 253e da3d
00000380: 2baf 2cbe 08aa f1bd 8cf5 2b3e 0594 913e
00000390: 8f9a 37be dc48 7ebe b64c a3be 5d31 b5bd
000003a0: eb0f 453c cf01 aebe 0ab7 023f 22b7 8ebe
000003b0: f63a 91be 0e0c 9abe b5f8 edbd 2222 32be
000003c0: 484c 71be e11e b4bd fcf2 6cbe 800c cabc
000003d0: 903e 1cbe 8238 88be f72b 07bc 0268 27be
000003e0: 3c29 4cbe c202 7bbe 8609 903d eab0 9fbd
000003f0: 2b56 a9bd fe67 19be 4df3 48be b273 f43e
-0.07997184 0.19311564 -0.17426388 -0.105812445 -0.24046636 -0.10771071 -0.27329046 0.03178098
-0.30126143 -0.19606043 -0.0058108293 -0.06335891 0.16191515 -0.12390103 -0.07813898 -0.11270657
0.042098187 -0.053322632 -0.22441806 -0.065823 -0.15662582 -0.16669175 -0.100150734 -0.17237757
0.21223977 -0.10194389 0.5166589 -0.32035774 -0.08375266 0.82558024 -0.14954877 -0.1525526
-0.22695205 -0.20223372 -0.14675598 -0.065333635 -0.18946326 -0.3038237 -0.12584938 0.2099237
-0.15894529 -0.23589587 0.073585175 -0.28897336 -0.38317546 -0.17024052 -0.034813136 0.25072187
-0.057889897 0.35537618 -0.23195222 -0.3153045 -0.10834402 -0.012971163 0.25134465 -0.26035148
-0.044035364 -0.06062057 0.35500744 0.0076427646 -0.23444718 -0.32055986 -0.120361954 -0.31994697
0.26068553 -0.10159111 -0.21774603 0.028950537 -0.15755947 -0.33263355 0.3217035 -0.09785347
-0.15305926 0.114752494 -0.09979064 0.05154937 0.024293862 -0.085036695 0.23430091 -0.2575699
-0.13948412 -0.10287522 0.23208112 -0.26493117 -0.06731314 -0.14873517 0.03902478 -0.04577137
-0.19722687 -0.006098146 0.4429734 -0.3014834 -0.17977266 -0.0006019964 -0.22851971 -0.31464309
0.02038473 -0.11458769 -0.110346735 -0.052454628 -0.044534557 -0.15387882 -0.20964637 -0.30750942
-0.027064502 0.025921836 -0.1861885 -0.054972954 -0.0311611 0.071418464 -0.3023267 -0.055133294
-0.13282321 -0.29714185 -0.11157872 -0.14440365 -0.10006291 -0.15278691 -0.050133742 -0.13499543
-0.34319925 -0.20278507 -0.09558101 -0.29527032 -0.34025872 -0.27893844 0.53419393 -0.3106696
-0.23247513 -0.193609 -0.06884101 -0.2217843 -0.25759622 1.2117325 -0.13244188 0.63282156
-0.11601076 0.4544678 0.035537865 -0.07667119 -0.06269372 -0.21922126 -0.18122496 -0.11769575
0.50954276 -0.30100316 -0.24645749 -0.17532831 0.0015450259 -0.09667626 -0.26011083 -0.107896976
-0.22506817 -0.20366424 0.51596165 -0.007775945 -0.3099541 0.47233647 -0.35342008 0.25661862
-0.099060476 -0.2709514 -0.047075238 -0.13071537 -0.34901378 -0.035396904 0.35246778 -0.15255713
-0.09202704 -0.33901832 -0.14489834 -0.0003622455 -0.22247809 -0.12990256 -0.08033085 -0.33637387
-0.15453854 -0.24550726 -0.30829513 0.055002756 -0.15101805 0.024215603 0.11010812 -0.21812317
-0.1888036 -0.34988615 -0.32198286 -0.019702384 -0.1158245 0.12793145 -0.10054812 -0.22144157
-0.25470272 -0.33982536 0.015389837 0.021224493 -0.2172745 0.00942386 0.053337533 0.3712983
0.01567343 -0.074536465 -0.082663834 0.031131722 -0.17001098 -0.29084194 -0.08717664 0.0706734
-0.04594646 0.12802643 -0.27420902 -0.13738303 -0.25016287 -0.00043817837 -0.15836535 -0.06954934
0.15028296 -0.13549091 -0.16966471 -0.23623861 -0.29850793 0.060525507 0.13723773 0.106563844
-0.16863696 -0.11800009 0.16792887 0.28433242 -0.17930053 -0.24832481 -0.31894463 -0.08847306
0.012027721 -0.33985755 0.51060545 -0.27874094 -0.28365296 -0.30087322 -0.11619703 -0.17395833
-0.23564255 -0.08794952 -0.23139566 -0.024664164 -0.1525824 -0.26605612 -0.008250228 -0.1634827
-0.19937605 -0.24512771 0.070330665 -0.077974156 -0.08268388 -0.14981076 -0.19624062 0.4774452

fc2.weight f4 [128, 256]
00000000: 8616 5c3e 0f89 9abd 53b3 583a 413e 21bd
00000010: 338c 99bd 1255 b13d 68e0 14bc b95b 1dbe
00000020: 428b 52bd d297 3b3d e405 8ebd 3175 803d
00000030: 4bc6 153e b890 d43c c68b 783e c209 403d
00000040: 4de3 50bd 2e44 2c3e 042f ffbc 383f 893c
00000050: 67ea 903d 2a17 023e 2011 c3bb 78c4 4bbc
00000060: 9ffb e63d 3409 bd3d 6522 22bc c8ab 3d3c
00000070: a076 aabc 251f 8fbd 690a a6bd 8288 1e3e
00000080: a5af 1dbd 1b08 c53c 9cb2 4f3e 2fa3 893d
00000090: 121d 573e 4a37 383d 3045 7abe a0e8 1b3b
000000a0: 34b4 28bd a0bb 383e b34d bcbb fcf8 123d
000000b0: ca8d 143e 870e 883e a154 26be 6b6a 323c
000000c0: b8d5 fa3d 3ab0 0b3e 00ba d8ba 1868 98bc
000000d0: 8e8a c8bc 11e9 263e 84b6 4fbd 94b0 ecbb
000000e0: 846b aa3d 1e55 063e dda9 643d 51fd afbd
000000f0: aa84 ba3d 4032 803b 2b78 953d f5a7 9f3d
00000100: f58f 76bd 409f a7bd 1f8f 833d c3ae eb3d
00000110: 44e7 6c3e 141e 9ebd 6e74 223d 6efe 1b3d
00000120: c436 633e b724 4abc 1072 253e fddf 213d
00000130: baff 013e 2a1c 083d 9c78 a0bd 90f0 113d
00000140: eaa3 3abc ebfe 4e3e 2787 ef3d 26ec 2c3d
00000150: 8207 743e 0253 533d d14c 263e 8fd8 103d
00000160: 7baf 743e a022 4b3d 430f d83c 56c8 113d
00000170: 1797 b03d a3fd 82be d27e 013d fa13 683d
00000180: 966a 3fbd 2c95 503e d706 c0bc 3e12 553d
00000190: 58e6 acbd 071b 2d3e f533 5b3e e46f cb3c
000001a0: 58cd 37bd b8e6 f03d e953 9d3d a724 aebc
000001b0: a602 233d 2cc2 33bc 9047 e0bb 0aaf 69bd
000001c0: f484 7f3e 940a b3bd 21ad 9b3d c000 0dbc
000001d0: 4dba 9d3d e205 703d c982 1d3e 2221 90bd
000001e0: 6705 ae3c e92c 393e e81e 52bd f1c7 893d
000001f0: f730 aabd 2c95 d03d 4989 43bd 1cc5 54bd
00000200: fe7d 6bbd e948 26bd 6fc2 7abd 0362 61bc
00000210: 3062 4fbc 9149 933d 121d d7bd 6a1c ea3d
00000220: fb41 3c3d e1f0 26bd 388a 2e3e 8970 e93d
00000230: 6056 293b a815 673c 2271 713d 30bc 18bd
00000240: ac49 04bc 28a8 d4bd fc0b a23c 3c4b dd3c
00000250: f283 b1bd 9431 173d 7f91 f9bb d2df 143e
00000260: 200b 0abc 9e88 0fbe eba8 b2bd a8d5 aebd
00000270: 155e 873d 5db4 34be 5855 2fbc f334 62bd
00000280: 372f 9abd c95d 32bd 7d40 0e3e 0e3b 52bc
00000290: ccb9 38bd 5858 2d3c e079 25be 9d8a e4bc
000002a0: 2f56 f03d 5ecc 77bd 10c9 c93b 1dad f73d
000002b0: 4009 12bd 6976 303e a716 993d 649d 0c3d
000002c0: bbca b13d 8227 0b3e 74d9 82bd 5484 a03d
000002d0: bc9a d5bc 5c1b 47be 2dda 76bd baae 71bd
000002e0: 68ba 08bd 861a 86bc c669 a6bd d3e4 8c3c
000002f0: c717 9a3d de5e 3fbe be56 063d 77a1 a83d
00000300: 782e 44bc f00c d2bb 71bd b9bc 5e47 23be
00000310: 1292 163d 8985 09bf e3d3 323d b199 68be
00000320: 904f 123e 2514 183d a82b 7bbe b11a 933c
00000330: f520 a6bd b69c 523d 212e e93d b30c 003e
00000340: 7d9d 773d e0c4 4a3e 724e 93bd ed1a 4cbd
00000350: 16bb 8bbd 6468 4fbb 1f2d 9b3d 0f89 9abc
00000360: 3a13 74be 213d 8abc 821e 43bd e405 0e3d
00000370: b0d6 e9bc 91d9 5ebd cc8c 0dbe 6d08 18be
00000380: 53d2 a83d 767b 6a3d 0d5d bebd eb2b 323d
00000390: a071 e63b 007b 3aba e966 68bd 38e3 0ebc
000003a0: 04cc 963d 3470 4f3c 7627 b6bc 1703 813d
000003b0: 10be c3bb b586 643e 2adf a73d bcae 003d
000003c0: 62bd 9d3c 4e46 8abd a049 2f3e 6f75 703d
000003d0: 1d07 3e3e 84da 88bd 1bb2 283d 8043 583a
000003e0: 51eb a73d e00b 64bc e8ed 913d eedb dbbd
000003f0: 6135 263e 30c0 253e 6e63 663d ac94 a93c
0.21492967 -0.07545673 0.00082664675 -0.03936601 -0.07497444 0.08658804 -0.009086706 -0.1536702
-0.051402338 0.045799084 -0.06934717 0.062723525 0.14626424 0.025947914 0.2427207 0.046884306
-0.05099802 0.16822883 -0.031150348 0.016753778 0.07075959 0.12704149 -0.005952969 -0.0124369785
0.11278462 0.09230271 -0.009895896 0.0115766 -0.020808518 -0.06988362 -0.08107454 0.15481761
-0.038497586 0.024051717 0.20282978 0.06720578 0.21007183 0.044974603 -0.24440455 0.0023789778
-0.04118748 0.18040323 -0.005746567 0.03588198 0.14507213 0.26573583 -0.16243221 0.01088963
0.12247795 0.13641444 -0.0016534925 -0.018604323 -0.02448013 0.16299845 -0.05071117 -0.007223198
0.08321288 0.13118407 0.055826057 -0.08593238 0.09107335 0.0039122403 0.07298311 0.07795707
-0.060195882 -0.081846714 0.064237826 0.115079425 0.23135096 -0.07720581 0.039661817 0.03808444
0.2218886 -0.012337855 0.16156793 0.039520252 0.12695208 0.033229984 -0.078355044 0.03562981
-0.011391619 0.20214431 0.116957 0.042217396 0.23830989 0.051592834 0.1624024 0.035362776
0.23895065 0.049593568 0.026374465 0.035591446 0.08622568 -0.25584134 0.031615086 0.056659676
-0.046732508 0.20369405 -0.023440761 0.05201935 -0.08442372 0.16904841 0.21406539 0.024833627
-0.044873565 0.11762756 0.0768202 -0.021257712 0.039797448 -0.010971587 -0.0068444684 -0.057051696
0.24953061 -0.08742252 0.07601381 -0.008606136 0.0770155 0.05859936 0.15381922 -0.070375696
0.02124281 0.18083538 -0.051299006 0.06727589 -0.083101206 0.10184702 -0.047738347 -0.05194579
-0.057493202 -0.040596876 -0.061220583 -0.013756278 -0.012657687 0.07191766 -0.105035916 0.11431201
0.04596136 -0.040757064 0.17044914 0.113984175 0.0025838837 0.014104284 0.058945782 -0.037288845
-0.008074205 -0.10383636 0.019781105 0.027013414 -0.08667745 0.036912516 -0.0076162214 0.14538506
-0.008425504 -0.14016959 -0.08723625 -0.085368454 0.066097416 -0.17646928 -0.0107015 -0.055226278
-0.07528537 -0.04354647 0.13891788 -0.012831463 -0.045099065 0.010580145 -0.16159773 -0.027898127
0.11735188 -0.060497634 0.0061580017 0.120935656 -0.035653353 0.1723267 0.07475024 0.034329787
0.08681246 0.1358929 -0.06389132 0.078377396 -0.02607476 -0.1944403 -0.060266662 -0.059004523
-0.033380896 -0.01637007 -0.081256434 0.017198956 0.075240664 -0.18688533 0.032797568 0.08233922
-0.01197397 -0.0064102337 -0.02267334 -0.15945193 0.036760397 -0.53719383 0.043659102 -0.22714879
0.14288163 0.037128586 -0.24528372 0.017957063 -0.08111755 0.051418982 0.113857515 0.12504844
0.060452927 0.19801664 -0.07192697 -0.049830366 -0.06822793 -0.0031647915 0.075769655 -0.018864183
-0.2383546 -0.016874852 -0.047636516 0.034673586 -0.028544754 -0.054406706 -0.13823241 -0.14846964
0.08243241 0.057246648 -0.09295092 0.043498915 0.007032588 -0.00071136653 -0.056738768 -0.008721165
0.07363132 0.012661029 -0.022235613 0.062994175 -0.005973585 0.22317012 0.08196862 0.03141664
0.019255344 -0.06751691 0.1711793 0.058705743 0.18557401 -0.066823035 0.04118548 0.00082498044
0.0819918 -0.013918847 0.07125455 -0.10735308 0.162313 0.16186595 0.056247167 0.020700775

fc2.bias f4 [128]
00000000: 735b 1fbe 1f89 b6bd a06b 1bbd cb49 bcbd
00000010: 4390 82bd 9c56 36bd e534 aebb e016 67bd
00000020: 4dab 76bd 84fb 75bd 9c2b b6bc 3635 99bd
00000030: f079 c1bd ff98 9dbd bea9 2cbe cc0b e3bd
00000040: 0267 39bf beb5 10be 5c7c e93e f0d9 433e
00000050: aa1d 28bc b35e b2bc 8d7f d1ba f896 25bd
00000060: cb92 8c3b 9f70 403e 3b9f 153d 92af 9ebd
00000070: 9570 3ebb f120 e1bd 12d0 573e 2567 0d3e
00000080: bbbc 2bbd 01b7 afbd b5f8 edbd 0f24 ddbd
00000090: bc93 2dbe a09f 4bbd 8920 4cbd 2ab2 44bd
000000a0: 200c c7bd 40c7 15bd fc91 253d 8747 c9bd
000000b0: 7bf9 32bd feea 98bc b4b1 69bd 93e4 0e3e
000000c0: 4745 a4bd ff0d 82bd ff45 2dbd 60cb 70be
000000d0: 70f4 27be 609c b8bd 8775 9abd 4ccb 8dbd
000000e0: 34ca 0fbd 06da 933e acfb 2a3c 3818 a5bd
000000f0: 294f b5be 8826 4bbd d408 9cbc 1195 df3c
00000100: 6efe ee3c e6fc 3cbe 3089 24bd c3af 9dbd
00000110: ee52 99be efac 23be d04a 0dbe 83cd c4bd
00000120: 1892 723e 5528 85bd beec d5bd 3ab2 60bd
00000130: c783 24bd afe8 9d3c 3f99 ddbc 9f7c 913c
00000140: 6d13 8fbd add5 713d 1544 84bf 65df 50be
00000150: 4e76 3fbd 0040 2ebd 71fb 12be 3d1d 64bd
00000160: e310 d53c cc40 c6bd 3c8a f5bc ba98 a13c
00000170: 2975 f2bc 60da 91bd 0198 5cbd 3425 2abe
00000180: 50c8 bebe f232 32bc 3304 003e 82d3 43bd
00000190: 28d5 7bbd 43fe 61bd ca89 6abd 965c 03be
000001a0: 98b7 afbc 6124 b0bd 2591 98bc 1f2d 9bbd
000001b0: 7934 14bf 5e69 8fbd ea5b c3bd a006 debd
000001c0: fb77 e9ba 5da3 bebd 721d 3ebe 2137 b3bd
000001d0: d052 a5bd 06ff bfbc 30b5 aebd 946b 46bd
000001e0: 4045 be3e dd43 f63e 0069 e7ba f544 d1bd
000001f0: 00e4 92bd cff9 653c 718f 913d 14d4 10be
-0.15562229 -0.089128725 -0.037944436 -0.091937624 -0.06375172 -0.04451619 -0.005316364 -0.0564183
-0.06022196 -0.060054317 -0.022237591 -0.07480852 -0.09447086 -0.07695197 -0.16861627 -0.110862345
-0.724228 -0.14131829 0.4560269 0.19126105 -0.010260979 -0.021773672 -0.0015983448 -0.04042718
0.00428996 0.18792962 0.036528807 -0.07748331 -0.0029058803 -0.10992611 0.21075466 0.13808878
-0.041928034 -0.08579827 -0.11619703 -0.10797893 -0.16950887 -0.049712777 -0.049835715 -0.048021473
-0.097191095 -0.036566973 0.040422425 -0.09828096 -0.043694954 -0.01866674 -0.057054237 0.13954382
-0.08021026 -0.06350326 -0.04230308 -0.23515081 -0.1640184 -0.09014201 -0.07541948 -0.069235414
-0.035104945 0.28877276 0.01043598 -0.0806126 -0.35411957 -0.049597293 -0.019047178 0.02729276
0.029174056 -0.18455848 -0.040169895 -0.076995395 -0.29946083 -0.15983938 -0.1379807 -0.09609511
0.23688543 -0.06501833 -0.104455456 -0.05485747 -0.040164735 0.019275991 -0.027050612 0.01775962
-0.06986127 0.059041668 -1.0333277 -0.20397718 -0.046743684 -0.042541504 -0.1435373 -0.055691946
0.026009029 -0.09680328 -0.029973142 0.019726146 -0.029596882 -0.0712173 -0.0538559 -0.16615754
-0.372622 -0.010876404 0.12501602 -0.04780913 -0.06148258 -0.055174123 -0.057260312 -0.12828287
-0.021449849 -0.08600689 -0.018623898 -0.075769655 -0.57892567 -0.07002519 -0.095390156 -0.10841107
-0.0017812246 -0.09308503 -0.1856592 -0.087507494 -0.08072436 -0.023437034 -0.085306525 -0.04844244
0.3716221 0.4809865 -0.0017655194 -0.10218231 -0.07172394 0.01403661 0.071074374 -0.14143401

fc3.weight f4 [64, 128]
00000000: 98b2 88be 40d9 b9bd 0f4d 41bd 49e5 5e3d
00000010: 6140 9d3b 5d8a 1ebe 31e1 0d3f 8ed0 d53e
00000020: e180 f2bd 01d3 9cbc e1bb b83d 14dc 21be
00000030: c850 c2bc da3b 91bd cb06 ebbc 0a48 d73c
00000040: 91b2 18bf de5e bf3d eabc 07be db74 4c3e
00000050: a861 803d 1d5d da3d cb00 ecbc 7c5c 163d
00000060: aa39 953d a25b fc3e b20e 95bd d80b 19bd
00000070: ec68 043d ceb4 d83d be43 01bf 32fb 6d3e
00000080: e2a0 cfbc 9dc8 bd3d 00de 933d 5dec 0e3c
00000090: f38a 9d3e fe2f bfbe e013 cabd d0f8 e03d
000000a0: 034f 96bc 731f 643b 78bb 23be 2a0c a63d
000000b0: c8df 3b3d 7cb2 17be e61a f23d 71de 673f
000000c0: 6350 8cbd b640 66bd c597 763d cc7b 973e
000000d0: ae81 b1bd 04b0 29bd b490 8dbc 36c3 0f3d
000000e0: 7ff2 7bbd f0c3 3d3f fe49 70bf cf6b efbd
000000f0: 4755 f53d f5a9 8e3d 26bf 873d a858 debd
00000100: ce37 3fbd 6a22 31bf 493c 0b3f 16e7 983d
00000110: cc74 a5bf 0150 9dbd 24f3 073f faf7 9dbd
00000120: 0ae5 6f3f 4e04 b6bd 2bd2 ddbd ffb7 b63d
00000130: 68f4 37be dfd9 e23e e300 16be a31b c53c
00000140: 70bb babc 037c 20bf 4150 03bf fcce 33be
00000150: 7f1d 1b3d dcaa e43d 6f41 403b d4c4 75bd
00000160: 85af 41bf f59d 44bc e009 713d 581e 33bd
00000170: 6851 08bd 372f 9a3c 83b0 8a3e 476e 5dbd
00000180: cc4e 093f cb57 dcbd 583b 993f dcc0 59be
00000190: abe4 e6bd 20fe d73c bb17 453c a22e 113d
000001a0: f436 07be 7ce1 cf3c 0cae 623d f6f3 2c3d
000001b0: df52 5ebf f6fa f9bd 964a 06bf 4302 0c3d
000001c0: ff98 18bf 0449 973d 20a0 86bd 9f60 243d
000001d0: ad18 77bd 48cd 9bbd 20a0 f2bd 565c b5bd
000001e0: 1bbc 2b3f 0f19 7f3d 9735 88bd 390c a73d
000001f0: 88ab 283d 2863 2ebd 2030 4a3e 0f31 ce3e
00000200: 360f fbbd 80a2 5dbc 7f3f 07bd ff8a 53bd
00000210: aaba a33d ee69 d2bd b1b3 00bd fd9c 50bc
00000220: a5eb 853d 50be 88bd 539b 153d 82a4 0bbd
00000230: 60b6 d3bb 77d8 e6bd 50e7 c1bd 1588 5abd
00000240: 51c5 d5bd 9ce3 623d 5ba4 c5bd 8769 1c3d
00000250: 0418 b1bd 7a00 e2bd 25a4 e33d 353b 98bb
00000260: 13a5 cebd a4cc 75bd 19cf 9c3d fcc3 8f3d
00000270: 34f1 cabd aede fa3d d87d 41be 8f66 87bd
00000280: 2400 7fbc b4ca 7c3d b841 093d 7c51 84bd
00000290: cc72 f5bc fb57 2a3d d0cc 313d baa0 433d
000002a0: 68d7 903d 4e6c 983d a4ae 33be 41ff e8bc
000002b0: 0881 b8bd 8b91 ce3d 611e b13d 162c bfbd
000002c0: 9981 fbbd a0f3 543c 35ba 6dbd d722 adbd
000002d0: 282d d4bd 9e16 863c c823 c83c eb43 f53d
000002e0: 4258 c93d f162 4cbe c2ba 69be 18a8 38bc
000002f0: ac72 bdbc 22dd f33d 5ae0 f73d 524d cd3d
00000300: 27db b63d f9f2 25bc 541f e3bd 19ed debd
00000310: efd5 dcbc 0804 b83d d1a2 c2bd a8d4 93bc
00000320: cab6 4dbe 4a83 c43d 542e 84bd 5240 813c
00000330: c713 f0bd a9fc 423d 2903 69bd 00d6 0bbb
00000340: 91aa a63b f7cb 413d 25ba d1bd 1c7a 79bd
00000350: 693e d63c 7a66 b6bd f864 af3d f6dd be3d
00000360: e8a4 c1bc 8947 b0bd 6620 8fbd 4f36 91bd
00000370: 6a99 e73d 42ec 1d3a 144e 2b3d b47f 17be
00000380: 7bd6 d8bd 97d6 c9bd 4558 ef3c ca0c 6abd
00000390: 6075 d43c a2d8 f33d 110b 933d 69a3 13be
000003a0: 0ce6 bcbd 6037 7b3b 7f95 23bd 65a1 f73c
000003b0: 7fe5 40bc aeb6 dcbc 9b9c e1bd f620 90bd
000003c0: 3aac e13c 269b a0bd f399 1fbe 9019 b3bd
000003d0: dca8 963d 4347 b23d 06c7 e5bc de24 10bb
000003e0: de63 b73b 2139 e03c 0a3b 8b3c d487 5c3d
000003f0: b2b8 a73d 5817 c43c 0a0e 28bd d2d4 1dbe
-0.26698756 -0.0907464 -0.04719263 0.054417882 0.0047989343 -0.15482469 0.5542174 0.41760677
-0.11840988 -0.019143583 0.0902021 -0.1580661 -0.02372016 -0.07091494 -0.028689763 0.026279468
-0.5964747 0.09344266 -0.13255659 0.19966452 0.062686265 0.10662291 -0.028808972 0.036709294
0.07286389 0.4928866 -0.072781935 -0.03736481 0.032326624 0.10581361 -0.5049399 0.23240355
-0.02534527 0.092667796 0.072200775 0.008723346 0.30770072 -0.37341303 -0.09867072 0.10984957
-0.018348223 0.0034808784 -0.15989482 0.08107789 0.04586771 -0.1481418 0.11821537 0.90573794
-0.0685127 -0.056214057 0.060203332 0.29586637 -0.086673126 -0.041427627 -0.017280914 0.035098277
-0.06151056 0.741271 -0.93862903 -0.11690485 0.11979156 0.069660105 0.066282555 -0.108567536
-0.04668408 -0.69193137 0.5438886 0.07465951 -1.2926269 -0.07681275 0.5310538 -0.077133134
0.9370886 -0.0888754 -0.10831102 0.08921813 -0.17964327 0.44306847 -0.14648776 0.02406103
-0.022794455 -0.62689227 -0.5129433 -0.17559427 0.037869927 0.11165401 0.0029335876 -0.060002163
-0.75658447 -0.0120005505 0.05884731 -0.04373011 -0.03328076 0.018821342 0.27087793 -0.054060247
0.5363586 -0.10758933 1.1971235 -0.21264976 -0.11274084 0.026366293 0.012029584 0.035444863
-0.13204557 0.025376074 0.055341765 0.042224847 -0.868452 -0.1220607 -0.5245756 0.034181844
-0.59608454 0.073869735 -0.0657351 0.040131208 -0.060326267 -0.07607514 -0.11846948 -0.08855502
0.670839 0.062279757 -0.066508465 0.08156628 0.04117921 -0.04257503 0.1974492 0.40271804
-0.12258761 -0.013527513 -0.03301954 -0.05164623 0.07994588 -0.10274111 -0.031421367 -0.012732741
0.06539086 -0.06676924 0.03652508 -0.034092434 -0.00646095 -0.11271756 -0.094679475 -0.053352434
-0.10438026 0.055392846 -0.09650489 0.038186576 -0.08647159 -0.11035247 0.111152925 -0.00464573
-0.10090079 -0.060009614 0.07656688 0.07019803 -0.09909287 0.12249504 -0.18895662 -0.066113584
-0.015563998 0.06171675 0.03350994 -0.064608544 -0.029961966 0.04158781 0.043408215 0.047760703
0.070723355 0.074425325 -0.17547089 -0.028442027 -0.09008986 0.10086354 0.086483724 -0.093345806
-0.12280578 0.012997538 -0.05803891 -0.08453911 -0.10360175 0.016368207 0.024431124 0.11975845
0.09831287 -0.19959618 -0.22825149 -0.011270545 -0.023125969 0.11907412 0.121033385 0.10024513
0.08928519 -0.01012873 -0.1108996 -0.108850665 -0.02695748 0.08985144 -0.09503711 -0.018045738
-0.2008926 0.09595354 -0.06454149 0.01577774 -0.11722522 0.047604237 -0.05688778 -0.002133727
0.005086251 0.047313657 -0.102405824 -0.06090747 0.026152806 -0.089062646 0.0856418 0.093196794
-0.023638204 -0.08607394 -0.069886014 -0.07090437 0.11308558 0.000602428 0.041822508 -0.14794809
-0.10587784 -0.09855383 0.029216895 -0.057141103 0.025934875 0.11906554 0.07179845 -0.14417805
-0.092235655 0.0038332567 -0.039937492 0.030228326 -0.011773466 -0.026942577 -0.11016198 -0.07037537
0.027547944 -0.07842092 -0.1558607 -0.0874511 0.07356426 0.08704998 -0.028049003 -0.002199463
0.005596622 0.027370991 0.016995925 0.053840473 0.08189525 0.023936912 -0.041029014 -0.15413216

fc3.bias f4 [64]
00000000: e289 9e3e 00d9 9bbc c1ed cbbd 3608 133e
00000010: d93d 13be c109 b9bc db2d 6b3e 86b5 c83d
00000020: 7a63 81bd 2bae 973e ef60 ffbe f1bb 7e3a
00000030: dadd 4dbe 06ff 3fbd 8920 4cbd 6173 653e
00000040: 7387 58bd a628 22bb 3b61 bcbd 1b1a 06bc
00000050: f0d3 2abf 0a3b 0b3d 47a8 fbbe 6705 aebd
00000060: 4475 63bd e877 c3bd f42c 0ebe 8e65 893d
00000070: 4d0e 06bd 8b99 dbbd 8028 12bd 9e8b 39bf
00000080: d313 553e c2fa 893e 2b37 dfbe dea0 1bbe
00000090: b411 193f 9162 4fbd f1eb 513e fedd b7be
000000a0: bdd9 dbbe 6545 3d3e d5b1 82be 8ccb 443f
000000b0: 77c0 233d efb3 f9bd d7f8 11bf fc5a 57be
000000c0: 81c8 693e 8b90 26bf ba4f 3abf 9e07 65bd
000000d0: a138 933e 8298 59be 042f 7fbc d2d0 733d
000000e0: 64bc 16be 5ef1 86bd 84a3 843c 4bb5 1fbd
000000f0: 1cf1 cfbd 3bc9 583c d104 31be 524e d43e
0.3096457 -0.019024372 -0.09957457 0.14358601 -0.14379062 -0.022587659 0.22966711 0.09800248
-0.06317802 0.29625067 -0.49878642 0.00097173365 -0.20104161 -0.04687407 -0.049835715 0.22407295
-0.05286355 -0.0024743467 -0.09198233 -0.008184935 -0.6672964 0.03399185 -0.49151823 -0.08497124
-0.055531755 -0.09544355 -0.13884336 0.06708823 -0.032728482 -0.10722645 -0.035683155 -0.72478664
0.20808344 0.26949126 -0.43596777 -0.15198085 0.5979264 -0.05063111 0.20500161 -0.35911554
-0.4293956 0.18483503 -0.255263 0.7687309 0.03997847 -0.12192523 -0.57020324 -0.21030802
0.22830392 -0.65064305 -0.72777903 -0.055915467 0.28754142 -0.21249583 -0.015575174 0.05952532
-0.14720303 -0.06589006 0.016191252 -0.038991254 -0.1015341 0.013231571 -0.17286994 0.41466004

fc4.weight f4 [2, 64]
00000000: fdc0 de3d afc1 53bc 5430 59bc e024 6740
00000010: c11f 273c 287b 71bb d4f9 c4bc da87 313e
00000020: c0c6 673a d2ea 92be 233f 993d 89ae d33c
00000030: 3928 14c0 fe2f 3fbc e772 e63c 507c 3ebf
00000040: f89c f83e 6fc7 e7bc 5da9 3dbc 7399 653f
00000050: 61f9 373d c850 c23b 6486 b53e daee c33c
00000060: 4ffe 363e f135 8dbd 21a4 9c3b d630 2f3f
00000070: bd79 01bd 21f6 b73c f864 af3b 81b1 03bf
00000080: f051 1cbf 7c84 47bf ef12 9dbe 8cac d63e
00000090: 1550 b1be 9340 7fbd dfbd 88be 87f7 d63d
000000a0: 55ed e73d 79fa 47bf 7d46 3dbf b9f5 4bbf
000000b0: f041 e73c beec d9bd 1b87 643f 2990 7d3e
000000c0: 4f96 b6bd e579 1b3f cddc 003e fe78 8f3c
000000d0: 9370 7e3e c049 883f 3166 5fbc cfd9 b5bd
000000e0: e108 eac0 31ff ccbc 6c9e e23c 1b5e 613b
000000f0: 3e76 23bc 7e04 0ebe 504d 003d 9f18 1ebf
00000100: 13c8 2d3f dbb9 0cbd 52b2 8a3b 24aa b0be
00000110: 4479 8d3c ba73 e0bb eaca 1e3e f3b5 0c3d
00000120: 539b 15bd c246 083e 4753 26bf cc0a 00bb
00000130: 1582 dbbe 57c2 c0bc 1dc5 a93c 4f01 c43b
00000140: 5efc 2bbe 0f35 603c 3ac3 563c 80ca 033f
00000150: 75e0 99bf bf15 373d b655 21bf fa31 cdbc
00000160: 12e5 7cbb 66bf 76bb 3f9f b8bc e92d 12bf
00000170: e14d a53d 654f 853d 1dd8 05bd 1698 07c0
00000180: c8ca 22c0 6a42 313e ab03 09bf 9bbb 933e
00000190: a25d 1c3f 18e2 673e 8fd0 63be cd3d 90bf
000001a0: 2099 173e 9150 0b3e 41f3 17c0 b9a2 0540
000001b0: 6d08 183d a103 0240 e94a 8ebe 0149 443e
000001c0: e1d1 933f 25a2 a5be 21d1 3cbf 7444 aa3b
000001d0: 04b1 8c3f 6531 f5be bb33 323d 3655 023e
000001e0: 939a fe3f 2faa b7bc a45a 6cbb 9183 423d
000001f0: 9227 27bd 6d25 343e 709c d4bb 3052 9d3e
0.10876653 -0.012924596 -0.013256151 3.6116257 0.010200442 -0.0036847088 -0.024044909 0.1733698
0.0008841567 -0.2869478 0.074827455 0.02584006 -2.314955 -0.011669157 0.028130962 -0.74408436
0.48557258 -0.02829334 -0.011576024 0.8968727 0.04491556 0.00593004 0.35454094 0.023917604
0.17870449 -0.06895054 0.004780308 0.6843389 -0.03161024 0.02245623 0.0053526126 -0.51442724
-0.61062527 -0.7793653 -0.30678508 0.41928518 -0.3463141 -0.062317442 -0.2670736 0.10496431
0.11324564 -0.78116566 -0.7393568 -0.7967182 0.028229684 -0.10640858 0.89268655 0.24762024
-0.08915388 0.6073287 0.12584229 0.017513748 0.24847631 1.0647507 -0.013635204 -0.08879434
-7.313584 -0.025024028 0.027663432 0.0034388367 -0.009976922 -0.13868901 0.03132373 -0.6175632
0.67883414 -0.034356933 0.004232683 -0.34504807 0.017269738 -0.006849733 0.15507093 0.034353208
-0.03652508 0.13308242 -0.6497082 -0.0019537685 -0.42872682 -0.023530168 0.020723874 0.0059816013
-0.16795489 0.013684525 0.013108069 0.51480865 -1.2021624 0.044698473 -0.6302141 -0.025048245
-0.0038588685 -0.0037650703 -0.022536872 -0.57101303 0.08071495 0.06509284 -0.032676805 -2.1186576
-2.5436268 0.17310491 -0.5352122 0.2885407 0.6108037 0.22644842 -0.22247528 -1.126886
0.14804506 0.13604952 -2.374222 2.0880568 0.03711741 2.0314715 -0.27791527 0.19168474
1.1548425 -0.3235027 -0.73756605 0.0051961485 1.0991521 -0.47889248 0.043506365 0.12727818
1.9890922 -0.022420017 -0.0036064768 0.047488753 -0.04080922 0.17592402 -0.0064883754 0.30726767

fc4.bias f4 [2]
00000000: 0321 233e 4ffe 1a3f
0.15930562 0.60544294
