reinforce/codes_for_book/c07/Models/3000_critic.pt (torch_old, 273738 bytes, 9 tensors)

fcs1.weight f4 [256, 6]
00000000: 3ea5 dbbc c800 253d d3a1 bbbc d047 ae3c
00000010: 427a 943b da53 013d 6072 803d b5c0 923d
00000020: 4823 81bd bdc7 9b40 69c9 a6bd d1ef 8dbe
00000030: dc10 0f3f 50c9 343e a12b b1be 4482 37bf
00000040: c8a2 29bf 3688 abbe 2055 b5bd 0ee7 00be
00000050: a4a6 45c0 322e 2440 e836 0e3e 0fbf 95bd
00000060: 8494 003d b2bb 4abd 088d 5bbc 50dd 933c
00000070: 9c48 003d e58d 053d 98fd 43bd 92b5 9dbb
00000080: 00ce c8bb 7e50 66bd 200f 4dbb 6445 43bd
00000090: c23e 78bd f818 26be 0fa7 1fbf 9d98 cfc0
000000a0: f89f dd3d 582d 13be 52d2 ae3e c7bb 18bd
000000b0: ae1e 5040 ee88 4340 5198 c2be 82cd 8c3d
000000c0: 20ca bcbd 0ab8 10bd fcdd b33f 3886 9c40
000000d0: 428b 63bd 90d7 92be 388b 253c 0870 683c
000000e0: e029 92bc 1067 d33b 20cc 543d 0c71 c33c
000000f0: b4bc b7bc 9f39 40bd 2e5c 6f3d 209e 52bd
00000100: 805f d83b bc10 61bd 80a6 adbb e2d3 6ebd
00000110: 0c80 7d3d 08da fc3c 74fa 2a3d 62d3 00bd
00000120: c60d 8f3b 6646 64bd ca6f 1dc0 f06f 7d3e
00000130: 6996 833e 79e8 5abe 3f6d 8fbe 2d59 963d
00000140: 933c 4ac0 326c 5540 9129 f33d f18b 23bd
00000150: a84c 18bf 2a95 3ebe fe75 d6bf 84a2 c0bf
00000160: b25a 053f 6e00 253e 2040 803c 2826 193d
00000170: 70eb 903b 20c1 a73c fc3b 3dbd dc8a 093d
00000180: 6a3f 473e 78b8 a6be ec26 2940 6cd1 28c0
00000190: 9092 28be b10c 09bc 6bac 413e 5701 c3be
000001a0: 46d0 4740 d201 13bf c263 80be 117e cabe
000001b0: d816 2f3d 7a25 283d 6bdc 3b3c c070 cb3b
000001c0: c55d 47bd caa9 81bd acf6 cb3c 40e3 e5bc
000001d0: 8234 4abd 8627 48bd 4283 003d 9a60 7f3d
000001e0: 0acf bebe 5186 da3e 37a0 80c0 0df7 ee3f
000001f0: a496 7a3e 9cbb 4bbe 28c1 4abd d8a7 783c
00000200: 3548 64bc a434 dbbc 78cc 063c 5220 6a3d
00000210: 6236 01c0 ed16 59bd 4076 f6c0 e955 3b3e
00000220: 8ae8 1d3d fb65 b93d 0d3f 4ebd c0f8 50bf
00000230: 61b4 21c0 b309 cec0 57d0 c8be a460 583c
00000240: 36d9 213d 68d9 fe3c 30af 9f3c 4f0f 2dbd
00000250: 60c7 6dbb 7418 debc 3b31 b03e 112f 0abe
00000260: 1b9e 2c40 50c4 c3bf 4f2e 94be d4c3 96be
00000270: 7641 45be 9ca6 41be 5b27 17c0 12b9 29c0
00000280: 712d 13be b56d 58bd 0276 1bbd 4059 013c
00000290: 5001 44bc 76c8 f73c 28e0 d13c 7adf 6d3d
000002a0: d814 72bd 8875 d93c 64ee 083d e8df eb3c
000002b0: 2809 68bc c244 5f3d afc7 68be d267 9bbe
000002c0: ba66 14bf 8128 acbe 8e79 b63d 0fde a13d
000002d0: 6487 eebe a794 fc3d 1fcb 423f e794 1e3e
000002e0: a97b 3cbf 81ba 51be f289 9bbe 655b a1bd
000002f0: 766a 7cc0 75c0 b63f 5e0a 41be 22de a13e
00000300: f65d b3bd 9f0d 2e3e 2807 24c0 efc4 7b40
00000310: 9eff f23d fb6c 8ebe 625b 2cbe 8582 4cbe
00000320: 9d9b cec0 02c2 bc3f cd5b c73b d389 83bd
00000330: 84da ad3c 7437 9d3c ac59 93bc 1ce6 ed3c
00000340: 70da cabb 3a98 553d 063e 0eb9 a5fd 9abd
00000350: af32 b6c0 0d25 c3be 6a38 9f3d c617 16be
00000360: 60b9 81be a683 1abc c7c3 2ac1 dc81 89be
00000370: 74c2 58be 4842 b0bd 5c84 e23c 96cf 20bd
00000380: 521b 2fbd 9019 313d c065 54bd f0f5 d1bc
00000390: 4cd1 983c e09e 23bd dc20 f9bc 8827 853c
000003a0: 3097 bc3b f83a 213d 160c 4b3e 5080 88bd
000003b0: b32d 3b41 f102 8d3f 5776 ce3d 3a55 80bc
000003c0: b9e0 f1bc d861 e9bc 9f71 1a3d de34 4bbd
000003d0: 5410 cdbc c0fb b0ba 0302 3ebc e710 a33e
000003e0: b07b 3740 5145 e33f bf7b e03d aa29 60bf
000003f0: 7bba 0bbe 8f25 ae3d 1f0e 95c0 643e 8d3e
-0.026812192 0.04028395 -0.022904312 0.021274477 0.004531176 0.031574108 0.06271815 0.07165662
-0.063055575 4.868132 -0.08143885 -0.27722028 0.558851 0.1765492 -0.346036 -0.71683145
-0.6626401 -0.33502358 -0.08854127 -0.1258814 -3.088296 2.5653195 0.13888133 -0.07311832
0.031391636 -0.049495406 -0.013400324 0.018049866 0.031319246 0.032606024 -0.047849268 -0.0048129046
-0.0061280727 -0.056229107 -0.0031289533 -0.047673598 -0.060606726 -0.16220462 -0.62364286 -6.4873796
0.10821527 -0.14372766 0.34144837 -0.037288453 3.2518725 3.0552325 -0.38006833 0.06875135
-0.0921824 -0.035331763 1.4052119 4.891384 -0.05555273 -0.28680086 0.010103993 0.014186867
-0.017842233 0.006451495 0.05195248 0.023857616 -0.022428848 -0.04692995 0.05843752 -0.05142033
0.0066031814 -0.0549476 -0.0052993894 -0.058307536 0.061889693 0.030865684 0.041742757 -0.03145159
0.0043656556 -0.0557312 -2.459948 0.24749732 0.2570069 -0.21377744 -0.28013036 0.07341228
-3.1599472 3.3347287 0.118731625 -0.03992838 -0.5949197 -0.18611589 -1.6754758 -1.5049596
0.52091515 0.16113445 0.015655577 0.037389904 0.0044225976 0.020477831 -0.046199784 0.033579692
0.19457784 -0.32562613 2.6430006 -2.637782 -0.16462159 -0.008364842 0.18913428 -0.3808696
3.122087 -0.5742465 -0.2507611 -0.39549306 0.042746395 0.041051365 0.011466126 0.006208509
-0.04867341 -0.06331213 0.024897896 -0.028062463 -0.04936648 -0.048865817 0.031375177 0.062347986
-0.37267333 0.426806 -4.0195575 1.8669144 0.24471527 -0.19895786 -0.049500614 0.015176736
-0.013933231 -0.0267585 0.00822746 0.05715973 -2.0189443 -0.05300038 -7.701935 0.18294491
0.038551845 0.09052654 -0.0503531 -0.8162956 -2.5266345 -6.438684 -0.3922145 0.013206635
0.03951379 0.031109527 0.019492716 -0.042250928 -0.0036282167 -0.02711127 0.3441256 -0.13494517
2.69715 -1.5294285 -0.2894158 -0.2944628 -0.19263253 -0.18911213 -2.361777 -2.6519208
-0.14372803 -0.052839 -0.037954338 0.007894814 -0.011963204 0.030246954 0.025619581 0.058074452
-0.05910191 0.026545301 0.033430472 0.02879329 -0.014162339 0.054508932 -0.22732423 -0.30352646
-0.5796925 -0.33624652 0.089099035 0.079036824 -0.4658767 0.12333041 0.7609119 0.15486489
-0.7362619 -0.20481302 -0.3037868 -0.0787876 -3.9439979 1.4277483 -0.18851611 0.31614786
-0.08758156 0.16997384 -2.5629368 3.9338949 0.11865161 -0.2781752 -0.16831735 -0.19971664
-6.456496 1.4746706 0.0060839416 -0.06422772 0.02122236 0.019191481 -0.017987095 0.029040389
-0.0061905906 0.052147128 -0.00013565281 -0.0756791 -5.693687 -0.38114205 0.07774432 -0.14657506
-0.25336742 -0.0094308015 -10.672797 -0.26856887 -0.21167928 -0.08606392 0.027651004 -0.03926047
-0.042750664 0.04323727 -0.05185485 -0.025629967 0.018654488 -0.039946437 -0.030411176 0.016254202
0.0057553276 0.039362878 0.19828829 -0.06665099 11.698657 1.1016523 0.10081165 -0.01566564
-0.029526101 -0.028489038 0.037706014 -0.049610965 -0.0250322 -0.0013502762 -0.011597159 0.31848833
2.8669243 1.7755529 0.10961103 -0.87563574 -0.13645355 0.085032575 -4.657974 0.27586663

fcs1.bias f4 [256]
00000000: 3b11 9fbd 2580 593e 6177 0c3e 65b3 8b3d
00000010: 4079 ebbd 73f4 0cbe 6cda 293e 22db 28bc
00000020: be3a 4a3e 83ac 3bbe 9338 cdbe 88d3 c3be
00000030: ed38 19bd 51ee 983e 7cb5 123d de2c 05be
00000040: c0cf b93e 82cc 023f 73cd a8bd ab24 75be
00000050: fb4a 81bc 5c75 8dbe 6546 3b3e 3acd 8b3e
00000060: c91f 30be 5dd0 9a3e 35bf ad3e 7afe 43be
00000070: 89ad b0be 4c13 d83e be92 1b3f 0c75 003e
00000080: e888 4a3e ec8f 533e afb8 c5be e022 083e
00000090: 31b4 ad3e 684f 79bd 684a cfbe 0da3 1abd
000000a0: e001 cdbe 2aad 113e 48c0 843e 8f4d 5ebe
000000b0: c930 bb3e 16fd c0be 2c9b 9dbe 7d57 473e
000000c0: c17d e73d 2b58 7ebe bcea 70be 9ed8 acbe
000000d0: 7cbd c03e b12f c7be 19ee 333e dc73 c23e
000000e0: f661 7e3e 8c17 463e bbc1 28be 5dd6 4fbe
000000f0: 69ef 52be 5d73 d63e 3e20 643d 92e0 033e
00000100: ecb1 aebd 4a3a 5bbe cf4f a3be cccc fcbd
00000110: b5cb 85be ec0b 303e ac4c b2be 9753 cabe
00000120: ff7d 87bd 7cc7 fb3d 4414 6fbe 5820 a8be
00000130: 0c2b adbd 76dd 57be b054 c2bc 3026 70be
00000140: 9974 c5be 2b9b af3e 18e2 e7bd ae91 abbe
00000150: d966 ccbe 3631 6cbe 73da b0be bb6d 95bc
00000160: 7872 993e 8b18 813e cf88 333e 0cbb 5dbe
00000170: e393 c93e 88de 8bbe 7fd2 bdbe f41a bc3d
00000180: b5bc 933e afc8 0e3e 2a6f 9e3e ee8d 773e
00000190: e91b c3bd ae39 5cbd 4329 403e b79f d63e
000001a0: 2717 d33e 483a 043f c18e 4f3e f8cc 6cbc
000001b0: 9160 75be 37c3 a23c c67e 2cbe dd17 673d
000001c0: 55fb a1be 1bbd 9fbe 33aa 563e 6638 10be
000001d0: 95d2 5abe d243 a9be 8839 11be 0036 e7bd
000001e0: e86a 92be 8ec2 22bd b4e0 cebd 5272 4ebe
000001f0: f6d3 923e 7ca4 3c3e e0f7 3ebd 6c9b 953e
00000200: 2399 a83c d501 c8be 80c9 5abe f4da c0be
00000210: ca99 563e e86f abbe ca05 493c bc69 ad3e
00000220: b75b 013e 96f4 ff3d 1fbd d0be cfa6 0ebe
00000230: 3260 4b3e 7864 4ebd 655f b43d 45aa a93e
00000240: b9eb 003d 83b4 a6be 0777 523e 53c4 343e
00000250: d07f 6d3d b826 343e 4777 973d f3cc 803e
00000260: 6542 ee3e e8ab 003d 67ca d13d 7c4f 50be
00000270: aabf d33c 1bda 903e ef15 cf3e 1ce3 1bbe
00000280: b2f3 4ebe bfdf d93e a64f 713e e5cc 99be
00000290: cb3e c5bb 6af5 ed3e f343 f5bd c235 95be
000002a0: 1847 a5be 779d 9c3e 3037 bcbe f1d2 00be
000002b0: 54ba debd 1019 a0be ae47 82be e432 64be
000002c0: ed5d a23d 6353 b1be 7b98 37be 9684 003c
000002d0: 0b8c 833e d870 7b3e fdec 6dbe 64b9 5dbe
000002e0: c80b 80be 7864 88bd 2e7c a53e 1428 e4bd
000002f0: 3e15 1abe 0887 cebe 6e36 c9bd edcf 303d
00000300: 2bbd 3bbd 8144 5dbe 88d9 083c 4232 763d
00000310: fb71 243d b1a6 163e 9b47 bc3c 14cb 1c3e
00000320: 8cea 64bd cf87 5c3e 11ab 29be 06b8 2b3e
00000330: cd0d 7a3e 2f18 053d 04c9 95be c345 b03e
00000340: f12a 9bbe 3093 cc3e 7ce4 3dbe f9e3 c63c
00000350: f9f5 983e ce9f 4c3e 563c 87be f637 d93e
00000360: 3c21 49be 18b5 9d3d ef48 003e 43a8 c5be
00000370: c487 633e 40f3 7e3e 34a5 a73e 9016 843d
00000380: 5a22 cdbe 5940 403e 9f9a d3bd 81db 5abe
00000390: 268a 2bbe 5e35 3bbe be03 b53e d017 27bd
000003a0: 5e0f 0c3e f101 b93e 403f c9bc 393a a83e
000003b0: 5f41 43be cb26 89bc 4e6b 103d 6a76 09be
000003c0: 53d8 7c3e 4f1f 973d fcf8 acbe dc9b f9bd
000003d0: d736 913e d535 ba3e d8a5 54be ed86 b4be
000003e0: b6d5 c33e f2ea 4bbe 2bbe b53e 2faa f73e
000003f0: ca57 09be 4002 133e d722 2dbe 8f8e 743e
-0.07766958 0.2124029 0.13717414 0.06821326 -0.11497736 -0.13765125 0.16587228 -0.010306152
0.19748971 -0.18327527 -0.40082225 -0.38247323 -0.037407804 0.2986932 0.03581761 -0.13005397
0.36291313 0.51093304 -0.08242311 -0.23939769 -0.015782824 -0.276286 0.18288572 0.27305013
-0.17199625 0.30237094 0.33934942 -0.19140044 -0.34507397 0.42202222 0.60770786 0.1254465
0.19778788 0.2066037 -0.38617465 0.13294554 0.33926538 -0.060866743 -0.40486455 -0.037753154
-0.40040493 0.14226213 0.2592795 -0.21709274 0.36560658 -0.3769309 -0.3078245 0.19466968
0.113032825 -0.24838321 -0.23527044 -0.33759016 0.37644565 -0.38903573 0.17571296 0.3797902
0.24842057 0.1934492 -0.16480152 -0.20296617 -0.2059914 0.4188489 0.05569481 0.12878636
-0.0853003 -0.21408954 -0.31896827 -0.123437494 -0.2613198 0.17192048 -0.3482412 -0.395169
-0.06615829 0.12293908 -0.23347574 -0.32837176 -0.08455476 -0.21080574 -0.023722023 -0.23452067
-0.3856552 0.3429807 -0.11322421 -0.33509582 -0.39922217 -0.23065647 -0.34541664 -0.0182408
0.29970145 0.25214037 0.17532657 -0.21653384 0.3937064 -0.27318215 -0.37074658 0.091848284
0.2885491 0.13943742 0.30944186 0.24175236 -0.09526808 -0.053765945 0.1876574 0.41918728
0.412286 0.5165143 0.202693 -0.014453165 -0.23962618 0.019868476 -0.16845235 0.056419242
-0.31637064 -0.31198964 0.20963363 -0.14084014 -0.21369393 -0.33059555 -0.14182103 -0.112895966
-0.28597188 -0.039736323 -0.101014525 -0.20160797 0.28677338 0.18422121 -0.04662311 0.2922014
0.020580834 -0.39063898 -0.21365929 -0.37667048 0.20957103 -0.33483815 0.012269447 0.3386973
0.12632643 0.12497823 -0.40769288 -0.1393082 0.19860914 -0.050388783 0.088072576 0.33137718
0.031474803 -0.32559595 0.20553218 0.17653017 0.05798322 0.17592895 0.07395797 0.25156364
0.4653503 0.031413943 0.10243683 -0.20342821 0.025848228 0.282914 0.40446422 -0.15223354
-0.2021015 0.42553517 0.2356554 -0.30039135 -0.0060194484 0.464763 -0.11975851 -0.29142576
-0.32280803 0.30588886 -0.36760855 -0.12580468 -0.10875383 -0.3126912 -0.25445312 -0.22285038
0.07928071 -0.34633932 -0.1792926 0.007844111 0.25692782 0.24554765 -0.23234935 -0.21652752
-0.25008988 -0.06659788 0.32321304 -0.11140457 -0.15047166 -0.40337396 -0.09824835 0.043167043
-0.0458347 -0.21608163 0.008352645 0.060106523 0.040147763 0.14712025 0.022983363 0.15311843
-0.055887744 0.21536182 -0.16569163 0.16769418 0.24419327 0.032493766 -0.29254925 0.34428224
-0.303062 0.39956045 -0.18544191 0.024278628 0.29875162 0.19982836 -0.2641322 0.42425507
-0.19641584 0.077005565 0.12527822 -0.38604936 0.22219759 0.2489748 0.32743227 0.06449616
-0.4006527 0.18774547 -0.10332226 -0.21372797 -0.16751918 -0.18282077 0.35354418 -0.040794194
0.13677737 0.36134294 -0.024566293 0.3285692 -0.19067906 -0.01674213 0.035258584 -0.13424078
0.24691896 0.073790185 -0.3378371 -0.12187931 0.28362152 0.36369196 -0.2076639 -0.3525919
0.38248986 -0.19913843 0.3549665 0.48372027 -0.13412395 0.14356327 -0.16907822 0.23882507

fcs2.weight f4 [128, 256]
00000000: 8406 8abd 5e2b b6bd 094e 563d a8d9 88bd
00000010: 949c a83c e806 26bc cad2 3abb 9db7 c7bd
00000020: 6473 c6bd 864e b63c a185 80bd 5a24 253d
00000030: deb4 dbbd 03b8 fdbc c00f b8bc 4292 573d
00000040: c55d c7bd 0a9e 73bd 321d 4fbd 2929 913d
00000050: 4da9 213d 8266 1b3d d966 4c3d 6589 34ba
00000060: 40ad c4bc 085a d43a 5b5f 9fbd e050 d9bb
00000070: edab a03d da15 a8bd 3c99 96bd 5ae8 9dbd
00000080: 3ca4 8dbd c662 3fbd e05b 2fbb 590a 8abd
00000090: 81f5 2f3d 8535 4abd 0d0b a23d be8d 3fbd
000000a0: bef7 4b3d 074f 5d3d b646 36bd 4022 a8ba
000000b0: 8ecf eebb f050 ba3b 5791 85bd 6ff6 9a3c
000000c0: 1201 6a3c 598e b03d a04d debb 624b 94bd
000000d0: 63cd 0cbd c22e dfbc 42b4 c33d a232 ba3b
000000e0: 1b67 033d 636e cebd ff1e 8ebd e863 103d
000000f0: e207 533d f875 a5bd 1704 d4bb 6c0e 173d
00000100: f372 b43d efe0 53bd 7a10 f2bc 5272 80bd
00000110: 9d8a b2bd 8bad 3b3d c3ec c4bb 7e2d 353d
00000120: 1470 97bc 0ce6 3c3d a7c8 a93d fc46 fa3c
00000130: 7a74 183d a055 b2bc 2c88 843d 024c 053d
00000140: 959b b23d 0c63 3d3c 9a92 733d 65a3 b2bd
00000150: c820 3abc 0075 443c 1d07 2bbd 68e3 c1bd
00000160: e06e 2e3c af1b 9abd 1fcc 87bd e767 04bd
00000170: 071b ad3c 3baf ac3d fff2 9a3d aacd 8a3d
00000180: f5c1 51bd c81c 92bb 20e4 cabd 7d9d f73b
00000190: 6e87 2c3d 909b 42bd e08a 9bbc 3f0f 913d
000001a0: 7200 8bbd 0e46 49bd bfae a43c b525 51ba
000001b0: baf6 4abd e025 5eba 7ede 433d cd2c c8bd
000001c0: 4005 683d 8679 d9bc 35a9 77bd 6a5a 693d
000001d0: 3b27 57bd 12da 23bd 89d8 b4bd 561c 87bd
000001e0: 7f48 21bd 46af 343d 0cf3 2cbd d276 163d
000001f0: 7c80 3c3d b0d7 413c c8c4 02bc ece7 593d
00000200: 44f8 62bd a504 ab3d 0d95 8f3d 6053 c53c
00000210: a8db ddbd 7428 8cbd 8554 b5bd bc3a ff3c
00000220: ba01 d7bd e367 283c 1333 c5bc caee 27bd
00000230: 2e89 d2bb 47e0 66bd 1cfc c6bd 8dca 76bc
00000240: b5fc 17bc 8014 163a 0a1f 9ebd 0726 a4bd
00000250: 94ae 97bd 5196 1dbd 06d6 06bd 121d d7bd
00000260: 2664 353c 4a67 57bd 06ba 193d 9019 dfbb
00000270: 0e3b d2bc a5d1 edbc 3159 93bd 9ce6 7fbd
00000280: eb5a 9bbd 327c cd3c f8a2 88bc 85ee aabd
00000290: 36d0 52bd 693e d6bb 5e74 86bd c6ab 8fbc
000002a0: 289d 503c 5d0a 513d 4cc6 81bd 0593 68bd
000002b0: 1c0b b0bd 2032 e13b 4d0b a63d 78d9 073c
000002c0: b36f 283d f846 843c f029 843c 67b5 103d
000002d0: 20c8 ddbc e1d4 393b 30f5 09bd 760e 4cbd
000002e0: 2063 153b 7f94 97bd 18f1 08bb a505 18bd
000002f0: 5fcf 9abd 7c71 e33c 0069 e73b 1d50 0ebd
00000300: 9e3b 563d 92cb 8b3d ff34 b73b 52bf 563d
00000310: 4b61 58bb 96ed 3e3d b47f 97bd fd62 a13c
00000320: b6ad 483b f5b4 853d 8048 a0bc 58e9 a4bd
00000330: 6140 1dbd 3237 273d 82e2 28bd 992b dfbd
00000340: 5856 143d 042d 2a3d 87e9 783d 2a17 023c
00000350: 8232 02bd 1ed2 86bd 188b 29bc c392 fe3c
00000360: 786e ef3c ed46 183c 05e2 04bc 90c5 01bc
00000370: adb7 633d f03f 12bd 0aa9 6abd 77f4 d3bd
00000380: 774a 703d d374 58bd 8ea5 6d3d 7f01 aebd
00000390: 32ec 81bd d836 9fbc f21e 743d 3365 d83c
000003a0: f488 293d 9f71 1a3d cb20 83bc 2d4a 2b3c
000003b0: e34b 3b3c e805 55bd 6aae 8a3d 40e2 a03c
000003c0: 62f1 4d3d d0ed 673d ffd7 8a3d 6130 a73d
000003d0: b6c9 35bd 00bd aebd 204d b3bb ba07 4d3d
000003e0: 9a68 31bd 5a0f 823d 425e 273b d367 8c3d
000003f0: b836 23bd 5108 273d 09a8 9c3d 8bb8 323c
-0.06739524 -0.088949904 0.052320514 -0.0668214 0.020582475 -0.0101334825 -0.0028506988 -0.09751818
-0.09689978 0.02225424 -0.06275488 0.04031787 -0.10727857 -0.030971533 -0.022468448 0.052629717
-0.09734682 -0.05947689 -0.050564952 0.07087929 0.0394681 0.037939556 0.04990277 -0.00068869285
-0.024008393 0.0016201148 -0.077818595 -0.0066319555 0.07845292 -0.08207293 -0.07353446 -0.07710333
-0.06916091 -0.046725057 -0.0026757643 -0.06740255 0.04295874 -0.049367446 0.07912264 -0.046766035
0.049796812 0.054030444 -0.04450103 -0.001282759 -0.007287926 0.005685918 -0.06521862 0.018916337
0.014282482 0.08620901 -0.006784156 -0.07240941 -0.03437556 -0.027243976 0.09555866 0.0056823054
0.03208075 -0.10079648 -0.06939506 0.035251528 0.05152119 -0.080791414 -0.006470214 0.03687899
0.08810987 -0.051728185 -0.029548872 -0.06271805 -0.08717845 0.0458198 -0.0060096695 0.044232838
-0.01848606 0.046117827 0.082902245 0.030551426 0.037220456 -0.021769345 0.06471285 0.03254319
0.08721081 0.011559259 0.059465982 -0.08722571 -0.011360355 0.011990786 -0.04175483 -0.094672024
0.010646552 -0.075248115 -0.0663073 -0.03232565 0.021131052 0.0843186 0.07565879 0.067775086
-0.051210362 -0.0044589974 -0.09906793 0.007556616 0.042121343 -0.047511637 -0.01898712 0.07082986
-0.06787194 -0.049139075 0.020102857 -0.0007978336 -0.049551703 -0.0008474272 0.047819607 -0.0977417
0.05664563 -0.026547205 -0.060464103 0.05697099 -0.052527647 -0.04000289 -0.08830363 -0.065972015
-0.03937578 0.044112466 -0.042223975 0.03673441 0.04602097 0.011831209 -0.007981487 0.053199694
-0.055412546 0.08350495 0.07010851 0.024087608 -0.10832912 -0.06843653 -0.088540114 0.031155936
-0.10498376 0.010278675 -0.024072206 -0.04099921 -0.0064250445 -0.05636623 -0.09716055 -0.01506294
-0.009276559 0.00057251006 -0.07720764 -0.08015066 -0.07406345 -0.03847343 -0.032918952 -0.105035916
0.0110712405 -0.05258874 0.03753092 -0.006808467 -0.025662925 -0.02903063 -0.07194746 -0.062475786
-0.075857006 0.025083635 -0.016679272 -0.08346275 -0.051468097 -0.0065382016 -0.06565164 -0.017537963
0.0127327815 0.051035274 -0.0633665 -0.056780834 -0.08595869 0.0068724304 0.08107624 0.008291595
0.04112215 0.016147122 0.016133279 0.03532925 -0.027072966 0.0028355645 -0.033681095 -0.04981848
0.0022794679 -0.0740137 -0.0020895656 -0.037114758 -0.07559084 0.027764075 0.0070620775 -0.03474437
0.05230295 0.06825937 0.0055910344 0.05242855 -0.0033016976 0.0466133 -0.07397404 0.019700522
0.0030621118 0.065286554 -0.01956582 -0.08052319 -0.038391475 0.040824123 -0.04123164 -0.108969875
0.036215156 0.041546836 0.060769584 0.007940093 -0.03178645 -0.065830454 -0.010348104 0.03107584
0.02922748 0.009294254 -0.008110528 -0.007920638 0.05559509 -0.035705507 -0.057290114 -0.10349362
0.058664765 -0.052845787 0.058019213 -0.08496379 -0.06343879 -0.019435331 0.059599824 0.026415443
0.041390374 0.037706014 -0.016006848 0.010454697 0.011431667 -0.052007586 0.06771548 0.019639134
0.05027903 0.05662328 0.06779479 0.081635244 -0.04438182 -0.08532143 -0.0054718405 0.050056197
-0.043312646 0.06350584 0.002553836 0.068557404 -0.039847106 0.040779416 0.07649238 0.010908256

fcs2.bias f4 [128]
00000000: 773f 79bd ce5e a3bd 048e 3dbc 8699 db3a
00000010: fb7f 95bd f99e 0ebe 1470 97bd fbd9 823e
00000020: 6b19 e3bc 313d 2639 ac3e 0dbd 069e acbd
00000030: 94c7 883d 48d9 5bbe 31ba a6bd 70b8 c1bc
00000040: 306a 89bd 0724 98bd 8122 133c 2680 223d
00000050: ed6f d13c c2a7 1ebe db3c 8cbd 5fc0 f93c
00000060: 2a13 793d bb3e 29bc 3808 9abd 92cd e03c
00000070: b5ac d03d 9ada 3abc 0ad1 2cbd ee27 e33d
00000080: 02e9 8abd 0c7a 9abd 9bdf 323c 6e9d 5bbc
00000090: a7fd 05be 41ee 72bd 034f 16bb b651 d63d
000000a0: 91b7 72bc f589 77bc 4158 7c3e dcd1 cfbd
000000b0: 8641 bdbd 46c2 8ebb f05d d4bd cdaf c7bc
000000c0: 5fdc e63c f244 f4bc 6e1a 5cbd 464a e23d
000000d0: 4238 463d cced 203b 6467 b63b b151 f33d
000000e0: 0731 9bbd 4cda 503d 894c 6abc 991a d23d
000000f0: 537b febc 8035 debc 3c99 96bd 9382 3bbc
00000100: 3dde b43d 3016 c2bd e3e6 fdbc 3be9 1e3e
00000110: c9a4 89bc ac13 7f3c 3897 7a3c a84b 92bd
00000120: f12c fe3d 2818 093d 3c2b dabc 25ba 513a
00000130: a2af 3abd b275 a7bc c219 a8bd 87bf 43be
00000140: 6d20 dbbc 154d b7bd 3a20 803c cde7 21bc
00000150: cc0a ac3d ec6a 59bb e677 7a3b 609c 38bd
00000160: 67e6 a2bd 5240 013b 9902 26bb ab2a 74bd
00000170: da98 a7bc 3735 0cbd 8f2a eebd cc49 893d
00000180: 90f7 d9bd bd77 51bb 599a 553d eeca 65bd
00000190: b684 0fbd 3876 d8bc 1429 79bd 827d a7bc
000001a0: 8b52 13bd 5e64 96bb c79f 913c e638 473e
000001b0: 86a6 76bd 52f7 30be 7b57 83bd 1e27 95bd
000001c0: 6ec4 bf3c 8dfd 13be e1e5 2fbc 3bac e1bc
000001d0: d045 32bd de1a a1bd e2ea 2cbd 348c bcbd
000001e0: f007 b83c 9a6a 813d 96b8 073c 1941 26bd
000001f0: 2899 c73c 8fb8 f93c e1da d73b cf92 53bd
-0.06085154 -0.07977067 -0.011569504 0.0016754128 -0.07299801 -0.13927831 -0.07394424 0.2555693
-0.027722081 0.00015853789 -0.034483597 -0.08428578 0.066786915 -0.21469605 -0.08140982 -0.023647517
-0.06709707 -0.07428747 0.008980394 0.039672993 0.025566066 -0.15493682 -0.06847545 0.030487237
0.060809292 -0.0103298975 -0.07521099 0.027441774 0.10189191 -0.011404658 -0.042191543 0.110916
-0.06782724 -0.0754281 0.0109175695 -0.013404233 -0.13085042 -0.059309248 -0.0022935278 0.10464804
-0.014814273 -0.015108575 0.24643041 -0.101474494 -0.09241013 -0.0043566553 -0.1036948 -0.02437582
0.028181253 -0.029818032 -0.053736143 0.11049323 0.048393495 0.00245558 0.0055665243 0.11880816
-0.075777106 0.050989434 -0.014300474 0.10258979 -0.031064665 -0.02712512 -0.07353446 -0.011444706
0.08831451 -0.09476888 -0.030993884 0.15518658 -0.016802208 0.015568655 0.015294842 -0.071433365
0.12410916 0.033470303 -0.026631944 0.0008000455 -0.045577653 -0.020441864 -0.08208038 -0.1911603
-0.02674886 -0.08950249 0.015640367 -0.009881926 0.08400497 -0.0033175303 0.0038218438 -0.045071006
-0.07954102 0.0019722176 -0.0025331138 -0.059611004 -0.020458627 -0.034230437 -0.11629211 0.06703529
-0.10642922 -0.0031962239 0.05214915 -0.056101732 -0.035038672 -0.026423559 -0.06083019 -0.020445589
-0.03596739 -0.0045896014 0.017776383 0.19455299 -0.060217403 -0.17281845 -0.0641317 -0.07282852
0.023409095 -0.1445219 -0.01073596 -0.027547946 -0.04352361 -0.07866453 -0.04221619 -0.09206429
0.022464722 0.06319161 0.008283755 -0.040589426 0.024365023 0.030483512 0.0065873717 -0.05165368

fca1.weight f4 [128, 2]
00000000: edf7 c8bb 74bb 2bbc 4c45 0c3f 0d50 3b3c
00000010: 02a5 3f3d 6975 53bd 0d87 5cbe 32df 63be
00000020: 3165 893e 03ae acbe 3c74 fdbd 5b7d 9b3d
00000030: d60d 0b3e 9d7e eebe e110 91bd 0446 f13d
00000040: 5dd9 993d 368f 543d d224 3bbc c2f6 493d
00000050: d3e4 6dbd d4fb 213e 8f1e f2bc 2d35 103d
00000060: b08e d8bb 47c0 b33d 0723 88bd e4c5 ffbc
00000070: 2011 cf3b c2ed 54bd 6ec4 2f3d b017 b13b
00000080: bd6c 5a3d f514 b1bd 8619 1e3c fc0e b13e
00000090: 7bae b03d 5124 a33d 6571 ebbe d1db 8d3e
000000a0: 0a39 55be fda9 4bbc f35e 2bbd 2d5b a13d
000000b0: 5cbb 733c 6cae 183c 04b6 af3c 12aa 793d
000000c0: f8c6 f83c 3018 0ebc f6ef 693d c504 9c3d
000000d0: 080a 7bbd b17e a43d b3e3 873d 195b 08bd
000000e0: 1445 b0bd 00c6 a73b 1201 153d c0eb 44bc
000000f0: d43a 1d3e b185 133d 7a27 7d3c e0eb 3e3b
00000100: 3e33 d23c 168e 613c c77b 9a3e 15d2 fdbd
00000110: 4a30 42bd 0b80 923d 5280 003d da9a 6fbd
00000120: 2067 84bc 9520 52bd 5422 35bd c023 93bb
00000130: 63df aebd f5dc 85bd ac56 d13d b0af 10be
00000140: 0de8 bc3c fbeb dd3c ef05 dd3b 5ca0 383b
00000150: 987a c13c 5cae d53c 0302 ae3d 9d8e 8e3d
00000160: f38a 7ebc d3d9 153b 88dc 3b3c bc51 c1bc
00000170: 8fb0 a5bc f8e1 af3c a1cb 363d b44e c83d
00000180: 0b81 ff3a 9e71 9a3c d0f9 9d3b af28 66bd
00000190: ff5e 913d 502e b53c 78eb b8bc 405c f33a
000001a0: 3062 393d c432 513e 1284 69bd cbdd b13d
000001b0: 2d6c 973d 34fe de3c 75d3 eebb 02ce 6b3c
000001c0: 0178 3abd 3346 903d 7612 d13b da29 4fbd
000001d0: 926c 44bd aa0f 98bd 02aa 5abd 74bb ccbc
000001e0: 91ac 7b3d 7c53 593d 7c31 7b3c b55d ba3e
000001f0: aae5 cdbd bf06 b03c 8788 c53d 4619 e53d
00000200: 1dd0 a63e 6423 52be 590a 8d3e f389 203e
00000210: 8334 8f3d 17e8 e63c 1360 a83e eaf7 81be
00000220: 2773 01be 2336 263d 1d12 a83d 82da 97bd
00000230: 4ced d3be 8d54 01be 5621 773d 18ca 2a3c
00000240: dda9 64bd 9a10 80bc d712 ab3d 63db 823d
00000250: 9224 383d 00da 68bb 9fd2 ad3c 51b5 93be
00000260: 54dc d4bd 975d e4bd 2062 78bd 6c4e f83c
00000270: 1260 a8bb 5956 7d3c bf3a 8f3e 85b0 543e
00000280: fedc 043e 4a9c 90bd 43d7 fdbc b08e b0bb
00000290: f00d d73c a34c 7bbc bbc6 a0bd e377 973d
000002a0: c6a4 03bd e660 2b3d c081 0d3d 807a 973b
000002b0: 5b73 7dbd d640 753d 9bad 1ebe 4113 f2bc
000002c0: 7cda afbd c1e5 853d 5021 d03b 00c3 21ba
000002d0: 064b 13bd 263d 003e ac06 b03c 1c7d 82bc
000002e0: d3ef 83bd 1ace 153e ab02 873d ea04 1b3d
000002f0: d2c8 ad3d 7722 823e 3673 25be 06bf 23be
00000300: 7b2c 75bd 46ce 22bd aecd d1bc 6490 8e3c
00000310: 1498 93bc 5c71 e3bc 363e 64bd 3686 6a3d
00000320: 70bd 393e 4f3d 5ebe 2018 7b3c 2613 3fbd
00000330: 5e58 99ba 3a19 f3bc 99fe 7bbd 7088 b0bc
00000340: dcb3 8dbc 49fc 08bd dade 4c3d c248 603c
00000350: e555 2b3d 3863 99bd c7cd 813d 049c 22bd
00000360: 2aa7 4d3d 31c6 04bd a57f 263e 1088 0a3e
00000370: b4a5 113d 1713 95bd 3474 88bc fc68 20bd
00000380: 0e59 9bbd 3207 88bd fec2 be3e 0bf2 a23e
00000390: 249e 9e3c 8976 aa3d 065b 523d 2894 f43c
000003a0: f1c9 2d3e 6153 063e 605b 8b3d 984c 1a3b
000003b0: 7aba 55bd 6d2e f03e 3538 373c 20b9 98ba
000003c0: 65b2 6dbb 4729 b73c 6638 103d 0039 163b
000003d0: 780f 3a3c cd6f 193d b424 21bc fec2 90bb
000003e0: 8054 7e3a 2258 4cbd b3fb ad3d 407d f8bd
000003f0: 15e8 adbd c048 f43c cc31 9b3d 8db8 fd3d
-0.0061330707 -0.010481704 0.5479324 0.01143266 0.046788223 -0.051625643 -0.21535893 -0.22253111
0.26835015 -0.3372651 -0.123756856 0.07592269 0.13579497 -0.46580973 -0.070832975 0.117809325
0.07512162 0.05189439 -0.011422353 0.049307592 -0.058079552 0.15818721 -0.029555587 0.035206962
-0.0066088066 0.08776908 -0.06647306 -0.031222291 0.00631918 -0.051984556 0.04291194 0.005404435
0.053326357 -0.08646575 0.00964964 0.34581745 0.086270295 0.07965911 -0.4598495 0.2770677
-0.2082254 -0.012430665 -0.041838598 0.078787185 0.014876213 0.009318929 0.021449097 0.060953207
0.030368313 -0.008672759 0.05711361 0.07618097 -0.061288863 0.08031977 0.06635227 -0.033290002
-0.086069256 0.005120039 0.036377974 -0.012019098 0.15354472 0.03601617 0.0154513065 0.0029132292
0.0256592 0.013766786 0.3017256 -0.123935856 -0.047409333 0.071533285 0.031372376 -0.058497287
-0.016162455 -0.051300604 -0.04422219 -0.0044903457 -0.085387014 -0.06536285 0.102216095 -0.1412952
0.02305987 0.027090063 0.006745092 0.0028171754 0.023618028 0.026084118 0.084964775 0.06960795
-0.015536058 0.002286543 0.011466153 -0.023598544 -0.020225791 0.021470055 0.04462779 0.097806364
0.0019493414 0.018853005 0.0048210397 -0.056191143 0.07098197 0.02211681 -0.022573218 0.0018566921
0.045259655 0.20429522 -0.057010718 0.08684882 0.0739368 0.027220823 -0.0072883912 0.014392378
-0.0455246 0.070446394 0.0063803745 -0.050577022 -0.047955103 -0.07424863 -0.05338479 -0.024991728
0.06144387 0.053058133 0.015331622 0.36399618 -0.100535706 0.021487592 0.09645181 0.11186461
0.32580653 -0.20521313 0.27546957 0.15677623 0.06992438 0.028186841 0.328858 -0.25384456
-0.12641583 0.040578973 0.0820658 -0.07414724 -0.4139198 -0.1262991 0.060334526 0.0104241595
-0.055826057 -0.015632916 0.08353203 0.06389501 0.04495675 -0.0035530329 0.021218596 -0.2884927
-0.10393587 -0.11150663 -0.060640454 0.030310832 -0.0051384056 0.015462481 0.27974507 0.20770462
0.12974927 -0.0706106 -0.030986434 -0.0053881034 0.026251763 -0.015338096 -0.07850405 0.073959135
-0.032139562 0.041840456 0.034547567 0.0046227574 -0.06187759 0.059876285 -0.15495913 -0.029550197
-0.085865945 0.06537963 0.0063516274 -0.000617072 -0.03596022 0.12523326 0.021487556 -0.015928797
-0.06442227 0.14629403 0.06592306 0.037846483 0.08485569 0.2541692 -0.1615723 -0.15990838
-0.059856873 -0.0397475 -0.025610771 0.017402835 -0.018016852 -0.027764015 -0.05572339 0.0572569
0.18138671 -0.21703075 0.015325576 -0.04664912 -0.0011699309 -0.029675115 -0.0615221 -0.021549433
-0.017297678 -0.033443723 0.050017215 0.013689222 0.041829962 -0.074896276 0.06338077 -0.03969957
0.05020825 -0.032415573 0.1625963 0.13528466 0.035558417 -0.07279032 -0.016656972 -0.03916262
-0.07585345 -0.066419974 0.37258142 0.3182529 0.019362517 0.0832339 0.051356338 0.029855803
0.16971566 0.13117744 0.06804538 0.0023544189 -0.05217979 0.4691042 0.011182834 -0.0011651851
-0.0036269662 0.02235855 0.035210036 0.0022922158 0.011356227 0.037460137 -0.009835411 -0.004417776
0.00097019225 -0.049888737 0.084952734 -0.121332645 -0.08491532 0.029819846 0.075778574 0.12388716

fca1.bias f4 [128]
00000000: 0449 97bc 5755 90be ed2d 08bd e956 90be
00000010: afc7 e8be b8bd c13d a8b2 ebbd b351 47be
00000020: 07c6 99be cd24 19bf fdcc 933e 715e 16bc
00000030: 3f21 dfbe b81c 17bf 1fd5 94be e415 30bf
00000040: ad6c 16bf 7d67 5abe 45ce 0dbf 9e83 aabe
00000050: 1870 7d3e 9685 81be 36b9 00bd bdb5 91be
00000060: efad eabe a12c dcbe fd91 b4be 7e4f 6abe
00000070: c0fe 20bf ff7b 1cbf 18d3 3a3e d790 8cbe
00000080: 36d1 34bd e5e2 3abe 49fa 08bf d94f 87be
00000090: 5a52 a9be 6882 fbbd f2c0 12bf adc7 293e
000000a0: 15c1 d7bc f847 70bc fc7c 3ebe c99b bdbe
000000b0: 2e4f 23bd 3098 debe b3d0 3bbd 6a56 983e
000000c0: f19c fbbc d66c d1be e522 2dbf 3e45 b7be
000000d0: 1766 4f3e f2b0 14be c285 b8be dcdc c6bc
000000e0: 836b ecbe 1fab fd3d f620 29bf c5db 16bf
000000f0: 774a 70be f31b 67be e493 84be aa58 323e
00000100: 078d 67be 6b09 89be 715d c1be 5606 19bf
00000110: 6d2f e23c 447c 2bbf 56f5 dabd caf5 fcbe
00000120: 7f84 2dbe 1909 07bf 9a69 05bf d318 a8be
00000130: 4b59 ae3e 0fa0 b1be 0fea adbc 2053 b4be
00000140: 4ddc d33a 423c 0fbf a8e2 02bd e17e 1dbe
00000150: 5629 0fbf a50d 25bf 22ad f2be 06fd 463d
00000160: 1538 a2be 726c fcbe 0867 183d e986 cfbe
00000170: 6da3 5abe f6de e9be 6501 29be 80b3 d03d
00000180: e2c3 43be 9ce0 32bf 1f8c 2cbf cd93 dabe
00000190: f356 cebe 0e85 6abe 9536 0fbd 813e 00bf
000001a0: 68dc fcbd d5f6 bcbe e0d5 eebe ea0f 11bf
000001b0: 0328 32be 3a13 363e c8be fbbe fcc8 4cbe
000001c0: b308 96be 368d 61be b441 77be 68c6 70be
000001d0: 6ce0 533a 8f8d 67bd 116f 7ebe 0da8 9cbc
000001e0: 30d3 f0bc 34f0 09be e31e 58bd 197f 88bc
000001f0: 0647 2ebf fa4d 043f df04 2cbf 53d4 df3e
-0.018467434 -0.2819011 -0.033246923 -0.28191307 -0.45464846 0.09460014 -0.11508685 -0.1946476
-0.30033895 -0.5982178 0.2886733 -0.00917779 -0.43580052 -0.59028196 -0.29068848 -0.687834
-0.58759576 -0.2132854 -0.5539287 -0.3330354 0.24749792 -0.2529723 -0.03142663 -0.28458968
-0.45835826 -0.430028 -0.3526763 -0.22881886 -0.6288872 -0.61126703 0.18244588 -0.27454254
-0.04414483 -0.18250616 -0.53506905 -0.26428106 -0.33070642 -0.122807324 -0.5732566 0.16580077
-0.026337186 -0.014665596 -0.18602365 -0.37032917 -0.039870434 -0.43475485 -0.045853328 0.2975343
-0.030714484 -0.40903348 -0.6763137 -0.35795015 0.20253788 -0.14520624 -0.3603955 -0.024275236
-0.46175775 0.123861544 -0.6606592 -0.5892909 -0.23465906 -0.22569256 -0.25894082 0.17416635
-0.22612391 -0.26764998 -0.37766603 -0.5977529 0.027610505 -0.6698649 -0.10691325 -0.49406272
-0.16945074 -0.52748257 -0.5211426 -0.3283144 0.340525 -0.34692428 -0.021229772 -0.3521967
0.0016163677 -0.5595132 -0.031954437 -0.15380432 -0.5592245 -0.64473945 -0.47397715 0.048581146
-0.31683412 -0.49301487 0.037207633 -0.40532616 -0.21351404 -0.45677918 -0.16504438 0.10190487
-0.19117692 -0.69873977 -0.6740131 -0.42690888 -0.40300712 -0.22902319 -0.034964163 -0.50095373
-0.12346727 -0.36907068 -0.4664755 -0.5666491 -0.17398076 0.17780772 -0.49168992 -0.19998544
-0.29303512 -0.22026524 -0.24146158 -0.23513186 0.00080824527 -0.056531485 -0.24847056 -0.019123102
-0.029397577 -0.13470536 -0.05276383 -0.016662167 -0.68077123 0.5168148 -0.6719493 0.43716678

fc2.weight f4 [128, 256]
00000000: cd4b 8d3d 81b7 923d d20d 7f3d 5bf2 90bd
00000010: 4886 58bc 7f3f 87bc 9c67 aa3d 2863 2ebd
00000020: 5e47 a33b 1e58 47bd 6068 613b 00c2 f33b
00000030: 4501 05be 1ca6 2abd cabd 763d 201c a53d
00000040: 1297 b4bd 6e81 6ebc 6b7b a83d 6054 8dbb
00000050: 110a b23d 121b 023c 38eb 0dbc 27f9 f83c
00000060: 288a 12bd f9f4 8dbd f528 643c d231 71bd
00000070: d4d8 8e3c ec53 70bd 3048 2bbc a0cc aebd
00000080: 1b61 863d e009 71bd 8c36 fb3c 0cc6 97bd
00000090: 29be c2bd 0b5e 453d a49c 063d d723 7b3c
000000a0: f9ca 46bd c06a 51bb 6330 75bd e07b 7a3d
000000b0: d3ca 74bd afdd c0bd 0035 073a f125 26bd
000000c0: 4564 6d3d 6cb4 503d 174d a4bc 7f35 de3c
000000d0: 1127 00be deb8 47bd 766c dcbd 0a10 7dbd
000000e0: dc55 39bd 4fb9 103c 20a8 76bd 23bb d8bc
000000f0: d8ae e43c b889 cbbc 4eec 24bd 35e5 a03d
00000100: 4baa a8bd 9b28 833b dccc 29bd 7cc3 8dbd
00000110: 3478 8fbc e4eb 75bb 8063 31bd 8e8a 5ebd
00000120: 120c e1bd 48f3 fb3c 64c9 e2bb c175 c3bb
00000130: 60b7 013b 04ed 58bd 350a 8bbd 13ee 9ebd
00000140: 1fca b03d 84f4 043d c0ec 063d 22db 353d
00000150: b823 433b a0a1 c73b a9d5 debd c037 b9bc
00000160: 635b 03bd 599a 09bd acef e23c 800d 163c
00000170: a804 85bc f2df 93bd f705 f13c 0223 3abb
00000180: 9bfd 743d 9e93 06bc de16 0e3d 5ef3 5bbc
00000190: 5045 19bc 1c9b b3bb c88a 71bd 5a0c 93bd
000001a0: bb6b 0cbb f0bc 92bd 1057 d3bb 016c 8abd
000001b0: 1014 f53c 5b54 28bd 7fa0 9abd 78d0 92bd
000001c0: 4058 92ba 7dca 5a3d 42ad 7bbd 40c6 a5bb
000001d0: ac84 c1bc 055f 85bc 354d 983d 271e 08bd
000001e0: f061 9b3c d2f5 023d e43b 42bd 90c2 9dbc
000001f0: c81e 67bb 8a08 553d f079 413d 8fbc 98bd
00000200: b509 e4bc bb76 83bd cd77 edbd 2db1 bdbd
00000210: 3376 4e3d 7848 9bbd 6cd3 57bd f7fe a3bc
00000220: 007b 70ba 7874 a7bd 0b37 e1bd c320 75bd
00000230: cc38 9f3c 6a6c 333d 0838 bebc 3068 ca3c
00000240: de70 353d 9dd3 b4bc 28be 133d 0bb4 613d
00000250: 0bd0 cebd fc79 863c 511b f23c 0b24 96bd
00000260: eaea 7fbd 4c71 c93c 9e87 1b3d 40ad abbb
00000270: 80b6 18ba 1a9a fdbc 7124 4cbc 36b8 553d
00000280: ed0e 3ebd c191 30bd d0b5 943c c92e b43d
00000290: d705 40bd fd6d 98bd 083b 03bd 47e4 90bc
000002a0: 693c 013c 3fd7 b6bc bea7 debc 87f3 973d
000002b0: 9b12 a6bd bd80 a33d a3ee 61bd e19a 0abd
000002c0: 55b2 d1bd 40b5 993c 3b68 a53d b568 50bd
000002d0: 3994 9e3a 42b4 c33c 3a7c a3bd 74e5 ebbd
000002e0: 108f 1fbd 188c 4bbd bac3 403d f96f 26bc
000002f0: 36f2 203d 2050 55bd 13c4 8ebd c4e0 46bc
00000300: cc72 75bd e770 91bd a09b 6e3b 7ca7 203c
00000310: 6151 93bd 4c29 87bd 32b4 a73c d8ae 7dbc
00000320: c0ee 1f3b e127 ac3d 62f1 0a3d 60a3 283c
00000330: b3a7 02be 5f20 a63d 85d7 b4bb 3f70 a4bd
00000340: ef6e cabb d5fb acbd 1a9c 3abd 17bf 2dbd
00000350: 6a0f 333d b2c3 163d 4e3e 653d cf87 5c3d
00000360: 9fc7 36bd 1f2f 70bc 4a22 31bc 186e 893d
00000370: 1dda 5abd 140c d73c 0d86 f7bd d0e4 72bd
00000380: 41ff e83c 38d0 2fbc 8280 533d f0c7 9b3b
00000390: 241c 6c3d a6bc 5c3d 8748 373d b0ca 81bd
000003a0: c61c 3dbd 6001 df3c fa21 1bbd ae2e 653d
000003b0: fc11 ae3c baa0 43bd 094b 923d 3260 2c3d
000003c0: 6904 27bc b2f7 1f3d 46ca 78bd f597 b23d
000003d0: 346a d0bc 7cf7 3d3c ea20 bbbd 3818 a5bd
000003e0: 3546 8fbd 1ffc 86bd fb8a 0cbe 9f89 5dbd
000003f0: 90e7 b93c 94b4 96bd 9fd2 adbd 45a1 bf3c
0.068992235 0.07163907 0.06226904 -0.07077476 -0.013215609 -0.01650977 0.08320543 -0.04257503
0.004982873 -0.04866802 0.0034394488 0.007438898 -0.12988766 -0.04166232 0.06023959 0.08062005
-0.08817877 -0.014557226 0.08226665 -0.004313037 0.08693326 0.007941024 -0.008662038 0.030392243
-0.035776287 -0.069314905 0.013925781 -0.058885403 0.017437376 -0.058673784 -0.010454223 -0.08535123
0.0656149 -0.05884731 0.030665658 -0.07410821 -0.095089264 0.04818539 0.032864228 0.015328369
-0.048533414 -0.0031954497 -0.0598606 0.061153293 -0.05976374 -0.09417283 0.0005157739 -0.040563527
0.057956953 0.050953314 -0.02005629 0.027125118 -0.12514903 -0.048760287 -0.10762875 -0.061782874
-0.045247898 0.0088332435 -0.06021893 -0.026456421 0.027915403 -0.024845943 -0.04026442 0.07856218
-0.08235606 0.0040026433 -0.041455135 -0.06922051 -0.017513372 -0.0037524635 -0.04330778 -0.054331355
-0.1098863 0.030755654 -0.0069209803 -0.005964965 0.0019793138 -0.05296041 -0.06789056 -0.07760253
0.086323015 0.03245975 0.032940626 0.044398434 0.0029775929 0.0060922652 -0.10880596 -0.022609591
-0.032069575 -0.033594463 0.027702175 0.009158492 -0.016237572 -0.072204486 0.02942179 -0.0028402214
0.05981217 -0.008213906 0.034689777 -0.0134247225 -0.009354904 -0.005481137 -0.058970243 -0.0718009
-0.0021426517 -0.07164943 -0.0064495876 -0.06758881 0.029916793 -0.041096073 -0.075501435 -0.071686685
-0.0011165217 0.053415764 -0.06144453 -0.0050590336 -0.023622833 -0.01628066 0.07436601 -0.03323188
0.018967599 0.031972714 -0.047420397 -0.019257814 -0.003526615 0.052010097 0.04723543 -0.0745784
-0.02783666 -0.064191304 -0.11595116 -0.09262309 0.050405692 -0.07582182 -0.052691862 -0.020019038
-0.0009173602 -0.081765115 -0.10996827 -0.059845697 0.019436263 0.043804564 -0.023220077 0.024707884
0.04429709 -0.022073561 0.03607002 0.055103343 -0.10098275 0.016415589 0.029554041 -0.073310934
-0.06247989 0.024590157 0.03797113 -0.005239159 -0.00058255345 -0.03095727 -0.01245986 0.05217763
-0.046400953 -0.04310775 0.018153101 0.08797986 -0.04688057 -0.074428536 -0.03203872 -0.017686976
0.007887938 -0.022319434 -0.027179595 0.07419496 -0.081090175 0.07983539 -0.055159222 -0.03383911
-0.10239092 0.018763185 0.08076521 -0.050881106 0.0012098617 0.023889665 -0.07982679 -0.11518374
-0.038954794 -0.04969415 0.04706166 -0.010158532 0.03929349 -0.052078366 -0.06970992 -0.012138549
-0.059923932 -0.071016125 0.0036408678 0.009805556 -0.07193256 -0.06599674 0.020471666 -0.0154835805
0.002440378 0.08406044 0.033921607 0.010292858 -0.12759285 0.08111643 -0.005518856 -0.08029222
-0.006177775 -0.08446471 -0.045559026 -0.042418566 0.043715872 0.036807723 0.05596762 0.053840455
-0.044623967 -0.014659672 -0.010811398 0.06710452 -0.053430665 0.026250876 -0.12086115 -0.059300244
0.028442027 -0.010730796 0.051636226 0.004754059 0.057644024 0.053890847 0.0447469 -0.06337488
-0.04617002 0.027222335 -0.0378742 0.05595272 0.02124881 -0.047760703 0.07143218 0.042083926
-0.010193923 0.03905458 -0.060739778 0.0872039 -0.025441267 0.011594649 -0.09137137 -0.0806126
-0.06995813 -0.06591057 -0.13724892 -0.054086324 0.022693425 -0.07358661 -0.084874384 0.023392329

fc2.bias f4 [128]
00000000: d070 e7bd 2333 61bd a918 b0bc c7df 83bc
00000010: aca1 f5bb bb89 4ebd 1531 f0bd 7bf1 2fbe
00000020: 4756 9abd 4d25 c7bd 750b c0be 4b87 eabd
00000030: 636b 67be 111a 17be c4d2 aabd 999d e8bd
00000040: 820b e1be 89d5 a6bd 2a86 b1bd 4e20 cebe
00000050: fe67 193d 35d6 da3c a2cb a7bd 2a31 34bd
00000060: 28f1 24bd c952 f4bd 9498 a9bd e0e2 4cbe
00000070: 6c03 a0bc 8b73 8cbc 5abc 69be 836b 6dbd
00000080: 8428 593c b5d7 6abe b10b bdbe a7ec d3bd
00000090: 1abf 3ebe 5600 9a3b c69a 99bc 820c 28be
000000a0: 2f6b 3b3d a563 8ebd 3aa5 09be d05a 6b3e
000000b0: e944 7cbd abf0 c4bd f8cb 41bd 5e9d 3fbd
000000c0: db26 19be db54 9abe d8a8 52be f66b b5be
000000d0: e7f3 00bd 0316 ccbd cebd 8e3c 9ca5 83bd
000000e0: 1968 8abd 0195 abbd e8a0 a6bc e7cd c8bd
000000f0: c80c 00be 7ee0 48bd 0ad6 cd3b 40aa d03c
00000100: b8e4 9bbd 45e5 97bd 69d8 88bd f441 8cbd
00000110: 6e18 07be 87ff e6bc 61b1 85be 29d4 08be
00000120: f3df e1bd 4709 18bd 14ab 6fbe 1fea c93b
00000130: c1eb 94be eb1a 3cbd 96f4 84bd 54d8 c3bd
00000140: a8db ddbb 970e 24bb 1e37 8abd d10e 65be
00000150: 1f2d 88bd 3064 a3bc 3365 d8bc 0d1e a3be
00000160: a962 52bd fc94 36be 9bc0 a9be 561a c5be
00000170: 2955 b4bd 404d 2bbd 5130 08be fdda 82be
00000180: f5b6 5abd 06a1 c0bd aad1 a8bd b03e 54bd
00000190: 6743 07bd 189c d7bd b9e7 57bd 3f1a 88bc
000001a0: 7a7b c4be 8920 4cbd cc0f 8dbe ef05 89bb
000001b0: a0d9 7abe 8f27 3abe a56e 053d a6da 8fbd
000001c0: e43f debd 58c7 b8bc de5e 33be 20c2 debd
000001d0: b0d6 c4be 751d f5bd 7904 c33c 453b 34be
000001e0: f90c 3fbe b2ff 2cbe c52d 86bd fd95 85be
000001f0: 7138 4ebe 38ff 28be dabf 8bbd c141 93bd
-0.11300814 -0.05498041 -0.021496134 -0.016097916 -0.0074960794 -0.05042432 -0.11728112 -0.17181961
-0.07535987 -0.097239114 -0.3750874 -0.11451586 -0.22599559 -0.14756037 -0.083409816 -0.11358184
-0.43954092 -0.08146197 -0.08668168 -0.40259022 0.03745269 0.02671347 -0.08193137 -0.0439922
-0.040269047 -0.119298525 -0.08281055 -0.20008421 -0.019532882 -0.017144939 -0.22825757 -0.05796386
0.013254289 -0.22933848 -0.36922982 -0.10347872 -0.18627587 0.004699747 -0.01875056 -0.16411021
0.045756515 -0.069525994 -0.13441935 0.22983861 -0.061589155 -0.09616216 -0.04731366 -0.046780936
-0.14956228 -0.30142865 -0.20572221 -0.3543393 -0.031482603 -0.09965136 0.01742449 -0.06428072
-0.06758136 -0.083780296 -0.020340398 -0.09804898 -0.12504876 -0.049042217 0.006281619 0.025471807
-0.07611984 -0.074167766 -0.06681902 -0.06848517 -0.13192913 -0.028198017 -0.26111892 -0.13362183
-0.11029043 -0.037118223 -0.23405105 0.0061619426 -0.29086116 -0.04592411 -0.064919636 -0.09562746
-0.00677057 -0.002503311 -0.06748794 -0.22368933 -0.06649231 -0.019945234 -0.026415443 -0.31858864
-0.05136362 -0.1783027 -0.3315476 -0.38496655 -0.088053055 -0.04182172 -0.13299681 -0.255577
-0.053397138 -0.09405713 -0.08243115 -0.051817596 -0.033023264 -0.105278194 -0.052711222 -0.016614078
-0.38375455 -0.049835715 -0.27551115 -0.0041816155 -0.2449708 -0.18179153 0.032576222 -0.07024126
-0.1085203 -0.022555992 -0.17516658 -0.1087687 -0.38445044 -0.11968509 0.023805844 -0.17600735
-0.18657292 -0.16894415 -0.065516986 -0.26090994 -0.20138718 -0.16503608 -0.06823702 -0.07190276

fc3.weight f4 [1, 128]
00000000: 9547 05bc 5d31 b53c 0067 12bc 970c 40be
00000010: 1e0c 36bc 9417 7f3c 9724 48be 0af9 05be
00000020: f615 19b8 8f3c c9bb a0f6 bcbf 7363 2abe
00000030: b344 d5be 06f0 98be 56b4 243b a050 fc3a
00000040: a06b 80bf 904f 923c cb57 ae3c bc42 75bf
00000050: 7a41 953c 0e03 f83c 96a4 ee3c 80b0 473a
00000060: d1d6 f23c f738 1ebf 923d 95bc 19f6 b7bf
00000070: 820b 9ebb 0ceb b43a 0cd4 45bf 9d79 b53c
00000080: 992b df3c 7527 24be ee34 b9bf 8ab3 3abc
00000090: 0a1c 9bbe c568 be3c dc1a 203c 967d 13be
000000a0: c1cd fcbe b1f8 a6bc 0f69 1cbe 4744 3e3f
000000b0: 87ff e63c f7a8 87bb e660 a2bc 453b b43b
000000c0: b81f a3bf 0a33 4abf a217 eebe 8a46 29bf
000000d0: c6f3 1ebe 483e 8bbe 6234 9f3c 5a06 e0bb
000000e0: 5715 dc3c f470 173d ae5e 003c 7dd2 95be
000000f0: 4ec9 f6bd bd3d a2bb b29e e03b b0b5 11b9
00000100: 2e0c d23b 1d2e a2bb d9d8 22c0 a66c a83a
00000110: 345d 84be ff7d 873b c103 8dbe 6e03 1ebe
00000120: 117d 81be 0ed4 3abe ce4f 90bf ed3b a1bf
00000130: 5db7 25bf 09e2 cbbc fe38 c5bc 5abf 58be
00000140: d441 f6bc 77d8 e6bc 2961 9c3c 2234 87be
00000150: 2bbd 49be d3f1 fe3b 4901 4cbb bfab 43bf
00000160: ba09 b6bc c54f 5bbe 3c9e e4bd 91c0 94bf
00000170: a9a4 aebe cda3 0bbd 397c e7bd a4ae 57bf
00000180: 8d79 d23c 74eb a53b 5b8a 9abf af4f ca3c
00000190: 6594 ab3c 5e67 6ebc bdd6 f43c 9896 9b3c
000001a0: b872 92bf 87c3 543b ddfd 2bbf 887c e73c
000001b0: 5aaa 443e e948 bbbe 43e3 2d3b e9c5 d6bc
000001c0: 6728 66be 03df e13c 5cff 2cbe c02d 7abc
000001d0: 4343 78bf c3d0 53be e8e9 e7bc 65ea c7be
000001e0: 964a b2be 91fe d8be c386 98be f54b a7be
000001f0: b0ed 43be cfe6 44be 267b cc3b 6f68 243a
-0.008134742 0.022118265 -0.00893569 -0.18754803 -0.011111287 0.015569586 -0.19545208 -0.13083282
-3.6498495e-05 -0.0061412524 -1.4762764 -0.166395 -0.41653976 -0.29870623 0.0025131903 0.0019250102
-1.0032845 0.017860204 0.021282097 -0.95804954 0.018219698 0.030274894 0.029131215 0.0007617548
0.029643448 -0.6180567 -0.018217836 -1.4371978 -0.004823149 0.001380296 -0.7727668 0.022152716
0.027242469 -0.16030677 -1.4469278 -0.0113953445 -0.3029483 0.023243317 0.009772029 -0.14403376
-0.49375728 -0.020382257 -0.15274452 0.7432293 0.028198017 -0.004140015 -0.019821595 0.0055002295
-1.2744055 -0.7898413 -0.46502405 -0.6612326 -0.1552268 -0.27195954 0.019434158 -0.0068366947
0.026865644 0.036972955 0.007835073 -0.29262152 -0.120501146 -0.0049512074 0.0068548555 -0.00013895961
0.0064101433 -0.004949345 -2.5444853 0.0012849763 -0.25852358 0.004134893 -0.27541927 -0.15430996
-0.2529073 -0.18244955 -1.1274354 -1.2596413 -0.64732915 -0.024888055 -0.024075028 -0.21166745
-0.030060686 -0.02817939 0.019089298 -0.26406962 -0.19701068 0.0077802925 -0.0031128696 -0.7643394
-0.022221435 -0.21417148 -0.11162993 -1.1621267 -0.3411 -0.03409176 -0.113029905 -0.84250855
0.025692726 0.0050634686 -1.2073473 0.0246962 0.020944783 -0.014551012 0.029887551 0.018992707
-1.1441259 0.0032465176 -0.6718424 0.028257623 0.19205609 -0.36579064 0.0026533164 -0.026217418
-0.2247635 0.02757216 -0.16894287 -0.015269697 -0.96977633 -0.20685105 -0.028309777 -0.39046016
-0.3482253 -0.4238172 -0.29790315 -0.32675138 -0.1913364 -0.19228671 0.0062402664 0.00062716653
