reinforce/codes_for_book/c07/Models/3000_actor.pt (torch_old, 173430 bytes, 8 tensors)

fc1.weight f4 [256, 6]
00000000: a4f7 03be 8614 07bf 887a 92bf ebc6 743f
00000010: 61b4 fbbd 6245 95bf 0818 473c c662 bfbc
00000020: 3c77 59bd 00f0 8039 9efb 0bbd 1a3e 1dbd
00000030: 8a91 3bbd 65df 503d 2af1 7ebd 6456 be3c
00000040: 78b9 3a3c 7c5c d7bc 2b94 82bd 497e 4c3e
00000050: fd6f 6d40 10b7 cb3f df8c 70bf 02be 7cbd
00000060: bc82 fabc 1521 48bc 54b2 4b3d 7cb3 013d
00000070: da65 2ebd a2d8 73bd b81f d73c 96aa 1a3d
00000080: ac0f b5bc 8838 103c 241b 26bd 0818 5c3d
00000090: 5dc5 2abd 305f 92bd 1509 853c 511b f2bd
000000a0: 577f ef3b 851c dbbc 944a 57bd 62f5 43bd
000000b0: e094 30bb 1ea2 6abd 0cdf a1bc 7492 2fbd
000000c0: ccf8 1dbd 403f 033b d8ad 163c c8e7 e9bc
000000d0: d6c5 16bd 20f3 5ebc 8970 69bd 1652 0cbd
000000e0: c0b4 653b af44 d3bc e0db 45bd 29f2 f2bc
000000f0: 4866 55be 3432 3ebe ad69 4c3d 9a20 02be
00000100: 2a9e 13be 5a73 30be 9693 f8bd f4e9 bcbd
00000110: 9094 38be a15f 9dbe cdd6 2bbe adef 3dbe
00000120: 84bd f23c f473 41bd 5ae8 30bd c0e6 28bb
00000130: 6480 09bd 20f7 36bc 9b28 83be c61d 99be
00000140: dd80 2bbf 59d8 ddbe 5ed5 99be bd43 a1be
00000150: e045 9bbd c199 edbe c01f 863f 220f dcbf
00000160: ada6 adbe 5dac 2dbf 985f 18bc 2e15 593d
00000170: 78d2 e73b 00ae 753c 54b1 833c 3a36 1bbd
00000180: a708 41bd e036 d43c 8fd4 663c 9d56 343d
00000190: fb07 0dbb 0db1 053c 62a5 41bd 4e31 45bd
000001a0: 203a e7bc 2311 753d 6a5c 7d3d 50fc 953b
000001b0: be0b 713d cec8 27bd 7aa4 453d 90ea 54bd
000001c0: 289f 7fbd 3419 df3c f20b 563d 807a c5bb
000001d0: 1869 013d d1e7 683d 1ccb de3c f886 ccbc
000001e0: 3c5b 04bd 7035 2a3c b817 7ebc b0b7 3abd
000001f0: e493 84bb c868 5dbd b070 413d 3c9a b03c
00000200: e4a9 ff3c 1061 8e3c 2a6b 45bd d9c7 5fbd
00000210: b09d 92bd 13ee 9e3c 521e 953d 6aa8 8b3c
00000220: e2fb 1d3d 9621 6fbd c369 45ba b8d5 7ab9
00000230: 7efc 35bd d2c3 a73b 083c 923c bfb4 a3bd
00000240: cf7d 6b3e 3a70 e63e 8b9e 1d3f a0a8 a540
00000250: 78d6 93be 1d6f 98bf a42e 153d 402e 903a
00000260: 989c 70bc 0c16 833c 6289 283d baa0 c3bc
00000270: 4f75 6f3e cb58 b73e 8a84 40c0 7977 9d40
00000280: cc1f 33bf 2a41 bfbe 4cdc 83bd 2642 493b
00000290: d246 a73d 8393 95bd 5a2d 44bd 7b6a cebd
000002a0: 9325 4e3f bf91 c2be cd39 8340 2948 41c0
000002b0: 5c84 5fbf 70ac de3e 6a3e 463d e02d adbc
000002c0: acf5 5fbd da7c 303d 5e0d 26bd 2065 e9bb
000002d0: 502f ccbd 7324 bb3e 6710 94bf 29f6 8040
000002e0: 1b66 f23d 55b1 30bf 7cd0 d6bc 440e 483d
000002f0: c801 77bd ac92 06bd 84cf 683d 0a3b 0bbd
00000300: 749a c63c ad32 0fbd 7965 56bd b63b 3fbd
00000310: 600e 423d 113f 4339 1ad3 df3e d2ce ed3e
00000320: 6bf0 5f40 8e66 9040 fa89 b9be 3819 a8be
00000330: 1a0a 793e 114a 1cbf cfb0 02c0 4f8d c9c0
00000340: 6b53 e0be aa73 b63e 2bdb fdbd ca98 0bbe
00000350: 951a 22be 2b5c a8be ddf2 34be f571 34be
00000360: d253 733d 5021 d8bc 8e6e 5bbd 08de abbc
00000370: dca6 64bd 1e17 2fbd d4ef 033d 9f62 79bd
00000380: bc1f 203d a872 04bc 2c95 503d f8e9 523c
00000390: 92e6 72bd f086 583d c4e0 463c ac0a 7c3d
000003a0: 5e93 0d3d 9f39 40bd fc6a 753c 6857 51bd
000003b0: 20ac 8d3c ce6c 3b3d 6080 d33c 3053 c93b
000003c0: ff4a 91bd 57d7 4f3f 140d 51c0 31ba 2fbd
000003d0: d94c bfbd 8dbd 9cbf 784c 73bd 688c ccbc
000003e0: c085 9e3c a850 213d b08d 0a3d d2ec 603d
000003f0: 5a22 cdbd 4093 debd c628 90bd 4a5c e0bc
-0.12887436 -0.5276569 -1.1443644 0.95616025 -0.12290264 -1.1661799 0.012151726 -0.023362529
-0.053092226 0.00024592876 -0.034175508 -0.038389303 -0.045793094 0.050994296 -0.06224171 0.023234554
0.011396758 -0.026289217 -0.06375917 0.19970049 3.7099602 1.5915241 -0.9396495 -0.061704643
-0.030579917 -0.012214919 0.049730614 0.03166531 -0.042577602 -0.05953277 0.026260242 0.03776034
-0.0221022 0.008802541 -0.040553227 0.053733855 -0.041692127 -0.07147062 0.016239682 -0.118216164
0.0073088813 -0.026746998 -0.052561358 -0.047841437 -0.0026944205 -0.057283513 -0.019759677 -0.042864278
-0.03856735 0.0020026714 0.009196721 -0.028552905 -0.036809765 -0.01360777 -0.056992088 -0.03425797
0.0035050362 -0.025789587 -0.048305392 -0.029656487 -0.20839798 -0.18573838 0.049905468 -0.12707749
-0.14415804 -0.17231503 -0.12137525 -0.092243105 -0.18025422 -0.30737022 -0.16781159 -0.1854846
0.029631384 -0.047229722 -0.043190338 -0.0025772303 -0.03356971 -0.011167318 -0.25616917 -0.29905528
-0.66993505 -0.43329123 -0.300456 -0.31496993 -0.07581687 -0.46406367 1.0478439 -1.7192118
-0.33916226 -0.6784113 -0.009300135 0.052998714 0.0070746504 0.014995098 0.016075768 -0.03789351
-0.047127392 0.025905073 0.014088764 0.044027913 -0.002151965 0.008159888 -0.047276862 -0.048142724
-0.028225958 0.059830796 0.06185571 0.004577197 0.05884909 -0.040962987 0.04825256 -0.05198151
-0.062407643 0.027233697 0.052257486 -0.006026566 0.031594366 0.056861702 0.02719646 -0.024966702
-0.03231357 0.010388717 -0.015508585 -0.045585334 -0.0040459502 -0.054055005 0.047226608 0.02155792
0.03120894 0.017380267 -0.048197903 -0.05463395 -0.07158983 0.019400632 0.07281174 0.01704808
0.038570292 -0.05838164 -0.00075307133 -0.00023921474 -0.04443025 0.005119779 0.01785089 -0.07993459
0.22997211 0.45007497 0.6157004 5.176834 -0.28874564 -1.1908909 0.036421433 0.0011000112
-0.014685772 0.016001724 0.041146643 -0.023880351 0.23384593 0.3580993 -3.0080895 4.920834
-0.69970393 -0.37354404 -0.06438503 0.0030709594 0.08167805 -0.07303526 -0.047894813 -0.10078903
0.80526084 -0.3800182 4.1008058 -3.0200293 -0.8731134 0.43490934 0.048399366 -0.021140039
-0.05467765 0.043087818 -0.04054009 -0.0071226507 -0.09969962 0.36551246 -1.1567506 4.030049
0.11835881 -0.6902059 -0.02622246 0.04884173 -0.060304433 -0.03285472 0.056838527 -0.03399185
0.02424357 -0.034960438 -0.052342866 -0.046687804 0.04737699 0.00018620143 0.43715745 0.46446854
3.499049 4.512519 -0.3623808 -0.3283174 0.2432026 -0.61050516 -2.0420415 -6.2984996
-0.43813643 0.3563512 -0.123953186 -0.13632503 -0.15830453 -0.3288282 -0.1767077 -0.17621596
0.05940611 -0.026383072 -0.05357223 -0.020979896 -0.055823192 -0.042746656 0.03221114 -0.060885068
0.039092764 -0.008083977 0.05092351 0.012873165 -0.05930192 0.05286306 0.012138549 0.061533615
0.03456437 -0.04692995 0.01497912 -0.051108748 0.01729399 0.04575806 0.02581805 0.00614395
-0.070943825 0.8118796 -3.2664232 -0.042902175 -0.093408294 -1.2245346 -0.0593991 -0.024969295
0.019350886 0.03938356 0.03382653 0.05491335 -0.10016318 -0.108679295 -0.07039027 -0.027387757

fc1.bias f4 [256]
00000000: 8113 723d d28b cdbe 6bb0 c9be ae55 49be
00000010: 511b f2bd e040 07be a3c7 fdbc a479 80be
00000020: 58f7 89bd c87f 7abe aa90 093d 3282 c53a
00000030: 087d 39be 3f25 0b3d 292f 733d 6444 c8be
00000040: 5656 36bd 41ed b3be 5840 c9bd 2c8d c2be
00000050: 8b2a bcbe 70a7 90bd 2713 91bd 4bde 58bd
00000060: 1660 18be 633e b4be 011f 403e 6882 ae3a
00000070: cce2 573e 1cd8 0bbe b0d5 db3e d8d6 cabd
00000080: cd6a a1bd 452a 403e 1bcf b03e 0058 713a
00000090: 1a50 9abe ddb1 66be ae2a 06be dc51 89bd
000000a0: a9e5 4e3e e145 6cbe 681b 9c3c 0e18 c6be
000000b0: 5379 a9bd 7ecf 52bd 92af 81be d6dd 06bc
000000c0: 5c56 f53e 0246 15bc 49a1 ce3e 5782 42be
000000d0: 5a92 013c bbcf 203e 821b 19be 1a3a e23c
000000e0: 73a6 1a3d 364d dcbd 3159 93bb d930 ccbe
000000f0: be0b b0be 07a9 a3be b8d1 5dbe f252 8fbe
00000100: 941a 59be 7aa8 27bd 64f0 c6bd f8e1 a7be
00000110: 01ff c6be 428c 55be 57ac ccbe 3e0a 193c
00000120: fc6d d03e 195d 93bd 897f 0a3c a8c8 12be
00000130: 91f5 cbbe b309 c5be a087 08bd e8ac 403c
00000140: 3efb 77bc beb0 33be a950 0abe d844 01bf
00000150: a595 b83d d884 99be 767c 033f 1e69 c23e
00000160: 8f8f 733d 2043 b4be f8d6 38be c2c3 0b3d
00000170: fc98 94bd 003a cfbd 0be1 c4bb 1259 8cbe
00000180: 00ad 3abd 7291 643e cefb 8dbe e00d 58be
00000190: ebc4 9fbe 3818 a5bd 3a13 74be 5ad5 81be
000001a0: ca21 e33e 7c9d f8bd 7384 f53e 4730 ed38
000001b0: ef46 c13e 98d0 cabd 8511 e43c 1028 c1bd
000001c0: 9f89 ddbc 2a6d 1ebb 9775 aa3d b42a a0bd
000001d0: 45f1 d03e 717f bcbe feb9 90be 8cc4 ddbd
000001e0: b6e7 77be 420c 0fbe 745e adbd 8d90 90be
000001f0: 806d 38bd 542a 2abe dc25 173c 9a31 8ebe
00000200: 5b0b 58bc 0c63 2abe 1521 c8bd 0cca cf3b
00000210: a0a3 b1bd 4ab8 43be 338f 67be 3747 ddbd
00000220: 5805 fbbd b455 2abe c474 bc3c c935 f93c
00000230: d4f1 d83c fbc5 79be c660 13be f71c 66bd
00000240: 2fc6 b9be a616 1ebe d7db efba 38ce a1be
00000250: 119e 21be efb3 113e 1997 c23c 3061 e63e
00000260: 2f94 c9bd ac0b 923c d891 8abd 60f0 373e
00000270: 4c2c a13b 7b19 aa3e 21a0 623e 0c73 2f3e
00000280: 055d 8fbe 516f b9bc c0fe c13b cc58 adbd
00000290: 4557 a13b c320 75bd c81c 21be 7853 eabd
000002a0: 48af dfbd 8f9c 96be 3fe3 d23e 51a7 3bbe
000002b0: c852 17be 7e55 6f3e 02b7 5f3e 213d 8a3c
000002c0: ee42 ee3b 1844 95be 5086 ae3b b1d1 423c
000002d0: 2835 9bbd 302a 153e 1b25 b33e 16f2 adbe
000002e0: 40f6 b7be 5b93 753e 6c03 a03b ee1e b9be
000002f0: 4ba2 c63e 4c83 afbe b063 b6bc 2c12 2b3e
00000300: 6426 5fbe b40b 3d3e a499 96bd e6d9 783c
00000310: 0cf4 7abe 7056 80be 8d72 643e f040 b6be
00000320: 606f 09be aea5 da3e b5e4 bcbe 7a21 e03e
00000330: dadd cdbe d70b f23d fbfc 95bb 18ca 243c
00000340: b58b f33e 9f65 74be 0a94 f3b9 f7ed adbc
00000350: 9862 84bd 3c84 053e 2394 063d 8f66 87bc
00000360: 0d14 eebc 8f87 a13e bb60 15be 2cde 203c
00000370: 5699 c1be 17c6 b7be 1d01 35be 1f4f 073c
00000380: c058 88be eb65 61bc f476 a7be 3774 403b
00000390: ed09 5c3e 36e7 363c 84a3 04bd 8c1b a5bd
000003a0: 3a6d f53e 80d4 cdbd 33cc 6a3b 18a1 9cbe
000003b0: 6f15 48be b27e bebe 06ac 663e 2073 383e
000003c0: 9599 f7bd 7ce1 cfba abb2 ebbc e565 fcbc
000003d0: 9918 94be c251 82bd 79a4 f03e 78a1 9bbe
000003e0: fffa 07be 8594 e3bb b9e9 133c d240 a8bc
000003f0: f6e7 17be 8206 a2be 1ed2 86bc 26b9 1ebe
0.05910063 -0.40145737 -0.3939241 -0.1966159 -0.118216164 -0.13208342 -0.030978983 -0.25092804
-0.0673663 -0.24462807 0.033585228 0.0015068708 -0.18114102 0.033971068 0.059371147 -0.39114678
-0.04451593 -0.35141948 -0.09826726 -0.3799833 -0.36751208 -0.07063186 -0.07083731 -0.05294637
-0.14880404 -0.35203847 0.18761827 0.001331401 0.2108261 -0.13656658 0.42936468 -0.099042594
-0.07881699 0.18766125 0.3453301 0.00092065334 -0.30139238 -0.22528787 -0.13102219 -0.067050666
0.20204796 -0.23073532 0.019056037 -0.38690227 -0.08275094 -0.05146741 -0.25329262 -0.008231601
0.4791745 -0.009110929 0.40357426 -0.18995033 0.007908428 0.15704243 -0.149519 0.027615596
0.037756395 -0.10756914 -0.0044967164 -0.39881018 -0.3438396 -0.31964895 -0.21662033 -0.2799297
-0.21201545 -0.040932156 -0.097138196 -0.32789588 -0.38866428 -0.20854285 -0.39975235 0.009340821
0.4070891 -0.07195491 0.008453258 -0.14334357 -0.3983579 -0.38483962 -0.033332467 0.011759974
-0.015135584 -0.1754789 -0.13507332 -0.5049567 0.090129174 -0.29984164 0.5136179 0.37970823
0.05946308 -0.35207462 -0.18050754 0.034122236 -0.07255742 -0.101184845 -0.0060082725 -0.27411705
-0.045575142 0.22321108 -0.27731174 -0.21099043 -0.31204924 -0.0806126 -0.2383546 -0.25358087
0.44361717 -0.12139413 0.47952613 0.00011310033 0.3774943 -0.09903067 0.027840385 -0.094314694
-0.027043162 -0.0024173954 0.0832321 -0.07820645 0.40809074 -0.3681598 -0.282669 -0.10828504
-0.24209484 -0.1396952 -0.08465281 -0.28235283 -0.045026302 -0.1661771 0.009225335 -0.27772218
-0.013186301 -0.16639346 -0.09771935 0.0063412245 -0.08673787 -0.1911327 -0.2261322 -0.10804599
-0.122568786 -0.16634256 0.023004897 0.030421155 0.0264825 -0.2439193 -0.14392385 -0.056179967
-0.36284015 -0.15438327 -0.001829977 -0.31602645 -0.15782954 0.14228795 0.02375369 0.44996023
-0.09842717 0.017827831 -0.06766099 0.1796279 0.0049186107 0.33222565 0.22131397 0.1713373
-0.28000656 -0.022636088 0.005920261 -0.08464202 0.0049237334 -0.059845697 -0.15733635 -0.11441702
-0.10922104 -0.2941632 0.41189 -0.18325545 -0.14777672 0.23372456 0.21847156 0.016874852
0.0072711622 -0.29153514 0.00532607 0.011890815 -0.07578498 0.14566875 0.34989247 -0.3397376
-0.3593006 0.23981993 0.0048832204 -0.3615641 0.38795695 -0.3427986 -0.022264332 0.16706151
-0.21791989 0.18461496 -0.073535234 0.01518867 -0.24507159 -0.25065947 0.22309323 -0.35596418
-0.13421392 0.4270453 -0.3689324 0.4377554 -0.40208322 0.118186645 -0.0045772768 0.0100579485
0.47567526 -0.2386689 -0.0004645887 -0.021231635 -0.06464118 0.13038725 0.032856118 -0.016528396
-0.029062295 0.31548735 -0.14587681 0.009818595 -0.378123 -0.35893318 -0.17676206 0.00825861
-0.2663021 -0.013757209 -0.32707942 0.0029366144 0.21488161 0.011163523 -0.032382503 -0.08061895
0.47934896 -0.10050297 0.0035827279 -0.30591655 -0.19539426 -0.37206036 0.22526559 0.18012667
-0.1208984 -0.0015860046 -0.028771719 -0.030810306 -0.28925017 -0.0636325 0.47000483 -0.30396628
-0.13279341 -0.006945195 0.009027892 -0.020538721 -0.1483458 -0.3164559 -0.016457614 -0.15500316

fc2.weight f4 [128, 256]
00000000: aba5 9fbd 5bfe 8bbd 56d8 673d da17 fdbe
00000010: ccae c73c 7eec 8dbd 34c0 ec3d 60e2 86bd
00000020: 2e23 a5bd 8dbe 983d 3eac 1d3e 73bc b2bd
00000030: 8ddb 25bd e8f8 88be 602a af3e 5e26 4dbd
00000040: 5799 873d 3aeb 2a3d eb3e 55bd dbae 153d
00000050: 848e da3c 6ef5 6a3d d5f6 d03c 68ff 2e3d
00000060: ee10 9a3d 34b9 9ebc b594 0fbf a033 c13d
00000070: 0df0 2f3f e1b0 96bd 28cc f7be cd74 993d
00000080: 6cb4 933c 19c7 2abf 27c6 0c3f 5032 673d
00000090: 403b 4dbb ca83 50bd 6ef1 a2bd b8db a5bd
000000a0: 920a c93e e7b5 983d 61df 893c 8c09 f8bc
000000b0: 4d53 053f eceb 033c f846 1fbd 2e17 493d
000000c0: 2707 abbd 5a52 12bd c015 893f 604f 0bbc
000000d0: 195f 683d 64bc 06bf b637 253d 06c7 af3f
000000e0: 3ecd bb3d b691 db3c 1ca6 aabe 1c7c a4bd
000000f0: 0899 3dbc 57b7 c9be 958a 31bd 9094 69bd
00000100: e250 583d 96ac 5a3d 579a 00bd 0852 033c
00000110: a7d3 90bd 0d35 86bf c01f 733c f649 49be
00000120: 0eec 56bd 77a8 b0bd 51a7 13be dc8c 293f
00000130: cacd 003d 28e5 a1bd 06d6 86bd 9ef2 b7bd
00000140: 3a06 a83b e0af 2a3b e8d9 71bd ea74 d73d
00000150: 7bbb 863f 673d 08bd 347c 6bbe f51c 2a3e
00000160: 5eda 18bf 4414 503d 9fc7 ae3d 8511 64bd
00000170: 8a8c 56bd f533 5b3a cedd 783c 2607 4d3d
00000180: 1081 c23b 63da 27bc 56e2 2c3d 7ad1 e03c
00000190: 5704 a9bd 9aee 72bd e9d5 a1bd 8086 c9bb
000001a0: de26 1cbe 388b 143c f247 903f b2d6 3a3c
000001b0: eb52 3fbf e43a abbd 0543 183e 585b ae3d
000001c0: d07f 883c 5d4d 22bd 41d6 30be 580c b1bc
000001d0: 4735 09be ac48 86bd 979e 8bbd 24fd c5bc
000001e0: 9028 3a3c ba78 363d 00d6 db3a 991e b2bd
000001f0: 58cd 37bd 1e96 78bd 6f41 40be f383 8e3d
00000200: e765 1a3c b2b8 103d 404e 383c de42 d23d
00000210: 5309 f5bc 658f 983d 6051 6e3b 386e c13d
00000220: 7b78 b33d fd0c 853d dbaa 6bbd 4349 ce3e
00000230: d644 19be f8ff ccbc f3af 0ebe 6e18 87be
00000240: 0e28 fabc e18f 133d 2e17 493d 793e f2bb
00000250: d050 28bf 43bb 44be ddd2 3cbb bd78 323f
00000260: ea98 c3bc e836 a63d de0b 67bd 166f 3c3e
00000270: 18f3 ddbd 45db b83d 82f1 d7be f129 e23c
00000280: 4054 8ebb d596 dd3d 13dd a83c 9c50 39bd
00000290: 3c0f 8eb9 a2ba 313d 9be5 9a3d dd44 5bbd
000002a0: d068 73bc 0212 3a3d 2c7e 0ebe f0f8 8ebb
000002b0: eaac 1f3d c964 94be da9c c53e 7d74 be3e
000002c0: 2320 963c 8062 413c 93c5 8c3d 6d15 64be
000002d0: 7f16 98bd f942 843e 16e4 193f d122 8e3d
000002e0: 8de6 93bd 894e 423e 19cb f2bc ca43 203d
000002f0: 3111 3e3e d05a a63b 8c31 1fbd ab5b d93b
00000300: cf2c 9a3d 6d24 0d3f 00ef c23a 5ef7 05bd
00000310: 387c 993c db69 20bd a9f0 cd3d 98ec 4bbc
00000320: 588e 69bc 7634 133e 36c1 4a3d c9ac 403f
00000330: 4227 abbd 2a8c 423e ad45 da3d 8f39 a43c
00000340: 175a 2ebf 2744 a13d 58a0 d43d b4ca bcbe
00000350: a3bc eebe 15e9 0240 aeb1 4e3f a950 0a3e
00000360: 2bce b13c 49b0 b43e 63e2 9bba c175 43bd
00000370: dc86 aabc 4063 3dbc ad6c a13d d5d8 8ebd
00000380: 4745 243e 926c cd3c 04cc 7cbd 3f1c 5d3d
00000390: 8533 99be 2e0f 293d 2aa3 63bd 6356 923d
000003a0: 2ecf 323f 0242 573d 24fe a93d e082 41bc
000003b0: d783 903d 7826 af3d 78fe 5dbe fa31 57bf
000003c0: 79db 09be d492 8bbd c0db 70bc 4cc6 eb3e
000003d0: 10ac 74bc a061 6c3c 4a6e 303f 900e 083c
000003e0: 00e4 d1bc a3c7 7d3d bbf9 02be db04 323e
000003f0: 84f8 d5bc 6027 b73b 044b 923a c472 a63c
-0.077952705 -0.06835624 0.0566028 -0.4943226 0.024375342 -0.06929873 0.11560097 -0.06586146
-0.080633506 0.0745822 0.15397736 -0.0872735 -0.040492583 -0.267524 0.34212017 -0.050085418
0.06621044 0.041728236 -0.052061956 0.03654371 0.026679285 0.057362966 0.025508324 0.042724043
0.0752276 -0.019375421 -0.56086284 0.09433675 0.68725663 -0.07357956 -0.48397946 0.07492981
0.018030368 -0.6671005 0.54989856 0.056444466 -0.0031315833 -0.050906934 -0.07956205 -0.08098549
0.39265877 0.0745657 0.016830148 -0.03027799 0.5208023 0.008051854 -0.03888604 0.04909437
-0.083509736 -0.035723068 1.0709763 -0.008502811 0.056731317 -0.5263121 0.040336333 1.3732612
0.09170006 0.026802879 -0.33329856 -0.080314845 -0.01157213 -0.3939769 -0.043345053 -0.057026446
0.05281151 0.053387247 -0.03139719 0.008015163 -0.070716195 -1.048494 0.014839113 -0.1965712
-0.052471213 -0.08625882 -0.14419295 0.6623056 0.031446256 -0.07905036 -0.065837905 -0.089818224
0.0051276954 0.002604477 -0.059045702 0.105203465 1.0525964 -0.033261683 -0.22996598 0.16612609
-0.597082 0.050800577 0.085341685 -0.05568077 -0.052380122 0.0008361929 0.015189601 0.050055645
0.0059357956 -0.010244939 0.04220804 0.027443636 -0.08252781 -0.05930958 -0.07902128 -0.006150067
-0.15249202 0.009066395 1.1271956 0.011403726 -0.747359 -0.08360842 0.14869316 0.08513516
0.016662508 -0.03962456 -0.17269231 -0.021612331 -0.1339923 -0.0655683 -0.06817358 -0.024168558
0.01136221 0.044548728 0.0016772151 -0.08697242 -0.044873565 -0.060690038 -0.18774961 0.06958761
0.0094237095 0.03533239 0.011249125 0.1026666 -0.029911673 0.07449225 0.0036364421 0.09444851
0.08763214 0.06496618 -0.057535987 0.4029027 -0.14967665 -0.0250244 -0.13934307 -0.26385826
-0.030536678 0.036025885 0.04909437 -0.007392701 -0.6574831 -0.1921206 -0.0028812208 0.6971548
-0.023876626 0.08115941 -0.0564078 0.18401751 -0.10837382 0.09026197 -0.42176443 0.02760789
-0.0043435395 0.108197846 0.020613229 -0.04524289 -0.000270957 0.043390878 0.07563325 -0.05353247
-0.014856532 0.04542733 -0.13915318 -0.0043631718 0.038983263 -0.28983143 0.3859623 0.37198249
0.01832587 0.011803269 0.06873622 -0.22273798 -0.07426166 0.25832346 0.60113657 0.069402345
-0.072217084 0.18975271 -0.02963786 0.03912715 0.18561246 0.0050767437 -0.03886561 0.006633242
0.07528078 0.55133706 0.0014872253 -0.03270661 0.01873599 -0.03916345 0.10055668 -0.012446545
-0.014255129 0.14375481 0.049500667 0.7526365 -0.08357097 0.18998781 0.10657821 0.020046977
-0.68106216 0.07874327 0.10382146 -0.368734 -0.46628293 2.0454762 0.8073987 0.13507332
0.021704754 0.35290745 -0.001189303 -0.04771972 -0.02081626 -0.011559308 0.078820564 -0.06974951
0.16042052 0.025076184 -0.061718002 0.053982016 -0.2992212 0.041274242 -0.055575527 0.07145383
0.6984738 0.052553184 0.083004266 -0.011810988 0.070563965 0.08552259 -0.21679103 -0.84060633
-0.13462628 -0.068151146 -0.01470083 0.46049726 -0.014933601 0.0144275725 0.6891829 0.008304253
-0.025621414 0.061957967 -0.12790577 0.17384665 -0.026119478 0.0055894107 0.0011161272 0.020318396

fc2.bias f4 [128]
00000000: fb61 86bd aa47 1b3e 80da bdbb 9d44 c33d
00000010: eeec 51bd 8f12 80bd 71b2 c2bd 4ff1 7b3e
00000020: 2afb 94bd f11e 59be 42dd fc3b 77dc 10be
00000030: 9404 34bd 3a3c f2be 1559 22bd 0a21 f3bc
00000040: b463 8dbe 5978 e9bd 9f58 2abd ddc9 103e
00000050: 2061 4bbd 03fb 4ebd bdb5 aabd 63e7 a63e
00000060: fe58 78bd 69a5 68bc 4cbc 6cbb ca7c 9ebd
00000070: 2503 a2bd ac83 b3bc d4b7 a93b 5c3d b3bb
00000080: 9fe3 a3bd c87d a5bc a458 97bd 6229 28bd
00000090: c7a8 903c 0731 1bbf c7a5 90bd e8cd fabc
000000a0: 3a28 94bd 8d68 dc3b 6fcb b03e ab11 58bd
000000b0: 17b4 b6bd 8766 79bd b4b9 c6bd 3b8e 9f3b
000000c0: cbe8 a8bd 2b06 8cbd fb9b 02bc 4bc6 95bd
000000d0: 5788 91bd 54f8 7ebc 9c74 f6bd 682c 12bd
000000e0: 2367 90be e06e 2ebd 2914 dfbd 9100 c3bd
000000f0: 5a49 b1bd 8963 1dbd 1a9c 3abd 8592 0ebd
00000100: 9114 02be 1504 42bd 0f03 a8bd 1c29 aa3c
00000110: 2382 b33e 2dab bebc d993 af3c 1201 6abd
00000120: 0287 34be 596b 1dbd 676c 40bd 0605 3fbd
00000130: e821 42bd 6ccd c3bd 1b31 febc 161c 013d
00000140: 381a fabb 617f 29be c369 45bd 6e58 b5bd
00000150: be5f 8dbd 35ce 863c 7f1d 9bbe be44 6fbd
00000160: e78e 53bd 9bad a03d 3a0e 3c3d 0bd0 4ebc
00000170: 0e12 19bd d052 a5bd 9b9a 0cbd b40f 63bd
00000180: 1a8b 44bd 79e6 80bc 91d9 debd 3da9 85bd
00000190: b353 3bbd e331 febe b984 56bd e71c 4abd
000001a0: ba82 81bd d23c fe3b 8a6a eabd 222c a8be
000001b0: bbe8 8cbd 11c2 42bd d096 a03e 8a32 83bd
000001c0: ce1a 723e 1bfc d9bd a995 b0bd 4c59 84bd
000001d0: 999d e8bc 3d8b 1ebd caf0 7cbe 99bf 4e3b
000001e0: ac83 b3bd 6d6e a33b 346b 4ebd 166f 103b
000001f0: c684 4fbc 304e 9cbd 5dda b53e 897f 0abd
-0.06561657 0.15164056 -0.0057938695 0.09534571 -0.051251344 -0.0625354 -0.09506691 0.2460377
-0.07274468 -0.2120321 0.0077168057 -0.141466 -0.04394968 -0.47311574 -0.039635736 -0.02967884
-0.2761513 -0.113999076 -0.041588422 0.14139505 -0.049653172 -0.050532352 -0.08335445 0.3259841
-0.060631745 -0.014199593 -0.0036122976 -0.077386454 -0.07910756 -0.021913372 0.0051793847 -0.005469961
-0.080024 -0.020201579 -0.07389954 -0.04105509 0.017658604 -0.60621685 -0.070628695 -0.030615762
-0.07234235 0.0067263306 0.34530208 -0.052751224 -0.08921068 -0.060888793 -0.09703389 0.00486925
-0.08247527 -0.06837114 -0.007971759 -0.07313212 -0.07106083 -0.015562136 -0.1203396 -0.03568688
-0.28203687 -0.042586207 -0.10892517 -0.095215924 -0.08656569 -0.038425002 -0.045559026 -0.0348077
-0.12703158 -0.047367174 -0.082037084 0.020771556 0.35060224 -0.023274982 0.021432804 -0.057129927
-0.17629626 -0.038432453 -0.04697838 -0.04663565 -0.047395617 -0.095606655 -0.031029275 0.031520925
-0.00763252 -0.16552497 -0.048196565 -0.08854757 -0.06903027 0.016455749 -0.3029594 -0.058415167
-0.051649954 0.078456126 0.045912005 -0.0126228435 -0.037370734 -0.08072436 -0.03432713 -0.055434898
-0.04798422 -0.015734898 -0.10881341 -0.0652642 -0.04573412 -0.49647436 -0.052372668 -0.04934397
-0.06323762 0.007758715 -0.11446102 -0.3284617 -0.06880327 -0.047548357 0.3136506 -0.06406124
0.23643038 -0.106437884 -0.086222954 -0.064623445 -0.02839546 -0.038707007 -0.24701229 0.0031547307
-0.08765349 0.004987529 -0.050395206 0.0022038869 -0.012665933 -0.076321006 0.3551816 -0.033813033

fc3.weight f4 [64, 128]
00000000: bde8 773e a585 a3be c79f 11be 1756 313f
00000010: 4a11 bbbd 980d 2d3d 21a4 9c3d 6904 3d3e
00000020: d756 5d3d 9a7d 32bf 89f3 e83d cfdb 23be
00000030: 642e a03d 94c9 9f3f b3f7 9f3d 007e e93a
00000040: 77d4 4abf f727 ddbd 2c86 0b3e 33f1 bbbe
00000050: 5cd6 203d de24 903d 5bef 6abd e8bc 663f
00000060: 0bc3 82bd 27a3 dc3d 68a9 123e d651 653d
00000070: f877 7abd 73cd a83d 734a a9bd 890f 563d
00000080: 684c 893d b76d 1abd 913a f2bd 062c 23bd
00000090: 6437 093f 16e7 98bd afd2 c9bd 371e 243e
000000a0: 3984 af3d 8306 6dbd 58f3 453e 61d6 ffbc
000000b0: 6b97 953d edc5 ed3d ba9a c43b 0e2e 86bd
000000c0: 08ca 88bd 8643 3f3d f65a bf3d f953 b93d
000000d0: 5c03 84bd acbd 623a b188 723b 3caf 04bc
000000e0: a3eb 2cbf 4e76 bfbc 4e31 99bd 9bd9 33bd
000000f0: f112 7bbb 049f b3bd e496 933d 0059 3d3d
00000100: 83b3 1ebf 7ca9 75bc f924 81bc 3a8b 7c3d
00000110: c258 76bf beb5 8ebd e0c9 ca3d 902f fb3d
00000120: 7ee8 933e 0516 b53d 2a6f 733c 3cf6 7fbd
00000130: db70 bcbd 290b c2be adc0 853d fce2 f9be
00000140: d4b7 293e 039f a3be 3f0f 113e a968 4dbc
00000150: 4a7c 333f 765f 10bd 2172 0ebe da37 94bc
00000160: 7cb4 ec3d 8dff f2bd 4534 aa3e 9b2a d83d
00000170: cc85 933d cc96 86bd a659 653a 7583 d1bd
00000180: d8cd 5ebd 21a4 9cbd 7661 e53d 19e7 dfbd
00000190: e1f0 a6bb 0b6e 1840 3b9f 15bd f589 f73d
000001a0: 282f f53d c95b b93d 091a a63d 6bc5 f13d
000001b0: 7305 033e 57d3 b6bc 8755 c9be 2140 b2bc
000001c0: 2cc6 733e 5020 9b3c 5055 68bd 6b97 95bd
000001d0: 39a0 9c3d 644b 7d3e 598d 09bf 1516 d13d
000001e0: 92b5 1dbd c97e 733d 31f2 003e 7bf8 c4bd
000001f0: f454 903d e52e 47bd 97dd 773f 4772 87bc
00000200: 1a54 fabc 55b9 e33e 4895 413d e0bf 9ebe
00000210: f8dc b73d 3a89 27bd 9a75 7dbd 89e4 093f
00000220: 1c52 e33b d3d7 653f 2a0c 8bbd 7a8c 3a40
00000230: e072 d9bd bbfc 67c0 c2fd 3abc 4e3d c8bd
00000240: 6c04 1bbf 61c3 1c3e f3ac 82bd c29c b23f
00000250: 6ff8 6f3d d052 253d 9289 d83d 537c 67bf
00000260: 6ef3 f7bd a1d3 7b3c 7f0e 7abb 648f b3bc
00000270: 32f9 4d3e 4d53 853d a04f 2e3d 7fda 493e
00000280: 9dac 50bb a3d0 9f3d bdcd 6dbd 55ce bebd
00000290: 5fbc 3a3f b867 9b3f 86f9 dbbd 5606 19bc
000002a0: 998a 9dbd 9780 adbd ad8b 69bd 28d0 9cbe
000002b0: f488 a9bc 044b ecbb 1588 5abd 7ab5 73bd
000002c0: dd3d 5a3c 4718 c1bc 905c debd 0610 b63d
000002d0: cf81 5d3c 5611 10bc 8b96 463e b11a 13be
000002e0: a867 16bf 4a22 b1bd ab62 ce3d 31af 2f3c
000002f0: 8780 11bd 7fad e6bd 0c48 d6bd 305f 92bd
00000300: 8e39 023f df7f a43d 1cdd 853d 29ad ccbd
00000310: ac02 9b3e 7576 85bd 34dc d93a ec64 fe3d
00000320: 2a81 8b3e 2018 fb3b 6517 ab39 2975 f2bd
00000330: c52e 8fbd 3184 79be 13a5 4e3b 25e8 583f
00000340: 7721 b7bc b79c 903f 2f11 4a3c 78a9 ae3d
00000350: a24e 15bf 90c1 9bbd e259 5b3e 0925 1dbb
00000360: d5d8 0ebd 6703 52bf f4a2 11bf 12ab cd3d
00000370: 76f3 853d 708d 19bc ac67 c63d f996 8a3d
00000380: d9f4 c2bd e018 12be cf9d cabd 8614 073e
00000390: 359c 2b3d 7665 c83e c80b 9cbd fc8f 843c
000003a0: f870 d33d 96f8 353d 6743 073e ea33 c3be
000003b0: a9cf 5f3d 6135 263e 128f bbbd 9735 883a
000003c0: 3d02 9cbf 4171 94bb 7a1a a43d 9a03 f43d
000003d0: 8a07 023e edf7 cc3e e439 be3e e5e3 213d
000003e0: 041c b4bd 2018 fbbd 30c2 7abd 7f1d 9b3d
000003f0: ad16 22bc 656d 47bb 025e b3bd 176b e6bc
0.24209876 -0.319379 -0.14221106 0.6927199 -0.09134157 0.042249292 0.076484926 0.18458714
0.054037895 -0.697229 0.11374576 -0.16001819 0.07821348 1.2483392 0.07810917 0.001781404
-0.79230446 -0.10798638 0.13625401 -0.36707458 0.03926693 0.07038282 -0.057357173 0.90132
-0.06384858 0.10773306 0.14322436 0.055986248 -0.061149567 0.08242311 -0.08266153 0.05226091
0.067040265 -0.03770229 -0.11827577 -0.039836906 0.53600144 -0.07465951 -0.09854638 0.16027151
0.08570141 -0.05786754 0.1933111 -0.031230154 0.07304271 0.11610017 0.00599989 -0.06551753
-0.066791594 0.046695255 0.09343521 0.0904922 -0.06445953 0.0008649479 0.0037007744 -0.00809842
-0.67547053 -0.023371842 -0.07480107 -0.043908697 -0.003831085 -0.08770564 0.072065145 0.046227455
-0.61992663 -0.0149940215 -0.0157647 0.061656214 -0.96229184 -0.06968258 0.09901786 0.12264931
0.28888315 0.088420905 0.014858047 -0.062490687 -0.09201213 -0.3789914 0.065308906 -0.48805988
0.16574031 -0.31957254 0.14165972 -0.01253716 0.70111525 -0.03524729 -0.13910724 -0.018093038
0.11557862 -0.11865149 0.33243003 0.10555001 0.07203254 -0.06571731 0.00087490154 -0.102301516
-0.054395527 -0.076484926 0.1120023 -0.1093275 -0.005094633 2.3817165 -0.036528807 0.1208686
0.11971885 0.0905071 0.081104346 0.118052326 0.12795047 -0.022317572 -0.39323065 -0.021759095
0.23806065 0.018936306 -0.056721985 -0.07304271 0.076477475 0.2473579 -0.53731304 0.1020929
-0.038503237 0.059447084 0.12592389 -0.096177064 0.070474535 -0.048628706 0.96822494 -0.016533984
-0.03055768 0.44477335 0.047261506 -0.31005764 0.08977693 -0.040902354 -0.06187973 0.5386434
0.0069372784 0.89782447 -0.067894295 2.914824 -0.10617614 -3.6248004 -0.01141304 -0.09777318
-0.6055362 0.15308906 -0.06380644 1.3954089 0.058586534 0.04036218 0.105731145 -0.9042408
-0.121069774 0.0153702805 -0.0038155613 -0.02191896 0.20114592 0.06510029 0.042556405 0.19712256
-0.0031841167 0.07803466 -0.058057535 -0.093166985 0.7294368 1.2141027 -0.10740952 -0.0093398895
-0.07692451 -0.08471792 -0.05701797 -0.3062756 -0.020695187 -0.007211091 -0.053352434 -0.05949924
0.013320413 -0.023571147 -0.10857499 0.08889775 0.013519718 -0.008793196 0.19393365 -0.1436565
-0.58751917 -0.08649118 0.10077413 0.010722921 -0.035522964 -0.112635605 -0.104629606 -0.07147062
0.5086907 0.08032202 0.06536314 -0.09993965 0.30275476 -0.065167345 0.0016621412 0.12421593
0.27246982 0.007662788 0.00032633092 -0.11838753 -0.069913425 -0.24366833 0.0031531497 0.84729224
-0.022354824 1.1297826 0.012333198 0.08528417 -0.5832311 -0.076052785 0.21421006 -0.0023978374
-0.034874756 -0.8203644 -0.5688927 0.10042395 0.06540577 -0.0093721 0.096877426 0.06767077
-0.09519357 -0.14267302 -0.09893381 0.13191423 0.041897018 0.3913991 -0.076194346 0.016181938
0.103242815 0.044426523 0.13209306 -0.38125545 0.0546414 0.162313 -0.09158148 0.0010391948
-1.2188183 -0.0045301025 0.080128625 0.119147494 0.12698188 0.40032902 0.37153542 0.039523978
-0.08794406 -0.12260461 -0.061220348 0.07573985 -0.009893102 -0.0030430194 -0.08758165 -0.028127236

fc3.bias f4 [64]
00000000: f8f2 41be 9d2b 633e c7c3 2cbf 7e34 10be
00000010: 2333 e1bd a03b 1bbe 98c0 a93d 1f95 35be
00000020: 6d93 0a3e 2dab bebd 11b0 ef3d ccf2 4fbf
00000030: 9bee a0be 6315 a93e 51ea 85bc 2354 0a3f
00000040: bd1e 5ebe 863c 52bd f4e7 003e 5690 e5bd
00000050: fd24 c83c 5c80 04be 4f1c f9bc 8c42 17bd
00000060: cbd1 233e 62b7 1ebe 5c56 d03d 398f a6be
00000070: e4ff 9a3d a87a fa3d b597 dabd d959 80be
00000080: a616 d1be 734a 29bd 97ba 5cbd c492 6c3e
00000090: 861a 86bc b147 f0bd b794 803d cc0f 8dbe
000000a0: 662e 863e 0e46 e33e 060c 913d e500 6b3d
000000b0: 1263 443e f157 d5be 8175 23be b14e fb3e
000000c0: 1fc8 dd3c 766d 58bb fa83 b83e c8fe 6fbf
000000d0: 6ed1 19bf 1b7a 4ebd 0b3f 073f 16a0 b8bd
000000e0: 9e05 10be 8b4c a8bd d48a 46bd 91f5 cbbe
000000f0: bddc 0ebc 9dd1 17be 39ee d2be aa73 8c3e
-0.18940341 0.22184606 -0.6748623 -0.14082524 -0.10996082 -0.15159464 0.082886875 -0.17732666
0.13532801 -0.09309993 0.11703504 -0.81229854 -0.31432042 0.3302413 -0.016347082 0.5403463
-0.21691413 -0.05132725 0.12588483 -0.112091705 0.0244317 -0.1293959 -0.030409006 -0.0369287
0.15997998 -0.15499642 0.10172722 -0.32531145 0.075683385 0.12230426 -0.10673467 -0.25068548
-0.40837592 -0.041330766 -0.053888883 0.23102862 -0.01637007 -0.11732424 0.06278365 -0.27551115
0.26207274 0.44389385 0.070823714 0.0573739 0.19178417 -0.41668656 -0.15962793 0.49083474
0.027072964 -0.0033024228 0.3603819 -0.9374814 -0.6008519 -0.050409418 0.5283057 -0.09014909
-0.14064643 -0.082177244 -0.04847224 -0.3983579 -0.00871962 -0.14826055 -0.41197374 0.27431995

fc4.weight f4 [2, 64]
00000000: 0fb5 babf 7dc6 0c3f d195 3bbf cac7 43bc
00000010: 8cea 8d3b 6cae 0d3f ac0a b240 a757 5f3f
00000020: 4345 d83f 45f2 e33c 43ef 2bbf 403a d4bf
00000030: 80db 89be fedf aebe 8407 2e3d b431 693e
00000040: d599 91bf 7f32 d7bc 954e 65be 9c02 6d3b
00000050: 4ef9 3e3c 1389 61bc f380 fa3b 4974 abbc
00000060: 7386 8b3d 7a63 813c d842 5d3f 4a3e 1e3e
00000070: 46b5 0ac0 06ef 443f 1dcd 8ebc e04e babd
00000080: 1061 2f3f a05a a5bb 4957 683b 494a 553d
00000090: cdba 3ebc e15e 923f 38a9 f740 ea69 0b3f
000000a0: 3e2e 0b40 d6f9 8e3e dc7b 8f3e 1a92 013f
000000b0: 0103 aabd 7b2c f5be d7b6 f9bc 5f32 f63e
000000c0: 1061 2fba dfcf ab3e df91 febb b2f8 26c0
000000d0: 0299 2fc0 ab62 ceba 1e18 5a3f 810c 2f3e
000000e0: 0e0e 6f3c abf0 c43c 0742 11bc c44b 07bf
000000f0: 7ce3 3f3b 9263 8cc0 435c cfbf 7e1d ce3e
00000100: 395b 51bf 8050 213d a8cf 2140 a963 553d
00000110: 7766 ddbd 31ae a63f 34c0 37bf 47c4 81bf
00000120: 6468 b7bf d27e 01bd 3007 4a3f ee1b 27c0
00000130: aebe 8e40 cb51 463f 4def e7bb ab6b 223f
00000140: 0308 a33e 37a5 79bc f6e9 07c0 fa58 31bc
00000150: 220a 283c fcf6 163d 8ee9 863c 19d1 f13d
00000160: 8f8b 51c0 ef1e 2d3d 6f10 903f 0a46 023e
00000170: 7412 48bf 7bbd 94bf df9d e63c 15af 3e3d
00000180: cec9 97bf 51ec b93b 6ca7 84bd fc47 bdbe
00000190: 35da 04bd 00d5 5040 268b 10be 8b2a bc3d
000001a0: c27d 42be 85e4 aabe 0a79 57bf 482c 8dbf
000001b0: e997 9f3f 8974 93bd b118 183f 35e2 20bf
000001c0: 251f 0f3c 411f c4bf b0c7 8140 3b42 9a3e
000001d0: b19a c33f da28 73bb efc0 8540 8a0b 853f
000001e0: 1f78 40bd 9eeb f73b 40ed 24bc ab38 8ebe
000001f0: 2720 5d3c 028e aec0 477e 7ac0 0f62 d2be
-1.4586505 0.5499037 -0.73275477 -0.011949489 0.0043309387 0.5534427 5.5638027 0.8724312
1.6896137 0.027825484 -0.6716196 -1.6580276 -0.26925278 -0.34155267 0.042487636 0.22772866
-1.1375071 -0.026269196 -0.22393258 0.0036164885 0.011656119 -0.013765591 0.0076447665 -0.020929473
0.068127535 0.015794504 0.8643012 0.15453449 -2.167314 0.7692722 -0.01743179 -0.090970755
0.6850748 -0.0050462037 0.0035452417 0.052072797 -0.011641216 1.1435205 7.7394066 0.5445849
2.1746974 0.27924985 0.28024185 0.5061356 -0.08301354 -0.47885498 -0.030482693 0.48085305
-0.00066901837 0.3355703 -0.007768854 -2.6089292 -2.7437139 -0.0015745958 0.8519305 0.17094614
0.014590753 0.02404054 -0.00886584 -0.52849984 0.0029279878 -4.3871546 -1.6200031 0.40256876
-0.8177982 0.03938341 2.5282993 0.052096996 -0.10810559 1.3021909 -0.71777654 -1.0138024
-1.4328732 -0.031615086 0.7891722 -2.6110797 4.4607763 0.77468556 -0.0070780874 0.6344554
0.3184205 -0.015237144 -2.1236548 -0.010824436 0.010256322 0.036856636 0.01646879 0.1180746
-3.274143 0.04226583 1.1255015 0.1272203 -0.7815316 -1.1620325 0.02815145 0.04655369
-1.1858461 0.005673923 -0.06477246 -0.36968982 -0.03243466 3.2630005 -0.14115581 0.09187802
-0.18993285 -0.33377472 -0.84169066 -1.1029139 1.2468234 -0.07199962 0.59412676 -0.62845165
0.008735453 -1.5322038 4.055626 0.30128655 1.5281583 -0.0037103207 4.1798015 1.0394146
-0.046989556 0.0075659296 -0.01006633 -0.2777761 0.013496435 -5.454835 -3.9139574 -0.41090438

fc4.bias f4 [2]
00000000: 7246 8b3e 9531 423e
0.27202183 0.18964227
